models/face_landmarker_pts5_net2.onnx (onnx, 409270 bytes, 28 tensors)

conv1.bias f4 [4]
000000 51 31 79 3f f7 5a 5c 3f 7c fb 75 3e 4b 29 82 3e
       0.97340876 0.860763 0.24021715 0.2542213

conv1.weight f4 [4, 1, 5, 5]
000000 69 19 ad b8 7f 37 9d b9 7e 9d 1d 3b 82 b4 d3 3b
       -8.254016e-05 -0.0002998672 0.0024050171 0.006460727
000010 90 99 0c 3b f8 fc 6a bb 40 64 eb 3a 3b 52 ed 3b
       0.0021453835 -0.0035856348 0.0017958954 0.0072424687
000020 8a c1 04 3c db 8c 3c 3b a5 4f 18 39 9a cd 44 3b
       0.008102784 0.002877048 0.0001452552 0.0030029775
000030 6b 90 f5 3b aa bc ca 3b ac bb 81 3a 8d a6 74 3a
       0.0074940226 0.0061870413 0.000989785 0.00093326793
000040 d1 43 5b ba 36 89 a5 bb 6b 1c a3 bb 53 35 5a bb
       -0.00083642924 -0.005051757 -0.004977753 -0.0033295944
000050 6b e2 43 b9 02 5a 93 bb de eb 23 bc 97 10 35 bc
       -0.00018680996 -0.0044968138 -0.010004966 -0.011051319
000060 8b 7d d6 bb 31 84 c2 3b 33 67 22 bb bd be 86 bc
       -0.0065457276 0.0059361686 -0.002478075 -0.016448373
000070 26 ad 4f bc 16 e4 69 bb 7a a0 e1 3a f7 f6 69 3c
       -0.012675559 -0.0035688928 0.0017213963 0.014280072
000080 09 1d d9 3c 18 90 6b 3c e3 19 c1 bb e5 ac af bc
       0.026503103 0.014377616 -0.0058929785 -0.021444747
000090 ab 3f 87 bc 76 a7 c7 3b 72 e5 64 3c 3e 60 31 3b
       -0.016509851 0.006092961 0.01397072 0.0027065421
0000a0 87 5a 48 3b 90 f4 85 bc 5f 92 bc bc d6 36 9a bc
       0.0030571537 -0.016351968 -0.023019014 -0.018824976
0000b0 2d 76 c4 bb f9 c2 4a 3c 01 06 6d 3c db a6 20 3c
       -0.005995533 0.012375587 0.0144667635 0.009805406
0000c0 7f f6 27 3b bf 9c db 3b 56 69 1c 3b ef a8 2d 3c
       0.00256291 0.006702035 0.0023866496 0.010599359
0000d0 41 4a 12 3c 7d 01 49 3a da 3d 19 bc 2c 2b 57 3a
       0.008928836 0.0007667763 -0.0093531255 0.0008208032
0000e0 ae de df 3b dd e9 45 bb e1 f5 6e bc 08 46 95 bc
       0.0068319654 -0.0030199208 -0.014584989 -0.01822187
0000f0 3c 04 60 3b 80 3a 9d 3b 20 6f 46 3a 8b 69 eb ba
       0.0034182211 0.0047982335 0.00075696595 -0.0017960531
000100 81 1f 9a 3a 85 61 5b 39 e2 f4 b3 ba 81 86 e7 ba
       0.0011758656 0.00020921796 -0.0013729597 -0.0017663987
000110 c8 4d e8 b8 31 e3 3c 3b 37 06 48 3b 3a ab 24 3b
       -0.0001107711 0.002882194 0.0030521282 0.0025126473
000120 7a 19 4a ba da 27 d7 3a 0e ca 92 b8 6c 00 9d 3b
       -0.0007709485 0.0016415075 -6.999458e-05 0.00479131
000130 63 a7 89 3b d8 d6 e4 3a c1 45 2b 3a b9 be 39 3a
       0.0042008623 0.0017459048 0.00065335265 0.000708561
000140 0d 77 ed b8 90 33 b3 bb 71 0b 6d bb 17 2e 02 3b
       -0.000113232156 -0.005468793 -0.003617015 0.0019863897
000150 e1 97 b6 3a 3a 7e 80 bb 7c 78 24 bc cb bb 0e bb
       0.0013930761 -0.0039212974 -0.010038491 -0.0021779414
000160 43 b4 17 3c 16 17 09 3c 1d 39 64 bb 11 7c 50 bc
       0.009259286 0.0083673205 -0.0034824081 -0.012724892
000170 ad 80 22 bb c6 33 54 3c 6f c7 d8 3b 65 5e ed 3a
       -0.0024795935 0.012951797 0.006615571 0.0018109797
000180 fb 5e d4 bb 28 50 d3 bb 77 b0 f8 3a bd 77 97 38
       -0.006481049 -0.0064487644 0.0018973489 7.222544e-05

conv2.bias f4 [4]
000000 10 9e ed be d5 ac 0f 3f ce 70 e9 3f 26 a4 c5 3d
       -0.46409655 0.56123096 1.823755 0.096504495

conv2.weight f4 [4, 4, 3, 3]
000000 9c 31 f8 bd d6 63 01 be 9a aa 44 be cb 0b 4e 3d
       -0.12118837 -0.1263574 -0.19205704 0.050304215
000010 26 51 00 be b0 09 8b 3e 4f b0 fa 3e 20 7f 20 3f
       -0.12530956 0.27155828 0.48962638 0.6269398
000020 4c 99 a8 3d 80 45 2b bd 01 d4 e3 bd 86 8e 03 be
       0.08232364 -0.041814327 -0.11124421 -0.12847337
000030 5a 04 0a be 7e 39 28 3c f5 84 c8 bd 55 a5 d9 3c
       -0.13478222 0.010267613 -0.097909845 0.026568094
000040 bc a6 0d 3e f9 8a 08 3e b5 fb ed bc ce 0b cd bd
       0.13833135 0.13334264 -0.029050687 -0.10012017
000050 29 fd 13 be aa 4c 10 3e d3 44 4a 3e 1a a0 33 bd
       -0.14452042 0.14091745 0.19752817 -0.043853857
000060 2b 37 3f be 32 ec a9 be 3a ef f6 bd 87 61 23 be
       -0.18673389 -0.33188015 -0.120573476 -0.15955172
000070 b4 be 9c bd a7 bc b7 3a 0f b6 6b bc e6 59 aa bd
       -0.07653561 0.0014018015 -0.014386668 -0.08317928
000080 fc 49 ea bd 5d 88 e4 bc 7a c8 22 bd f9 4e 8c 3d
       -0.11439893 -0.027897054 -0.03974197 0.06851
000090 ca 42 2b 3e 71 f2 36 bf 69 f2 29 bd b7 28 63 be
       0.16724697 -0.71463686 -0.041490946 -0.221835
0000a0 da bc cc 3d c9 2b 9d 3c 20 a6 5a bd 3c df 99 3d
       0.09996958 0.019185917 -0.053381085 0.07513282
0000b0 d5 47 19 3c 8f 2d 01 3e c7 d3 14 3d 90 ec 07 3e
       0.009355505 0.12615035 0.03633478 0.13273835
0000c0 13 cc c4 3d 83 a9 9d 3d 55 fb 90 bd 0c 54 76 3d
       0.096092366 0.076983474 -0.07079188 0.060138747
0000d0 14 94 28 bd 42 91 bc 3c 27 c5 ab 3e 17 4f 29 3e
       -0.041156843 0.023018483 0.33548853 0.16534077
0000e0 4e bf f5 bd 7d 6c 8a 3e 6c b3 7e bf b3 a3 b6 3d
       -0.11999379 0.27035895 -0.99492526 0.08917942
0000f0 97 8a af be 3d ef 3a 3c 57 ca 84 3e 7c 30 b0 bd
       -0.34285423 0.011409578 0.25935623 -0.08602998
000100 89 57 26 3f 93 08 65 3e 58 14 f5 3d b5 94 54 be
       0.6497732 0.22366552 0.11966771 -0.20759852
000110 7e f5 5f be 20 42 17 be 49 79 d8 bd 3b c1 b1 bc
       -0.21870992 -0.14771318 -0.10570008 -0.021698585
000120 b3 a3 44 bd e4 ae da 3e 86 9f 68 3c 22 3c b8 be
       -0.04800768 0.42711556 0.01419819 -0.35983378
000130 95 5f a9 be 7e d9 eb be d7 f1 16 3d 4e 2c dd 3e
       -0.33080736 -0.4606437 0.03685173 0.43197864
000140 07 6f 64 be 32 4d b8 3b 86 01 18 3e ad b7 5f 3e
       -0.22307979 0.005624437 0.14844331 0.2184741
000150 e5 19 21 3c 4b 15 79 bc 42 83 b6 3d d9 30 07 3e
       0.009832834 -0.015202831 0.08911754 0.13202228
000160 da 8f 93 3d 61 93 2c 3e e2 dd 81 3d fd ee bf 3c
       0.07205172 0.16853096 0.06341149 0.023429388
000170 fc b8 29 bd ab 09 17 3e 69 15 80 3d b6 43 09 be
       -0.04143618 0.14749782 0.06254084 -0.13404736
000180 24 9c 2b be 47 3e 5d be 6c 0c 9a bd a8 4c bc 3b
       -0.16758782 -0.21605788 -0.075219005 0.005746443
000190 9e 30 a8 bc 06 c5 6d 3e cb 0f 7d bd ab b9 83 bc
       -0.020530995 0.2321969 -0.06178264 -0.016079744
0001a0 73 33 fc bd d4 4f 86 be 10 60 29 be 9e 46 22 be
       -0.12314501 -0.2623278 -0.16540551 -0.15847251
0001b0 b4 b0 4d be 80 74 d5 be 17 17 44 3d f7 74 c7 3e
       -0.20086938 -0.41690445 0.047873583 0.38956425
0001c0 30 19 39 bd 91 a1 7b be 65 a4 fd 3d 3c c3 89 3e
       -0.045190036 -0.24573351 0.123848714 0.26906765
0001d0 68 74 0d be bd b7 41 3e 6c 07 a9 be 3a aa b7 3d
       -0.13813937 0.18917747 -0.33013475 0.08968015
0001e0 66 cd fe 3d fb c7 a6 3e 31 6e d5 bd b5 0f 9e bc
       0.124415204 0.32574448 -0.10421408 -0.0192946
0001f0 f9 0e 07 3e 45 95 6b 3c ec 72 54 3e b3 e6 f0 3d
       0.13189305 0.01437885 0.20746964 0.117627524
000200 58 f9 c7 3c e0 71 02 be 0b 15 04 3f bf 53 21 bd
       0.024410889 -0.12738752 0.5159461 -0.039386507
000210 bd 4d b4 be 26 c3 4e be 12 bd 0d be 31 e6 da 3d
       -0.3521556 -0.2019163 -0.13841656 0.10688437
000220 cb 74 f0 be 5c f1 36 3d a0 68 f7 3e c5 52 6d 3e
       -0.46964106 0.044663772 0.4832201 0.23176105
000230 c8 6f 15 be 71 4d 27 bd 20 c6 53 3e 5c ba d1 3d
       -0.14593422 -0.04084534 0.20681047 0.10240623

conv3.bias f4 [8]
000000 ee 16 38 bf ef 4a 20 40 bf 5a 85 3f 74 64 68 3f
       -0.7190999 2.5045736 1.0418319 0.9077828
000010 8e aa 26 40 22 49 b7 3e 57 2a 9b 3f 8e e1 f3 be
       2.6041598 0.35797983 1.2122296 -0.47633022

conv3.weight f4 [8, 4, 3, 3]
000000 a0 45 96 bd 37 89 a1 3d 19 06 b4 bb 47 2c 65 bd
       -0.07337499 0.078875 -0.005493891 -0.05595043
000010 44 7c b4 3d c4 d2 74 bb a5 07 14 be d0 c6 71 3d
       0.08812764 -0.0037357071 -0.14456041 0.059027493
000020 4e 8c 32 3d a6 26 94 be ec b2 64 be 93 0c ad bd
       0.043590836 -0.28935736 -0.22333878 -0.08449664
000030 29 be a0 3c 1d 3d 21 3d d4 65 33 bc 8e 5c 86 3e
       0.019621925 0.039364923 -0.010949571 0.2624249
000040 82 a3 ca 3e d4 2b 89 3e 02 d8 f6 3d 06 6a a2 bd
       0.39577872 0.2679125 0.12052919 -0.079303786
000050 cd f2 ac 3b 1d ca 79 3c 32 e2 22 bd 57 ba b2 3d
       0.0052779675 0.0152459415 -0.039766498 0.08726948
000060 aa 66 81 3d ce b3 f5 3d bd 9e bd 3d c8 d3 2f 3e
       0.0631841 0.11997186 0.092587925 0.17170632
000070 be 11 03 3e 8a e5 22 3e 7a 45 e1 3d e8 66 54 be
       0.12799737 0.15907875 0.1099958 -0.2074238
000080 36 ed f1 3d dd 4a 1f 3e fe c0 53 3d 64 00 2c 3c
       0.118128225 0.15555902 0.051697724 0.01049814
000090 3b 48 a1 bd ef d7 b1 be af 41 d7 bd 96 57 43 bd
       -0.07875105 -0.34735057 -0.10510575 -0.04769095
0000a0 9a c8 bf bd 53 60 4c be cb 04 07 bc a6 96 a6 3c
       -0.093644336 -0.1995862 -0.008240889 0.020335507
0000b0 1a eb 40 3d 6a 57 86 bc c0 3f 10 bc 91 e9 9e bd
       0.04709921 -0.016399104 -0.008804262 -0.07759393
0000c0 85 b2 f5 3b d2 74 6c be d9 c0 5b be cb ac 5a 3d
       0.007498088 -0.23091438 -0.21460284 0.053387444
0000d0 e8 d2 59 be b2 8f 05 be 72 bf e1 bd 43 15 ab 3c
       -0.2127186 -0.13043097 -0.110228434 0.020884162
0000e0 bd 63 09 bd 08 d2 56 bd 13 c2 64 be b0 78 0e be
       -0.033542383 -0.052446395 -0.22339658 -0.13913226
0000f0 2f d6 5c 3e 31 a0 5e be 5c 0a e0 bd 94 85 e3 3c
       0.2156608 -0.21740796 -0.10939476 0.027773656
000100 ae 72 95 3d a7 b8 01 3e 4b 64 f6 3b 56 ab 88 bc
       0.07297264 0.12668096 0.00751928 -0.016683262
000110 86 4d fb 3c 25 21 ed 3d fd 9e d9 3d 18 5e 81 bd
       0.030676614 0.115785874 0.10626028 -0.06316775
000120 ea 45 35 bc 78 2e 77 bc 24 24 4c be a2 f5 0c 3e
       -0.011064032 -0.015086763 -0.19935662 0.13765576
000130 5f 78 bb bd 90 a7 ec bd 57 09 53 3e e8 9d 88 bd
       -0.09153818 -0.115553975 0.20609032 -0.06670743
000140 08 d9 f2 3d 3a da 33 3e 66 a3 5e 3e 92 03 c8 3d
       0.11857802 0.17563716 0.21742019 0.09766306
000150 ea 01 0d 3e b0 ae 5e bc 2c f6 a3 3d 80 95 17 bd
       0.13770261 -0.013591453 0.08005938 -0.03700781
000160 0c f6 e5 3d f4 cc 81 3e 39 ed 66 3e 24 48 7f bd
       0.1122857 0.2535168 0.22551431 -0.062324658
000170 9b 12 2e 3d 44 c9 f3 3d bd 6c 8a be 41 f0 3d be
       0.042498212 0.11903623 -0.27036086 -0.18548681
000180 dc 83 b2 bc f6 00 51 bd 5b e4 4b 3c c2 2e 47 3e
       -0.021791391 -0.051026307 0.012444581 0.1945143
000190 ce 53 e0 bd a6 a1 5e bc 22 b6 cd 3b 96 69 e0 be
       -0.109534845 -0.013588345 0.0062778154 -0.43830556
0001a0 93 ff 84 be 6d 3a 0a be e2 13 cc be 25 d4 0f be
       -0.25976238 -0.1349885 -0.3985892 -0.1404577
0001b0 ec c3 e5 bd fc a1 9e be 09 42 25 bd 06 d0 04 be
       -0.1121901 -0.3098296 -0.04034618 -0.1296998
0001c0 69 76 15 bf a0 6b c1 3d 66 0d 91 bd 1c 80 de be
       -0.58383805 0.09444356 -0.07082634 -0.43457115
0001d0 59 73 e3 3d 3a 9b 64 3e bb 61 1c 3d 92 aa ca 3d
       0.11105985 0.22324839 0.03817914 0.09895815
0001e0 bb c6 b0 3d 8d 4d 17 3d 03 ef e0 3d 29 4d b7 bd
       0.08631655 0.036939193 0.10983088 -0.08950264
0001f0 fc 71 68 bd 7b e0 55 bc 6a 74 25 be 58 59 a8 3b
       -0.05674933 -0.013054009 -0.1615769 0.0051376037
000200 68 24 9f bd 1e d8 b9 bd e4 c7 51 3d 74 a8 af 3c
       -0.07770616 -0.09074424 0.05121602 0.02144263
000210 d3 d5 d0 bd d6 06 32 3e 99 33 e5 3c fc f3 fd bd
       -0.10197034 0.1738542 0.027978705 -0.12400052
000220 ff fb c0 3d f1 59 78 3d 47 47 a8 3c 98 6c 5d 3e
       0.094230644 0.06063265 0.0205418 0.21623456
000230 8c 06 17 3d 90 dc 00 3e a6 ac f9 bd 3a c3 b8 3c
       0.036871478 0.12584138 -0.12191133 0.022554029
000240 43 83 bb be ff 46 51 be 64 92 c9 3d 69 53 13 be
       -0.36623582 -0.20437239 0.09842375 -0.14387287
000250 2d e2 c9 3c 22 cd e2 3d 06 56 b3 bd 10 50 01 3e
       0.024643982 0.11074282 -0.08756642 0.12628198
000260 d0 6b b3 bc 16 9b a4 bc 3a 2c 2b bd ea 31 42 3d
       -0.021901995 -0.020093482 -0.041790225 0.047410883
000270 b0 68 f6 bc f7 4f 04 3e f5 cf 6a 3d 3e a3 b7 3d
       -0.030079216 0.12921129 0.05732723 0.08966683
000280 b0 2a 0d 3e 63 d3 52 3e a9 b4 bb be b2 ed 40 be
       0.13785815 0.2058845 -0.3666127 -0.18840674
000290 a6 96 22 3c 79 9c de be ae aa ee bd 5d 02 04 3e
       0.009923613 -0.43478754 -0.11653648 0.12891527
0002a0 5a 72 86 be fe 11 15 bd ab 1c c5 3d 9a a7 00 be
       -0.26259118 -0.03639411 0.096246086 -0.12563935
0002b0 1c 00 20 be 14 ab 7d bd 08 c4 00 be f9 0d 2a be
       -0.15625042 -0.06193073 -0.1257478 -0.16606893
0002c0 61 0f 4d 3d 68 79 57 3d 0b 32 83 bc e5 a4 76 3d
       0.050063495 0.052606016 -0.016015073 0.06021585
0002d0 d3 6d 6e bd 7d 1d 02 bd ec 8b a4 bd 22 52 bf bd
       -0.058210205 -0.031766403 -0.080345005 -0.093418375
0002e0 08 d1 ee bd 33 c0 1f be f1 f4 62 bd 3c 79 be 3d
       -0.11660963 -0.15600662 -0.055409376 0.09300467
0002f0 e9 bf ac 3d 77 bc 93 ba ea e3 57 3d 66 cd 49 3e
       0.084350415 -0.0011271377 0.05270759 0.1970726
000300 e5 bb 66 bd 4c 49 9c 3e d7 84 66 3e 01 cc 06 bc
       -0.056331534 0.3052467 0.22511612 -0.008227349
000310 75 34 3f be a8 c0 a9 be 13 24 73 3d 23 9f 6b 3d
       -0.18672355 -0.33154798 0.059360575 0.05752481
000320 0c 98 0e 3e 0d 9c 94 3d 2e c7 13 3d 07 38 c0 3d
       0.13925189 0.07256327 0.036078624 0.09385686
000330 a6 98 15 3c 10 67 b9 be 06 73 34 be 19 8c 94 3c
       0.0091306325 -0.36211443 -0.17622003 0.01813321
000340 0c 31 81 bd fc b6 12 3e 67 4c 79 3e 6e 76 38 3d
       -0.06308183 0.14327615 0.24345551 0.04503482
000350 08 9a 58 bc 2d 89 30 3d f4 70 d8 3b 43 8e 05 3e
       -0.013220318 0.04309957 0.006605262 0.1304255
000360 d9 fe a4 3d 38 a8 ce 3d e3 dd 16 3e 67 00 49 3e
       0.08056421 0.10090679 0.1473308 0.1962906
000370 9d 1f 04 3e 1e 5c 9e 3d 88 bf 3f 3e 62 d7 4d 3d
       0.12902685 0.07732414 0.18725407 0.050254233
000380 2e ac 97 bd 59 b4 80 bb 0e 7a b2 bb ae 8e 98 bc
       -0.074058875 -0.003927749 -0.005446679 -0.018622722
000390 a1 fc 86 be cd 82 30 be a8 12 de bd 9d 33 b0 be
       -0.26364616 -0.17237397 -0.10843402 -0.34414378
0003a0 76 f7 6b be 7e 4e 88 bc b8 63 9f bd f8 f9 b4 3d
       -0.23043618 -0.01663899 -0.07782692 0.0883674
0003b0 18 31 b2 3d 73 0e ac bd 43 d8 b9 3d 88 53 87 3d
       0.0870077 -0.084011935 0.09074452 0.06607729
0003c0 dd 2e 54 be 22 af 15 be dc 84 38 bd 8d 72 7f bc
       -0.20721002 -0.14617589 -0.04504858 -0.015591276
0003d0 cd ad 4a 3b b4 8e 93 bc e2 fa a0 bd ed 03 aa 3d
       0.0030926347 -0.018012382 -0.07860352 0.0830153
0003e0 0a 94 ca 3c 09 88 87 be 1d 2d 50 be 1d fc 63 3d
       0.024728794 -0.26470974 -0.2032971 0.055660356
0003f0 d7 02 b6 bc 82 df b3 3e 28 4d 53 3e 68 fb b3 bd
       -0.022218151 0.3513146 0.20634902 -0.08788186

conv4.bias f4 [8]
000000 6a d8 d0 3f d9 ab e6 3f 1e 62 43 40 1e 8e 9c 3f
       1.6316044 1.8021194 3.0528636 1.2230871
000010 90 89 68 3d fe 17 1d 3f 59 48 ac 3f 93 09 cc 3f
       0.056771815 0.61364734 1.3459579 1.5940422

conv4.weight f4 [8, 8, 3, 3]
000000 af 10 d0 3d 55 0f 1c 3e 1a 7b 0e 3e 98 32 6a 3d
       0.10159432 0.15240224 0.13914147 0.057177156
000010 e2 3b c2 3d c8 91 d1 3b 40 30 02 be 10 2e 22 be
       0.09484078 0.0063955523 -0.12713718 -0.15837884
000020 2b 61 d9 bd d4 75 27 bd 1b d1 d2 bc ef 91 74 3d
       -0.106142364 -0.040883854 -0.025734475 0.059709486
000030 5a dc a7 3d 36 39 e0 bd 44 8b 26 3d 43 3d 94 bd
       0.081963256 -0.10948412 0.040660158 -0.07238247
000040 01 d5 07 be 80 05 65 be 71 eb 8d bd 65 91 9e bd
       -0.13264848 -0.2236538 -0.069296725 -0.077425756
000050 15 54 c2 bd 2b 0c 41 3c 77 2e d6 3d fd af 7c bc
       -0.094886936 0.011782686 0.10458081 -0.015422818
000060 fe 8f ce bd 46 f8 4a bd 50 22 9c bd 70 3b 43 3e
       -0.10086058 -0.04955318 -0.07623732 0.19065642
000070 17 f9 4d 3e 89 41 15 3e 15 80 8b 3e 9c 7b 67 3e
       0.20114551 0.14575781 0.27246156 0.22605747
000080 35 62 52 3e b4 fc b7 3d ad f1 27 3d 30 e3 64 3d
       0.20545276 0.08983746 0.041001964 0.055880725
000090 18 7d f7 bd 12 ed 09 be 56 13 58 bd 63 5e e8 bd
       -0.120844066 -0.13469341 -0.052752815 -0.11346128
0000a0 ca 82 08 be 4b 23 8a 3c e5 ff 7e bd e2 ba b7 bd
       -0.13331142 0.016862532 -0.06225576 -0.08971192
0000b0 91 27 e1 bd 74 60 9c 3d cb 68 0d 3d 09 8f bd bd
       -0.10993875 0.076355845 0.034523766 -0.092557974
0000c0 ca 25 82 3d 62 11 cb 3c 53 ea e9 bd aa c1 14 be
       0.06354864 0.024788562 -0.11421647 -0.14527002
0000d0 1a a4 49 be 6e 34 d9 bd ac 92 0b 3d bd 98 08 3e
       -0.19691506 -0.10605703 0.034075424 0.13339515
0000e0 41 81 cf bd 1b 46 f2 bb f3 93 fb 3d aa 3f 0c 3e
       -0.10132075 -0.007393611 0.122840784 0.13696161
0000f0 33 36 b2 bd 00 84 bc bd 85 55 a8 be 26 20 11 3d
       -0.08701744 -0.092048645 -0.32877746 0.03543105
000100 a4 77 a9 3d d4 3b 07 be 92 2c 7d 3d dd 6e 62 bd
       0.08274773 -0.13206416 0.061810084 -0.05528151
000110 43 15 20 be 1f dc 1c be 4e 9c 7f be aa 1d 52 be
       -0.1563311 -0.15318345 -0.2496197 -0.20519128
000120 39 d1 8c bd 36 cb 66 bd 26 d9 80 bd 98 61 90 3d
       -0.068758436 -0.05634614 -0.06291418 0.070498645
000130 b0 d9 0d 3d a2 13 87 bc 52 7c 84 3d c4 46 1b 3e
       0.03463143 -0.016488854 0.06469025 0.15163714
000140 37 ac 09 3e de 70 4c 3c c3 5e 28 3e 2c c6 4b 3d
       0.13444601 0.0124780815 0.16442399 0.04974954
000150 59 05 15 bd 88 90 be 3d 5d 86 6e 3e 5e 59 26 be
       -0.036382053 0.09304911 0.23293443 -0.16245028
000160 95 2e f8 bd ef 26 1c 3c 0c cf 8c be be c3 4c be
       -0.1211826 0.009530767 -0.27501714 -0.19996545
000170 7d 64 a3 bc 92 32 9c be 0f 3e 55 be f4 59 82 bd
       -0.019945377 -0.30507332 -0.20824455 -0.063648134
000180 a6 7c f8 bc a2 4b 2b bc 0f ce 2a 3d 5f 69 fa bd
       -0.030332875 -0.010455044 0.04170042 -0.12227129
000190 34 08 8d bd 34 bd 71 bd 22 dd 33 be 8d 9b 00 be
       -0.0688633 -0.05901833 -0.17564824 -0.12559338
0001a0 96 68 e9 bd b5 37 39 3d 22 e9 80 3d 67 18 cd bc
       -0.11396901 0.045219142 0.062944666 -0.02503605
0001b0 bf f9 59 be 7c 6f 0d 3e 3b 31 13 3e 30 17 7b be
       -0.21286677 0.13812059 0.14374249 -0.24520564
0001c0 6e 16 76 3d 8f da 2c 3e 94 b4 96 be ad 5f 1b be
       0.060079984 0.16880248 -0.29434645 -0.15173216
0001d0 81 a9 ce bd 25 e6 d9 bd 85 a0 11 bd 46 0e 9c bd
       -0.10090924 -0.106396 -0.035553474 -0.0761991
0001e0 9f e1 b9 bd f0 7b 50 bd 55 95 8b bd c4 cb 59 3d
       -0.09076237 -0.050899446 -0.06815592 0.05317284
0001f0 58 a8 90 bb eb dc e3 bc 57 e6 e3 bd 49 0a 63 3e
       -0.0044145994 -0.027815303 -0.11127918 0.22171892
000200 29 3f e3 bd 05 2b 8b bd 4b 48 6c 3e 25 c9 81 3d
       -0.11096031 -0.06795315 0.23074453 0.063371934
000210 95 3e f3 bd 76 3c 8f 3d 1f 72 23 3d d6 a1 2d be
       -0.11877171 0.06993954 0.039903756 -0.16956267
000220 a2 31 fd bd 7a 6c ea bd 20 c8 00 be e4 0f 62 3d
       -0.12362982 -0.114464715 -0.12576342 0.055190936
000230 e2 12 14 bd e3 d4 59 bd be 16 b5 bd 24 ee 88 3c
       -0.03615082 -0.05318154 -0.08842228 0.016715117
000240 7c f6 fb bd 59 d2 85 bd a6 01 18 3e b5 4b 0d 3d
       -0.123028725 -0.06534261 0.14844379 0.034496028
000250 c6 b7 07 3e 22 7e 75 3d e3 dd 60 bb 8d 28 1e be
       0.13253698 0.059934743 -0.0034311942 -0.15445156
000260 b5 7e 11 bd 71 47 49 be 37 cd 7b 3e 1b ff 02 3d
       -0.035521228 -0.19656159 0.24590002 0.03198157
000270 dd e8 81 be d5 73 3f be 50 38 bc bd 8a 51 ac 3b
       -0.25372973 -0.1869653 -0.09190428 0.0052587437
000280 47 cc 17 3e c7 91 00 3e 4b 1d 8e be c6 54 b8 bd
       0.1482402 0.1255561 -0.27756724 -0.09000544
000290 db e3 82 be 39 dc 90 3d bf 78 67 3c ae 77 c5 bd
       -0.25564465 0.07073254 0.014127909 -0.09641968
0002a0 08 89 46 3e 88 06 77 3e 67 7f 7e 3e 62 71 a9 be
       0.19388211 0.24123585 0.24853288 -0.33094317
0002b0 1f a3 a1 be cd e3 8f be f5 94 99 3c e1 c0 26 bd
       -0.31569764 -0.28103486 0.018747786 -0.040711287
0002c0 b4 5d 1b bd e8 44 99 bd 8a 8a d4 bd c3 a5 92 be
       -0.03793116 -0.07483846 -0.10377987 -0.2864209
0002d0 6c 54 13 bd 0f 0d b1 bc d5 50 1c be f7 51 1c be
       -0.035969183 -0.021612672 -0.1526521 -0.15265642
0002e0 63 03 1f be f7 0f 3d bd aa c6 60 be 41 d4 5b bd
       -0.15528636 -0.046157803 -0.21950784 -0.053669218
0002f0 1e 0f e1 bd 1f d6 ab 3d 4f 01 2e be 4f 5a 6e be
       -0.109892115 0.0839045 -0.16992687 -0.23276637
000300 ca 56 12 3e 03 72 75 be 53 e1 9f be da 2a cf 3c
       0.1429092 -0.23969273 -0.31226596 0.025288988
000310 c2 8e 8b bd 1b d1 1b be cc 5d ea 3d 38 74 7e bd
       -0.06814338 -0.15216486 0.114436716 -0.062122554
000320 cf 7d 5b be 3b 68 d3 bd 15 4c 1c be dd 11 f0 be
       -0.21434711 -0.10322615 -0.15263398 -0.4688863
000330 55 df 90 bc 0e 06 39 be 7c a8 4f 3e 76 0a 3a 3c
       -0.017684618 -0.18068716 0.20279115 0.011355033
000340 99 11 55 be 86 35 9b be 08 5c 46 3d f6 9a 0e be
       -0.20807494 -0.30314273 0.04842761 -0.139263
000350 04 af 21 be fd e4 f6 bd 90 61 9c bc 10 08 28 3e
       -0.1578942 -0.12055395 -0.01908949 0.16409326
000360 c6 3f ba bc f6 7e 4e be 11 3b 7a bd c5 8e 26 be
       -0.022735488 -0.20165619 -0.061091486 -0.162654
000370 6b 1c bc bd 6f 7f d0 bc 4b 51 68 bd 45 18 0c be
       -0.09185108 -0.02545139 -0.056718152 -0.13681133
000380 a8 1e 02 3e 61 fa 71 be a9 85 85 be cb f4 88 be
       0.12707007 -0.23630668 -0.26078537 -0.26749262
000390 a6 fa f9 3d 5a 21 cc bc 9a 55 63 be 9a be 7f 3e
       0.122060105 -0.024918247 -0.22200623 0.24975052
0003a0 d6 b9 7c 3e 21 c4 8c be 84 b4 2c 3e 3b ed 35 bb
       0.24680266 -0.27493384 0.16865736 -0.0027759809
0003b0 2e 13 b6 bd 3f 48 8a 3d 11 b7 19 bd d4 6e 8b be
       -0.08890377 0.06752061 -0.0375281 -0.27232993
0003c0 09 dc 11 be 58 7f 0c be e9 68 ae bd 0b 73 e3 bd
       -0.14244093 -0.13720453 -0.08516104 -0.11105927
0003d0 be 77 6f be 90 7d dd bd b9 75 7c 3d 8e d7 bd 3d
       -0.23385522 -0.10814965 0.061635707 0.092696294
0003e0 22 20 d7 3d 12 44 52 3e 8e 05 18 3e 3d 74 54 bd
       0.10504176 0.2053378 0.14845869 -0.051868666
0003f0 c7 b7 c2 3e 44 96 51 3e fc 26 fe 3d 97 76 57 3e
       0.38030836 0.20467478 0.124097794 0.21041332

conv5.bias f4 [16]
000000 d6 c3 2d bc b0 de c2 3d 0d 79 36 bf a9 73 14 3f
       -0.010605773 0.095151305 -0.7127846 0.57988983
000010 84 4d 0d 3f 3a d2 3f bf f8 03 b3 3f 60 7e a5 be
       0.55196404 -0.74930155 1.3985586 -0.3232298
000020 ce 68 59 be a8 3b b3 be 12 37 cb 3f ae 08 8f 3f
       -0.21231386 -0.35006452 1.5876181 1.1174524
000030 4a a8 cd 3f d2 d7 28 3f 1d 9a a2 3f a5 84 06 3f
       1.6066983 0.65954316 1.2703282 0.5254615

conv5.weight f4 [16, 8, 3, 3]
000000 59 fb 3b 3d db f8 c6 3d 95 bb da bc 6d f8 20 3d
       0.045894 0.09715434 -0.026700774 0.039299417
000010 cf 3d 1a be 5d aa 06 bc ed 66 49 3e 8c 8b 2f 3e
       -0.1506264 -0.008219329 0.1966817 0.17143077
000020 4e 45 51 bd 0a 7b 3b 3c 04 70 ed bd 5c 7f 73 bd
       -0.051091485 0.011442909 -0.11593631 -0.05944763
000030 4b 28 2d bd 35 26 4f be 4c ec a8 3c 00 05 93 3d
       -0.042274754 -0.20229419 0.020620488 0.07178688
000040 c4 4d 11 3d 45 00 a9 be 15 77 ca 3d 58 74 50 3e
       0.035474554 -0.33008018 0.09885994 0.20356882
000050 e3 5b 86 bd c2 16 86 3d 52 ab 42 3d 44 90 d5 bc
       -0.06560495 0.065473095 0.047526665 -0.026069768
000060 d5 c2 39 bd 27 96 ad bd 5a d2 83 bd 28 7a 19 3d
       -0.045351822 -0.08475905 -0.06436606 0.037470013
000070 aa 51 b5 bd 3c 88 5c be 12 a0 0f 3d 70 fe 64 3b
       -0.08853467 -0.21536344 0.035064764 0.0034941696
000080 9d 8d dc bc 73 9a f6 bc 4a 0b 8c bd 7d 26 45 be
       -0.026922995 -0.030102944 -0.06838091 -0.19252963
000090 71 e1 f7 3b 45 05 0e bc 71 fa 1d 3d f2 c5 ac 3c
       0.0075647165 -0.008668249 0.038568918 0.021090481
0000a0 53 66 26 3d 80 09 bb bd 24 eb 8c 3d dc 87 60 bd
       0.040624928 -0.09132671 0.06880787 -0.054817066
0000b0 2e 7f c4 bd a7 df 1a 3e 7c 11 1a 3e 70 b5 37 3d
       -0.0959457 0.15124379 0.15045732 0.044850767
0000c0 ea 8b ce 3d e4 17 1a 3d 78 ca 03 3e 1c 1f c6 3c
       0.1008528 0.03762044 0.12870204 0.024184756
0000d0 48 4c 9b bd f3 6c 06 bd 05 86 12 3e 30 a6 e7 bc
       -0.07582909 -0.032818746 0.14308937 -0.028277487
0000e0 3d cc ab 3c 6e 25 7e 3d 6e 86 ef bc 5a 30 13 bc
       0.020971412 0.062047414 -0.029238906 -0.008983696
0000f0 f7 2f 8a ba 78 58 7e bc b5 b8 cc bd 4d f2 4b 3e
       -0.0010542859 -0.015524022 -0.099961676 0.19916649
000100 22 c9 07 3e ca cb 80 3b eb 48 cd bd 05 6a 56 bd
       0.1326032 0.0039305435 -0.100236736 -0.0523472
000110 f7 bd 0b be 86 c9 18 3e 92 f1 59 3d db 00 95 3c
       -0.13646685 0.14920625 0.053208895 0.018188884
000120 5d d5 14 3d ac cb 85 3c e6 ef 57 3a cc 43 8a bd
       0.03633629 0.01633247 0.0008237347 -0.067512125
000130 71 0c 8e bd 38 87 5a bd 51 c0 dd 3c 30 4f 90 3d
       -0.06935967 -0.05335161 0.027069243 0.07046354
000140 b4 44 74 3e a9 46 a2 bd c3 1a e6 bc a6 2d 5c bd
       0.23854333 -0.079236336 -0.028088933 -0.05375447
000150 97 22 99 bd cf 57 39 be 3d ac 16 3b 67 4b 46 bd
       -0.074773006 -0.18099903 0.0022990846 -0.048411753
000160 43 4e b7 3d eb b4 5d 3d d7 9b 7c 3b 25 19 c9 bd
       0.08950474 0.054127615 0.0038545036 -0.09819249
000170 e2 22 a5 3d 84 cc 36 bd 87 fd d7 bd 55 7b 71 3d
       0.08063294 -0.044628635 -0.105464034 0.05895551
000180 95 ec 01 bc 61 98 54 bd a6 ac db 3d e8 2e 24 be
       -0.007929941 -0.051903132 0.107262895 -0.16033518
000190 9d 42 53 3d eb d8 92 3b 22 7e 55 bd e3 25 e0 3d
       0.0515772 0.004481425 -0.052122243 0.10944726
0001a0 89 90 a5 bb 5f 05 90 bd eb ea 90 3e 7c 03 1c 3e
       -0.0050526303 -0.070322745 0.28304228 0.15235704
0001b0 43 19 4c bd cc ac 5c 3d 7f 20 82 3d 08 45 0f 3b
       -0.04982878 0.05387573 0.063538544 0.0021861214
0001c0 4d 76 69 3d d2 cc 7e 3c 41 75 05 bd b8 c2 d1 3d
       0.056997586 0.015551763 -0.032582525 0.10242218
0001d0 1e 26 c6 bd 6b 1d 7e bd 52 92 02 3d 5d b5 36 bc
       -0.09675239 -0.062039774 0.031877823 -0.011151639
0001e0 96 17 3f 3d 31 96 8b 3c a3 a4 ab ba ea d0 d7 bd
       0.046653353 0.01703939 -0.001309533 -0.10537894
0001f0 03 3d e3 bb 5b 4d 11 3d 7d 02 1e bd fb 42 a8 bd
       -0.0069347634 0.035474163 -0.03857659 -0.082159005
000200 73 20 d2 3c 9d 1c 28 be f5 a7 67 bd 84 5f c3 3d
       0.025650239 -0.16417165 -0.05655666 0.095397025
000210 41 91 e4 bd 78 00 85 3e d7 0a c9 3d d0 58 12 3d
       -0.111605175 0.2597692 0.09816521 0.03572923
000220 7b 22 b6 bd bc 49 08 bd 47 0d 2e be 9a 91 9b 3c
       -0.088932954 -0.033273444 -0.16997252 0.018990327
000230 cd f3 31 3d f2 28 d4 3d 39 e1 8e 3c 29 10 ca bd
       0.043445397 0.10359372 0.017441379 -0.098663636
000240 af 75 a5 bd 8e 27 45 bd 59 e9 41 3d 38 e1 83 bd
       -0.08079087 -0.048133425 0.04734168 -0.064394414
000250 8d d6 03 be 79 10 26 bc 4d dc 07 3e 8d a0 44 3e
       -0.12874813 -0.010135763 0.13267632 0.1920187
000260 15 3e 8c 3c 4d f9 a3 3d 3f 0b fb 3d 1d e8 11 3e
       0.017119447 0.08006535 0.122580044 0.142487
000270 1e 9a 0f bd 9e 25 eb bb d2 45 bf bc 55 9d 8d bd
       -0.035059087 -0.007176115 -0.023348723 -0.06914774
000280 49 6d 12 3e 10 7a 1a 3e b6 d9 8e bd 36 a7 34 bc
       0.14299501 0.15085626 -0.06975119 -0.011026194
000290 e7 90 78 3c 7b ef 12 bd 3e c8 81 bc b7 78 c5 bc
       0.015171266 -0.035872918 -0.015842553 -0.024105413
0002a0 ac 59 51 be 11 ff aa 3e 0c 98 fb 3d 0e ef 20 3c
       -0.20444363 0.33397725 0.1228486 0.00982262
0002b0 82 06 40 3d c8 8d 40 bb 6c 8a 03 3d d2 f5 ec bd
       0.046881206 -0.0029381383 0.03211443 -0.11570324
0002c0 0a 93 6a bd b7 bf a0 3e bf 21 b9 bd 72 c7 78 bb
       -0.057269134 0.31396267 -0.0903964 -0.0037960676
0002d0 bb cc 4f 3d bb f1 e6 3c dd e9 23 3d 4c dc 13 bd
       0.050732356 0.028191438 0.04001795 -0.036098763
0002e0 8b 19 1c 3d d9 2a a1 3c 77 45 da 3b 0e 53 f2 bc
       0.038110297 0.019673752 0.006661113 -0.02958062
0002f0 74 23 86 3c a5 48 b1 3b fb 10 1c bd d1 ec 4e 3d
       0.016374327 0.005410271 -0.03810213 0.050518814
000300 6c b9 d3 3d fd 6b fa 3b d3 1b 47 3d 18 79 48 bd
       0.10338101 0.0076422677 0.04861052 -0.04894361
000310 1f e8 bc 3d 73 e4 2f be ed b3 db 3d c3 83 0f 3d
       0.09223961 -0.1717699 0.107276775 0.035037767
000320 3a d7 de bb b9 e0 35 3e c2 48 ea bd 0b 3d 03 bd
       -0.0068005593 0.17761506 -0.11439659 -0.032040637
000330 3d bb c0 3c 2d cf ff 3d c8 d9 22 be 1c ca 96 bd
       0.023526782 0.124906875 -0.1590339 -0.07362768
000340 f8 61 dd bd 57 21 08 bd cf 19 15 3d 4c 87 d9 3b
       -0.10809702 -0.03323492 0.036401566 0.006638443
000350 93 5b d6 bd 9f d8 98 bd 79 e8 1d 3d fe 65 95 bd
       -0.10466685 -0.07463192 0.03855178 -0.07294844
000360 3b e5 94 3d 75 89 95 bd c2 1b c0 3d 97 2f 9c 3b
       0.07270285 -0.073016085 0.093802944 0.0047664153
000370 29 37 11 3e 30 42 17 3e 2b cf 26 be af a1 d8 38
       0.14181198 0.14771342 -0.16289966 0.000103297985
000380 a1 ee 77 bd fa ca ea 3d 96 48 7c 3d 2a d4 28 be
       -0.06053031 0.11464496 0.06159266 -0.16487184
000390 83 d2 30 bd 39 85 ab 3e 4a 82 4b 3d dd a1 e5 bc
       -0.04316951 0.33500078 0.0496848 -0.028031284
0003a0 ee 0a d7 3d 71 55 7d 3c 45 bb c4 bd 02 c2 97 bc
       0.105001315 0.015462265 -0.09606031 -0.018525127
0003b0 dc 88 2f 3d 84 64 07 bd 09 15 6e 3c 74 13 7a bc
       0.04285513 -0.033054844 0.014531382 -0.015263427
0003c0 33 5d 89 bd e4 fc 57 bd ae 5a 55 be 06 f2 e2 bd
       -0.067072295 -0.05273141 -0.20835373 -0.110813186
0003d0 ce df f2 3c 0c 6a f3 3d b7 6f 3a bd 32 20 69 bd
       0.029647734 0.11885461 -0.045516696 -0.05691547
0003e0 6a c1 41 3d 08 5d c8 bd e0 39 9a bd bd 1f 8f 3d
       0.047303595 -0.09783369 -0.0753057 0.069884755
0003f0 85 93 d0 bc e7 5d 83 3c a5 37 33 bc 1d ae 63 bd
       -0.025460968 0.016035987 -0.01093856 -0.05558597

conv6.bias f4 [16]
000000 b7 15 04 3f d2 22 e5 3e 9d 9b 26 3e 80 18 dd bc
       0.51595634 0.44753128 0.162703 -0.026989222
000010 28 07 a7 be 1a cd fb 3e 09 4f 4f 3f 82 0f 4d be
       -0.32622647 0.49179918 0.80979973 -0.20025447
000020 93 b1 6e 3f 2b 3e 20 3f 5c df 02 3f 44 29 69 3e
       0.93239707 0.6259486 0.5112207 0.22769648
000030 d5 c3 a8 3f 60 50 b2 3e d2 a5 80 3f 2e c9 60 3f
       1.3184763 0.34826946 1.0050604 0.87806976

conv6.weight f4 [16, 16, 3, 3]
000000 c7 61 f8 b7 66 8c 7f be 94 f8 11 3d 7d 43 34 bc
       -2.9609435e-05 -0.24955902 0.035637453 -0.011002419
000010 de 86 28 be 44 d9 18 be ed f9 f9 3c 18 35 63 be
       -0.16457698 -0.1492663 0.030514682 -0.22188222
000020 c9 36 85 bd 1d aa e9 3d a3 fc 9f 3d fa d1 87 be
       -0.0650459 0.114094 0.078118585 -0.26527387
000030 c9 5e d1 3c 89 5d 2a bc 26 b4 ff bd 17 74 21 3e
       0.025557892 -0.010398277 -0.124855325 0.15766941
000040 77 0f 5b 3d f8 77 c2 bd ea 3f 91 3d bf 52 66 3d
       0.053481545 -0.094955385 0.07092269 0.056231257
000050 80 be aa bc df 50 ca 3d 58 60 f3 bc 28 45 36 be
       -0.02084279 0.09878706 -0.029709026 -0.17799819
000060 90 7a c5 3d 3d 97 e4 bd a8 7c 44 be 10 b0 cf 3d
       0.096425176 -0.11161659 -0.19188178 0.10141003
000070 d4 2a b3 3d 62 b1 b0 3c 78 90 63 3e 30 8a 36 3e
       0.08748403 0.021568958 0.22223079 0.17826152
000080 d4 87 f4 bd 70 98 79 3e 13 46 eb 3c 75 74 9c be
       -0.1193997 0.24374557 0.028719937 -0.305576
000090 8f 9d 81 3d 2e 03 a4 bd f9 bc 16 be 22 49 fb bd
       0.0632888 -0.08008419 -0.14720525 -0.12269808
0000a0 ea e7 d5 be 63 4c db bd 2f ff 2b 3e 2d 4b 5d be
       -0.417785 -0.10707929 0.16796564 -0.21610709
0000b0 0f f5 68 bd 84 bf 9b be 58 8c 34 3e 1f 92 e0 3e
       -0.05687433 -0.30419552 0.17631662 0.43861482
0000c0 90 21 43 be 9d fe 09 3f 51 79 fd 3e d0 0f 99 bd
       -0.19055772 0.53904134 0.4950662 -0.07473719
0000d0 e9 da f6 3d dc be 81 3e a3 e0 1f 3d 29 81 a8 bc
       0.120534725 0.25340927 0.03903259 -0.0205694
0000e0 a0 61 08 be 27 23 69 3d 6c 86 7b 3c 70 84 27 be
       -0.13318491 0.05691829 0.015351873 -0.16359115
0000f0 2a a5 4c bd ba 37 1a 3e b8 53 17 bd c6 11 d5 3d
       -0.0499622 0.1506032 -0.036945075 0.10403781
000100 47 1d b2 3e c8 0d 4f 3e cb 6d a5 bc 39 df c9 bd
       0.34787962 0.20220101 -0.020193955 -0.098570295
000110 1e 52 e9 3c 49 97 bb bd 46 b1 1e be cf 5c c5 bc
       0.02848154 -0.09159715 -0.15497312 -0.024092106
000120 3d 4a b6 bc cb e1 26 be 82 fd 75 bd cd 09 a4 3d
       -0.022252196 -0.1629707 -0.060056217 0.08009682
000130 aa d6 bd bd 3d 4b 52 be a6 56 ae bc 96 9a 4c 3e
       -0.092694595 -0.20536514 -0.021281552 0.19980845
000140 03 a3 6e 3d 81 27 0f 3e e1 89 b7 bd c3 1e 95 bc
       0.05826093 0.13979913 -0.08961845 -0.018203145
000150 ba ee fe bd b3 82 03 be f7 31 0c be 2e 92 d6 bd
       -0.12447877 -0.12842827 -0.13690935 -0.104771
000160 85 ed 60 be e0 23 4a bd e8 6f 4a bd c5 11 cd bd
       -0.21965607 -0.04935062 -0.04942313 -0.10013155
000170 ab 24 0c be 91 62 06 be 64 b9 05 be 31 06 0e be
       -0.13685863 -0.13123538 -0.13059002 -0.1386955
000180 e7 61 57 3d 4a 7f 31 3e a1 f2 48 3e c8 b0 07 3e
       0.0525836 0.17333713 0.19623806 0.1325103
000190 19 c7 d2 3d e4 56 12 bd 64 60 d4 bd e9 40 a3 be
       0.10291881 -0.035727397 -0.103699476 -0.3188546
0001a0 b3 5f 43 be 73 a9 f8 bd 09 ac 87 be e0 e4 50 bd
       -0.19079475 -0.12141695 -0.2649844 -0.050999522
0001b0 2b 56 51 be a3 8f 99 be 92 31 22 bf 45 46 05 3e
       -0.20443027 -0.299924 -0.6335689 0.13015087
0001c0 f3 c4 2f be 9d af 4d be d2 2a 58 bd eb 5c 85 be
       -0.17164974 -0.20086522 -0.05277521 -0.26047453
0001d0 b8 94 37 bd cb 80 02 bc a5 9b c9 3e 35 de 95 bd
       -0.044819564 -0.007965277 0.3937656 -0.07317773
0001e0 a8 9a 13 be 69 66 d0 bd 77 be 9a bd bc a0 3d 3b
       -0.14414465 -0.10175783 -0.075558595 0.0028934916
0001f0 b9 b9 63 be f3 32 87 bd b1 30 53 be fe 9e a4 bd
       -0.22238816 -0.06601515 -0.20624043 -0.08038138
000200 3d d8 08 3e 34 48 db 3d 58 60 ba 3c f6 ca 8f be
       0.13363738 0.10707131 0.022751018 -0.28084534
000210 c4 df 23 3e 01 0d 1c 3e 10 ce b2 3d 6e f8 5b bd
       0.16003329 0.15239336 0.087307096 -0.053703718
000220 5f 16 4c bd fd 17 44 3e 42 97 fc bd 49 82 ec bc
       -0.049826022 0.19149776 -0.12333538 -0.028870719
000230 47 75 63 3e 5e f1 e4 bd 26 01 58 be ec 1c e6 bd
       0.22212707 -0.1117885 -0.21094188 -0.11235985
000240 71 8e 4a 3d 74 1c 49 bd 90 ff 01 bc 95 ea 63 3d
       0.04945225 -0.0490994 -0.007934466 0.055643637
000250 e9 84 c5 bd 4b b8 a9 bc 0b 88 05 bd 9f 0f 4a be
       -0.09644491 -0.02071776 -0.032600444 -0.19732521
000260 71 13 cf bc 0b 57 3d 3d f9 78 c3 3d 4d f0 5b 3a
       -0.025277825 0.04622559 0.09544558 0.00083899946
000270 e8 aa 8c 3d b4 6e 2a 3d 56 4a f8 bc fa 4b 72 3d
       0.06868535 0.04160948 -0.030308884 0.05915449
000280 f5 8c 14 3c fb 61 4d bc bc f8 98 bd 17 88 50 be
       0.00906681 -0.012535567 -0.07469317 -0.20364414
000290 2a ab b8 bd 65 1a 0f bd 51 da 49 bd 13 ee a0 bd
       -0.09017022 -0.03493728 -0.04928047 -0.07857909
0002a0 3a a3 23 bc eb bf ac 3c a8 18 f9 bd 42 7a 7b bd
       -0.009987647 0.021087607 -0.12162906 -0.06139589
0002b0 53 af b8 bd 46 b0 f4 bd d0 c3 d6 bc ba dd ce bd
       -0.090178154 -0.11947684 -0.026216418 -0.10100885
0002c0 a5 50 96 bd 58 e7 9e bd de b9 f5 bc 1d 46 11 be
       -0.073396005 -0.07758969 -0.029995855 -0.14186902
0002d0 21 05 d0 3d f6 2d a8 bd 0e 03 62 be fe 44 b3 bd
       0.10157228 -0.08211891 -0.22071478 -0.087533936
0002e0 f7 83 3b be 32 84 a6 be 4a 48 62 bd b3 9b 5b 3a
       -0.1831206 -0.32522732 -0.05524472 0.0008377388
0002f0 39 27 71 be 78 b8 1f be 77 d1 a5 be 6e d7 8e be
       -0.23550119 -0.15597713 -0.32386371 -0.27898735
000300 cb c0 48 be 6e 48 63 be 94 ec e0 3d ed e7 22 be
       -0.19604795 -0.22195598 0.10982624 -0.15908785
000310 9e 5d f8 bc 54 35 20 3e 3e 9f 0c 3b 55 62 30 bd
       -0.030318078 0.15645343 0.002145722 -0.043062527
000320 30 b7 5c be d2 0b 63 bd cc 7a 1f be c6 d0 fe bd
       -0.21554255 -0.055431195 -0.15574187 -0.12442164
000330 dc 87 14 3e 07 2a 32 be e1 05 f6 bd 7e b5 bc bd
       0.14504951 -0.17398845 -0.1201284 -0.092143044
000340 49 3f 16 bd d4 fe 5d 3e 3f 7a 77 bd 0a 01 9e 3c
       -0.036681447 0.2167924 -0.060419317 0.019287605
000350 b2 d0 03 3e 2b f7 bf 39 b0 60 cd bd 17 21 a3 bd
       0.1287258 0.00036614513 -0.10028207 -0.07965296
000360 1f da 67 3e d3 87 5d 3e 33 d3 27 3d 31 e9 a7 3d
       0.226418 0.21633844 0.0409729 0.081987746
000370 7b 22 9f 3d 6e e8 88 be 92 ab 49 bd e5 0a c4 3c
       0.077702485 -0.2673983 -0.049235888 0.023930976
000380 6e c6 23 3d 09 9b 61 bd fc d7 d1 3d 3e a9 f5 3d
       0.03998416 -0.055079494 0.10246274 0.11995171
000390 56 a4 9a bc 77 be 2d 3d ef 1c 60 3d c8 d7 20 3d
       -0.01887719 0.04241797 0.054715093 0.039268285
0003a0 2e fd 56 bd 88 f3 85 bd c9 c3 0a 3e 1d fc bb 3d
       -0.052487545 -0.065405905 0.13551249 0.09178946
0003b0 25 a2 3a 3d bf 54 0c 3e ff a9 a5 bc 69 2a 83 bc
       0.04556479 0.13704203 -0.020222662 -0.016011434
0003c0 64 b2 a3 3d 50 00 c7 3c d0 21 9d 3d d2 0e 06 be
       0.0799301 0.024292141 0.07672465 -0.13091591
0003d0 c7 dc 02 be 83 cc 17 be 30 c0 20 be 0b 33 f4 bd
       -0.12779532 -0.14824109 -0.15698314 -0.11923798
0003e0 00 6c 5f be e6 ca 8c be 3d 7f 36 be 20 3f f3 bc
       -0.21818542 -0.2749855 -0.17821975 -0.029693186
0003f0 ae e4 04 bd 04 bd 30 3d 5e be 25 bb 74 5b a6 bd
       -0.03244465 0.04314901 -0.002529047 -0.08122912

conv7.bias f4 [32]
000000 3d 57 ba 3e 0e ce c5 3f 8e c3 b8 3f 10 46 35 3f
       0.36394683 1.5453508 1.4434679 0.7081003
000010 a4 16 00 40 15 5d 92 3f 61 91 86 3f d4 6b f3 3e
       2.0013819 1.1434656 1.0513116 0.47543204
000020 1c 65 4f 3e f7 54 96 be ac 82 9e 3f 3b 7b 8d 3f
       0.20253414 -0.29361698 1.2383628 1.1053232
000030 b1 77 03 3f 48 c9 de 3f 68 b0 9a 3f e1 21 d1 3d
       0.5135451 1.7405176 1.2085085 0.1021154
000040 aa 7f ba 3d c2 a4 e8 3e c8 96 b5 3f e7 b3 fa 3e
       0.09106381 0.454382 1.418664 0.4896538
000050 dd fb 12 3f 6c 76 56 3e 7e 87 94 be 4a b1 08 3f
       0.5741556 0.20943612 -0.29009622 0.5339552
000060 f1 60 bf 3f 5a 8c c7 3f f4 c6 9c 3f 66 3f 78 3f
       1.4951459 1.5589707 1.2248216 0.9697174
000070 f0 18 80 3f ec 5f 45 3f 13 75 50 3e 02 20 f9 3e
       1.000761 0.7709949 0.2035716 0.48657233

conv7.weight f4 [32, 16, 3, 3]
000000 3d af 31 bd fb 23 a4 bd 05 2f 07 3c 84 a8 26 bd
       -0.04338001 -0.08014675 0.008250956 -0.040688053
000010 37 ba 6f bc a7 e6 ac 3c 44 14 c0 3b 63 08 fa 3d
       -0.014631799 0.021106077 0.005861791 0.12208631
000020 3e 1d e8 3d 8d 74 04 3d a5 6e 0c bd 0e 5e 5c bd
       0.113337025 0.032337714 -0.034285206 -0.053800635
000030 aa b6 3e bd 8c 14 ca bd 48 d6 6d bc cf fe 27 3c
       -0.04656092 -0.098672 -0.014516421 0.010253622
000040 5d be 9a 3d fb db 3d bd ba a6 d1 bc 6e 6c c0 bd
       0.0755584 -0.046352368 -0.025592197 -0.09395681
000050 3c 76 41 bc a0 bb b4 3d c4 8a 14 3d a0 65 55 bd
       -0.011807974 0.08824849 0.03626515 -0.05209887
000060 70 0c 8c 3d a7 e0 2f bb 16 56 68 be be eb 64 bd
       0.0683831 -0.0026836784 -0.22689089 -0.055888884
000070 98 2f ef 3d 6c 9c 46 3d 74 1c 8c bd 22 eb 12 bd
       0.11679 0.04848902 -0.068413645 -0.03586877
000080 c9 1a ba 3b 92 40 83 3c c9 c7 2c 3e 30 27 f6 3d
       0.0056794626 0.016022 0.16873087 0.12019193
000090 5e 4e 67 bd 1d 80 76 bd 51 51 e2 bc aa 6d 1b bd
       -0.05647122 -0.060180772 -0.027626665 -0.03794638
0000a0 98 f8 8f 3c a9 f6 98 3c f8 ec d2 bb f1 4c 91 bd
       0.017574593 0.018672304 -0.0064369403 -0.070947535
0000b0 ec 9b 08 be 78 d3 ba 3c 9b fa 64 bb 7b 40 6c bc
       -0.1334073 0.022805914 -0.0034939412 -0.01441967
0000c0 b2 c6 a9 3c 96 37 92 bd 86 08 e9 bd 34 ef c0 bd
       0.020724628 -0.071395084 -0.11378579 -0.094206244
0000d0 34 86 d0 bc 44 57 41 bc db c4 89 bd 83 3a a6 38
       -0.025454618 -0.011800591 -0.06727 7.9263955e-05
0000e0 66 4c 91 3d 3d 22 9d 3d aa 85 c4 3c cf a0 18 3e
       0.0709465 0.07672546 0.023989517 0.14905094
0000f0 56 fd c6 bd de 68 be bd fd 1e 9b bd 3b 2e 77 bd
       -0.09716289 -0.092973456 -0.0757427 -0.060346823
000100 8b 48 e1 bc 93 f2 af 3d 10 60 0c bd dc 9c 17 3d
       -0.027500411 0.08591189 -0.0342713 0.037014827
000110 61 87 3d 3c 60 dc 90 3d c9 50 85 3c 60 de 10 bc
       0.011567921 0.07073283 0.016273873 -0.008842081
000120 e6 84 5e bc 7e 0e 13 3d bc fb 80 bd e7 90 ac bd
       -0.01358149 0.035902493 -0.062980145 -0.084260754
000130 07 24 dd bd 5e cf b6 bc 79 b4 a7 bd b6 20 9d 3b
       -0.10797887 -0.022315677 -0.08188719 0.004795159
000140 40 13 16 3e f3 6a 1e bd 17 05 44 bb 85 43 ba 3d
       0.14655781 -0.038676213 -0.002991026 0.090949096
000150 d4 02 f6 3c 3b f7 da bc f7 52 45 bd 99 85 8a bd
       0.030030645 -0.026729217 -0.048174825 -0.06763763
000160 15 4b 61 bd 3c 24 a7 bd 60 73 96 bd be 87 98 bb
       -0.055003244 -0.08161208 -0.07346225 -0.0046548536
000170 69 03 90 bc cb 4f b4 3d ff 10 24 bd 64 ca b5 bd
       -0.017579751 0.08804282 -0.04005527 -0.088764936
000180 b4 ed 82 bd 96 f0 3d bd d6 b9 03 bd 11 e8 c9 bd
       -0.063929945 -0.04637202 -0.03215965 -0.09858716
000190 11 b9 0f bd 82 fd 8c bd 91 c7 3d 3e 2d f9 0f bc
       -0.035088602 -0.0688429 0.1853316 -0.0087874355
0001a0 0d 11 81 bd 1c 69 bf 3c a3 b3 1a be 5e 6c 45 bd
       -0.0630208 0.02336555 -0.15107588 -0.04819905
0001b0 e1 cb da 3d e5 56 8d 3c fb c6 79 bd ac 34 d3 3c
       0.10683418 0.017253349 -0.06098078 0.025781952
0001c0 f4 b3 f3 bc 85 ad 74 bd cc 1a f1 3d 09 dd 54 3b
       -0.029748894 -0.059735794 0.11772689 0.003248038
0001d0 a4 0d 12 bd c6 08 c5 bc ae 49 e1 bc 29 f2 2c 3d
       -0.03565754 -0.024052035 -0.027500954 0.04222313
0001e0 8b 57 4c 3d d4 68 41 3d 75 e9 1a bc 2b bc c9 3c
       0.049888175 0.047219113 -0.009455075 0.024625858
0001f0 7f 36 a3 bd 84 5a 69 bd 2e 55 d6 3b 0b 6c b7 3d
       -0.07969379 -0.056971088 0.006540916 0.089561544
000200 e8 dc 39 3d 98 f3 fd 3c 23 5e 9c 3d b3 8b 4d bd
       0.04537669 0.030999944 0.07635143 -0.050182056
000210 2d 41 44 3d 5e cb 00 3d 27 3a 30 be 91 fb d7 bd
       0.04791372 0.031443946 -0.17209683 -0.10546029
000220 04 fd 71 3c 83 36 6e 3d 99 23 00 bd ff eb c1 3d
       0.014769796 0.058157455 -0.03128395 0.09468841
000230 b4 71 1c bd f5 0d 89 3d 19 d6 fe bb d2 45 c0 bd
       -0.038194373 0.06692115 -0.0077769873 -0.09388317
000240 51 a2 bc bd dc a6 74 bd 88 27 33 3d ad 8f 41 be
       -0.09210647 -0.059729442 0.04373887 -0.18902464
000250 ff b5 00 bd 8c 2c 26 3d 4c 68 e0 bd 85 31 f1 bd
       -0.031423565 0.040569827 -0.10957393 -0.11777023
000260 dd f2 13 be 6a 86 14 3d 99 a8 05 bd 91 7c 31 be
       -0.14448114 0.036261 -0.03263149 -0.17332675
000270 a2 f8 ad 3c 20 2a 36 3e 6b 15 ed bd dd 03 ff bc
       0.021236721 0.17789507 -0.11576351 -0.031129772
000280 bb 57 2a 3d d5 00 23 3e 0e 65 fb 3c 54 55 3d 3d
       0.041587573 0.15918286 0.030687835 0.046223953
000290 b7 8d 97 3e 8d e5 94 bd 22 3b d4 bc ce 76 3c bc
       0.29600307 -0.07270346 -0.025907103 -0.011502935
0002a0 19 5d 9d bd 4c 58 7c 3d 72 32 6a bd 1c 7b 99 bd
       -0.076837726 0.061607644 -0.057177015 -0.074941844
0002b0 78 7a 35 3d ca 9d 95 3d f8 db 57 bc 8b 68 15 3e
       0.04430625 0.073054865 -0.013175003 0.14590661
0002c0 67 81 93 3c e4 d5 3c be 89 56 36 bc 56 45 8e 3d
       0.01800604 -0.18440968 -0.01112903 0.069468185
0002d0 93 d6 00 bd df c8 ae bc 85 d3 74 bd c8 d9 0b bd
       -0.031454634 -0.021336017 -0.059772033 -0.03414324
0002e0 4e 45 5b bd 97 e3 f3 bd f7 6b 4e bd 54 fd 8a 3c
       -0.05353289 -0.11908644 -0.050395932 0.0169665
0002f0 37 f5 31 be 27 b4 d0 bd 56 67 99 3c ef 43 9f bd
       -0.17378698 -0.10190611 0.018726032 -0.07776629
000300 b4 1c 05 be 79 0a be bd 89 f4 c3 bd a3 ee 87 be
       -0.1299923 -0.09279341 -0.09568126 -0.26549253
000310 f6 74 83 bd f8 a6 98 bc 03 6c 04 be 60 15 cb bc
       -0.06418793 -0.018634304 -0.12931828 -0.024790466
000320 e2 f2 b0 3c 24 24 0e 3d b9 19 da bd 05 b4 2b be
       0.02160019 0.034702435 -0.106494375 -0.16767891
000330 37 56 16 3d fc c6 9f 3d 72 30 e4 bd bf 02 29 be
       0.036703315 0.07801625 -0.11142053 -0.16504954
000340 0a d4 53 3d cb 1e 07 be 70 41 24 3d 99 26 dc bd
       0.051715888 -0.1319534 0.04010147 -0.107495494
000350 a6 96 35 bc 2f 02 40 be c4 43 62 bc eb b8 84 bd
       -0.011083281 -0.18750833 -0.013810102 -0.06480583
000360 8a 73 c4 bd ad 06 0c be 84 72 c8 bd d2 d3 6f bd
       -0.0959235 -0.13674422 -0.09787467 -0.058551617
000370 a7 46 99 3b 26 a2 23 3d 27 c1 6c 3c 3e cb 05 bd
       0.004677612 0.03994956 0.014450348 -0.03266453
000380 00 b3 d3 3d c2 e3 3f bd 11 1c 38 bd b5 9c b6 3d
       0.10336876 -0.046848066 -0.04494864 0.08916608
000390 8f c3 82 3c 6e 2a 2c ba da 5d 79 bd 71 8a 61 3d
       0.01596239 -0.0006567602 -0.06088052 0.05506367
0003a0 c8 80 8f 3a dc 0a 0b bd 45 df d4 3c 5f 90 49 3d
       0.0010948414 -0.033945903 0.02598537 0.04920995
0003b0 4b 68 2e ba a7 08 cd 3d 91 c5 03 3d 0d bd 51 bd
       -0.0006653114 0.10011416 0.032170836 -0.051205683
0003c0 65 b5 8c bc cc 7e c9 bd f6 4f 1a be 15 4e d9 3c
       -0.01717634 -0.09838638 -0.15069565 0.02652649
0003d0 e2 de 05 3d 91 94 d4 3c e4 a7 a3 bc bc 21 21 be
       0.03268326 0.025949748 -0.019977517 -0.15735525
0003e0 b9 ed 0b bd d1 ae c1 bd b9 3f 72 bc 5e a7 35 3e
       -0.034162257 -0.09457172 -0.0147857005 0.17739627
0003f0 55 e1 a5 3d 6c db 09 bd be 03 7f bd c5 50 26 bd
       0.08099619 -0.033656523 -0.06225943 -0.04060437

conv8.bias f4 [32]
000000 9d 3d 79 3f fa d2 82 3f ae 2f 1a 3d 34 df 7f 3f
       0.9735964 1.0220635 0.037643127 0.99949956
000010 79 22 10 3f a5 d1 87 3f 60 7d e1 3f 01 57 a9 3f
       0.563026 1.0610853 1.7616386 1.3229676
000020 36 aa 98 3f de 9e b2 3f bf 3d 56 3f a3 bc 42 3f
       1.1926944 1.3954732 0.8368797 0.76069087
000030 1b 02 4e 3f 49 02 8c 3f 8b 43 86 3f 3c 11 03 40
       0.8047196 1.0938197 1.0489362 2.047927
000040 07 47 f3 3e 1e 4e 95 3f 5f 95 cd 3f ca 09 9a 3f
       0.47515127 1.1664464 1.606121 1.2034237
000050 19 64 d3 3f 5c e2 0e 3f 02 42 1a 40 4f b8 c4 3f
       1.6514922 0.55814147 2.4102788 1.5368747
000060 c5 ae 84 3f 2b f7 92 3f ea 63 65 3f 48 23 90 3f
       1.0365835 1.148168 0.8960558 1.1260767
000070 5e 39 8f 3f 02 ba b6 3f 69 01 93 3f b0 3f 2e 3f
       1.1189382 1.4275515 1.1484805 0.6806593
