models/face_landmarker_pts81_net1.onnx (onnx, 267145 bytes, 22 tensors)

conv1.bias f4 [4]
000000 4f 59 1c 3e 4f 8b 88 3e d4 31 05 3e fc e5 a4 3e
       0.15268444 0.26668784 0.13007289 0.32206714

conv1.weight f4 [4, 1, 5, 5]
000000 1b 3a 56 bb 89 be d0 ba 97 61 38 3a af cc 1f 3a
       -0.0032688442 -0.0015925925 0.0007033585 0.0006095869
000010 83 23 9a b9 9f 11 1f bb 87 c9 18 bb 80 eb 8f 38
       -0.00029399627 -0.0024271978 -0.002331348 6.862637e-05
000020 4e f7 d9 3a 6f 92 b5 b8 60 3a a8 3a 4b 10 49 38
       0.0016629489 -8.658028e-05 0.001283478 4.793731e-05
000030 9e b8 53 3a cb 6d b7 3a ea b5 4c b8 51 29 a8 3a
       0.00080765213 0.0013994513 -4.880681e-05 0.0012829696
000040 c7 dc b0 3a 02 b2 95 3a 50 51 d0 39 cc 68 9d 39
       0.0013493531 0.0011420848 0.00039733434 0.00030023453
000050 dc b3 33 ba 04 d0 bf 39 67 75 23 39 33 45 23 ba
       -0.0006855109 0.00036585343 0.00015588627 -0.0006228268
000060 9a be 75 b8 90 c5 68 ba f0 40 77 3a 44 f9 09 3b
       -5.8590063e-05 -0.0008879537 0.00094319787 0.0021053115
000070 a5 b8 31 3a de 5e b3 b9 08 7d c4 37 69 1c d5 3a
       0.00067795283 -0.00034212222 2.3423243e-05 0.0016259077
000080 36 bb 19 3b 7c 64 3e 3a 57 cc 57 ba 99 18 ce 3a
       0.0023457534 0.0007262898 -0.0008232048 0.0015723883
000090 bd 4b 9b b9 ed c0 b3 b9 79 e1 9d 38 93 5d 46 39
       -0.00029620333 -0.0003428528 7.528341e-05 0.0001891761
0000a0 30 3c 0f 3a e5 55 e4 ba 4d f8 70 bb 3f f7 8a ba
       0.0005463986 -0.0017420618 -0.0036769093 -0.001060225
0000b0 02 db 5a 3a cd 88 f5 37 14 4c 92 b9 62 bb c2 ba
       0.0008348675 2.9269979e-05 -0.00027903973 -0.001485687
0000c0 85 1a 94 ba 43 5d a7 39 e7 62 54 ba 5a c6 f4 39
       -0.0011299407 0.00031922208 -0.0008101896 0.0004668709
0000d0 25 49 b3 3a e1 44 23 ba d0 ec 4a ba 7a 52 28 b9
       0.0013678415 -0.00062282203 -0.0007740976 -0.00016052453
0000e0 0b ce 0d 3a f9 cf e4 39 46 27 f6 ba 58 40 85 ba
       0.0005409426 0.000436425 -0.0018780015 -0.0010166271
0000f0 1f fa b4 38 8d 74 c4 39 c4 32 5e ba 51 19 25 bb
       8.6296575e-05 0.0003747087 -0.00084761926 -0.0025192092
000100 96 42 59 ba 56 ac f2 38 62 68 37 3a 98 6a 88 3a
       -0.0008287815 0.00011571559 0.000699645 0.0010407744
000110 2e 2d 69 b7 9e d0 91 b8 27 69 05 3a 88 6e 84 3a
       -1.3898401e-05 -6.952997e-05 0.0005089216 0.0010103742
000120 d3 90 0d 3b 55 b8 c3 3a 23 5e 7f b9 10 aa c2 b9
       0.0021601215 0.0014932255 -0.00024353764 -0.0003712927
000130 0c a5 18 b9 1e 24 81 39 f6 84 c0 39 e1 73 54 39
       -0.00014557334 0.00024631707 0.00036720157 0.00020261064
000140 84 e9 ff 38 52 11 1a ba bc 0f a1 ba 0c 24 a1 b9
       0.00012202843 -0.0005877215 -0.0012288014 -0.0003073517
000150 d5 99 32 3a 40 dd ce 39 24 79 b8 ba 3d 3a 1a bb
       0.0006813084 0.00039456226 -0.0014074189 -0.0023533248
000160 26 2c b0 b9 2b c1 88 39 5b 44 72 b9 59 6c 21 b8
       -0.0003360223 0.00026083863 -0.00023104383 -3.8486298e-05
000170 44 73 06 ba ff 67 f9 b8 50 0d e7 39 f3 c9 b2 38
       -0.000512887 -0.00011892616 0.00044069672 8.5253174e-05
000180 3e 97 30 39 d4 df c8 39 15 35 44 39 c2 81 1c 39
       0.0001684101 0.00038313738 0.00018711791 0.00014925658

conv2.bias f4 [4]
000000 6f 29 7a 3c 44 bc b2 3d b6 e0 41 3d bc 64 fc 3e
       0.015268668 0.08727315 0.04733344 0.49295604

conv2.weight f4 [4, 4, 3, 3]
000000 a3 2b 22 3d ba 19 65 be c4 42 1f 3e ef 9a 47 3e
       0.039592396 -0.22373095 0.15552813 0.19492696
000010 7c a8 2c bf 41 29 09 3f 65 b2 87 3d 6b 5b 9d be
       -0.67444587 0.53578573 0.06625823 -0.3073381
000020 0f cc 0d 3e 87 65 24 be 7d 44 82 3e 9a 39 49 bd
       0.13847373 -0.16054355 0.25442877 -0.0491272
000030 78 f5 a6 bd 07 94 ce 3e 5a 64 6e be 2d 4c 00 bd
       -0.08152288 0.4034731 -0.23280469 -0.031322647
000040 0d a6 4a 3b 08 3e d8 bd 4c c9 a8 3b 97 a7 14 3e
       0.0030921728 -0.105587065 0.0051509496 0.14517055
000050 a1 96 0d be 34 42 84 bd 57 7e f6 3e 5b e5 ce be
       -0.13826992 -0.0645794 0.48143265 -0.4040936
000060 85 84 0b bd 6b 91 ac 3d d3 f8 5a be f3 9a d1 be
       -0.034061927 0.08426174 -0.21383981 -0.4093853
000070 37 86 8d 3e a2 05 31 3e 4b 22 b7 be fc ba 4d 3f
       0.2764146 0.17287305 -0.3576835 0.8036344
000080 81 ad 02 3d 10 cc 18 be 64 6a 78 bc 45 c7 f3 3c
       0.031903747 -0.14921594 -0.015162084 0.029758105
000090 06 ac 41 3d 4f 51 c6 3d 28 36 84 39 15 a4 46 3d
       0.047283195 0.09683477 0.00025217352 0.048496325
0000a0 6c ee c7 be 86 c2 f2 bd 49 12 ec bd ad 5b b9 3e
       -0.3904909 -0.11853509 -0.11526925 0.36202756
0000b0 25 8a 08 3e 7e dd 11 be 1c a7 a9 3d 1b 10 62 bd
       0.13333948 -0.14244649 0.08283827 -0.05519114
0000c0 ac 64 b7 3d 4a 71 bd 3e b1 76 e1 3b 2b 04 9c 3d
       0.089547485 0.37000495 0.006880604 0.076179825
0000d0 93 c1 1a bf 26 cb 76 be 83 3d 17 3e 89 19 b3 bc
       -0.6045162 -0.24100932 0.14769559 -0.021862762
0000e0 ab 45 63 bd a4 f7 fd be d1 03 6c 3e 3c 97 c0 3c
       -0.055486362 -0.49602997 0.23048331 0.023509614
0000f0 14 eb dd 3e 62 54 23 be c9 48 c0 bd 03 e4 97 3e
       0.43343413 -0.15950158 -0.09388883 0.29666147
000100 42 17 d5 bd 8b 27 8e bd a2 ee 0a bf 0b 59 dd 3d
       -0.10404827 -0.06941136 -0.54270375 0.10807999
000110 31 28 9b 3e bb 5e 8c 3e ca 8f 90 bc d2 e5 7f 3d
       0.303041 0.27416024 -0.017646689 0.062475033
000120 7b 5c 27 3d af ad 88 bd 0b 6b d3 3d f0 7e 56 3c
       0.04085968 -0.066737525 0.10323151 0.013091788
000130 c3 0e 64 3e c1 85 f5 be 91 b8 a7 be 6d 80 88 3e
       0.22271256 -0.4795361 -0.32758 0.2666048
000140 62 f1 0b 3e 5d 8f 08 3e f6 2b 6d bd 6f e8 04 be
       0.13666299 0.13335939 -0.057903253 -0.12979291
000150 30 9f 98 be 9a 9d 0f 3f 6b 55 dd 3d e5 4a a1 be
       -0.2980895 0.56099856 0.10807308 -0.31502452
000160 66 d8 73 be 09 68 a8 bc c9 24 bb be 33 e4 54 3e
       -0.23813018 -0.02055742 -0.36551502 0.20790176
000170 56 6a 35 3e 08 75 1b 3f 91 cc 5c be ba 48 82 be
       0.17716345 0.6072545 -0.21562411 -0.2544611
000180 f4 75 49 3c 98 63 c7 bd 78 b9 27 3d a4 0f e6 3d
       0.012296189 -0.09735793 0.04094836 0.11233452
000190 3f 9d 66 be e7 7b 8a bd 38 c4 62 3e ed 28 09 3f
       -0.22520922 -0.06761914 0.22145164 0.5357807
0001a0 91 6e 94 be 08 ee c6 be 33 de 56 3e 63 eb 48 3e
       -0.28990605 -0.38853478 0.209832 0.19621043
0001b0 be 44 4d bd 3b 0b 23 bc 2e bf 6a 3c 4c a0 de bd
       -0.050114386 -0.009951408 0.014327807 -0.10870418
0001c0 bc 74 3a be 8d dd 2b bd f3 e5 65 be 2a 8d db be
       -0.18208593 -0.041959334 -0.22451 -0.42881137
0001d0 3b d4 df be b1 2c e7 bc 09 b8 c2 3c 7c 16 65 3d
       -0.43716606 -0.028219553 0.023769395 0.055929646
0001e0 a8 71 3c bd 50 22 13 be c4 cc 40 3c a0 09 9b 3d
       -0.04600683 -0.14368558 0.01176757 0.07570195
0001f0 9b 77 d9 3b f2 45 b1 3d 51 01 cc 3d 02 13 86 3d
       0.0066365725 0.08655919 0.099611886 0.06546594
000200 36 8a 25 bd df 89 0f bf 94 9c 15 bf 50 cf 2f be
       -0.04041501 -0.5606975 -0.58442044 -0.17168927
000210 b1 7e 35 3d 28 53 2c bd e1 5a d3 bd 4d df 05 be
       0.044310275 -0.04207149 -0.10320068 -0.13073464
000220 0d 18 00 be ae a6 ae 3d 27 09 96 be cc 09 59 be
       -0.12509175 0.085278854 -0.29303858 -0.21195143
000230 e8 41 38 be ce 34 12 3e 7a 46 5d 3f 89 5a 72 3e
       -0.17993891 0.14277956 0.86435664 0.23667349

conv3.bias f4 [8]
000000 7a 8e df 3d 21 a6 43 3d 49 ab 1f 3e 34 73 f9 3d
       0.10915847 0.047765855 0.15592684 0.121801764
000010 64 4b 89 bc 0d 7a c8 3c 96 60 2f 3e e3 07 87 3f
       -0.016759582 0.02447226 0.17126688 1.0549282

conv3.weight f4 [8, 4, 3, 3]
000000 fc 3a 88 3d b9 4d 0d 3e e4 b4 84 3d de de 4e be
       0.066518754 0.1379918 0.06479815 -0.20202205
000010 b2 ef 9b be 0d ae 48 be 60 65 70 be 10 a4 f2 be
       -0.3045631 -0.19597645 -0.23476171 -0.47390795
000020 b2 9c c3 be 93 55 3a 3d d6 46 4b bd fd 0e a2 3c
       -0.38205487 0.045491766 -0.0496281 0.019782538
000030 d6 4b 91 bd a4 6e 5c bd d4 51 1a 3e 70 c2 fc bc
       -0.07094543 -0.053816453 0.15070277 -0.030854434
000040 68 a2 0b b9 0d 6e 2c 3e 7d 7d 1a bd f7 4a 67 3d
       -0.00013316574 0.16838856 -0.03771733 0.056467976
000050 43 14 82 3d 9b 5f 15 3e 88 03 de bc 05 8d fb bc
       0.06351521 0.14587252 -0.027101293 -0.030706892
000060 0e ef 53 3d b7 2d c3 3d 92 13 ab bd fd c7 09 be
       0.051741652 0.09530204 -0.08353342 -0.13455196
000070 30 e0 a4 3e 4a ee ba 3d 30 10 a5 bd 0d e5 17 3e
       0.3220229 0.09127481 -0.08059728 0.1483347
000080 d1 31 5e bb 7f 1c 66 3d 9c bc 4e bd 77 56 2e 3e
       -0.0033904205 0.05617952 -0.05047284 0.17025171
000090 e3 87 a8 3d b2 e0 f9 bd 8d bb a8 3c 77 8c cf bd
       0.08229043 -0.1220106 0.020597244 -0.101342134
0000a0 bc 6f 11 3d 0b e1 9d 3b f1 9d 1c 3d 85 66 d2 3d
       0.03550695 0.004818087 0.038236562 0.1027346
0000b0 84 31 08 bd c2 33 ad bd 4c ae c7 bd 3a 5d c0 3d
       -0.033250347 -0.08457138 -0.09750041 0.093927816
0000c0 86 9c 3f be c9 ab 6d 3e 96 28 b3 3d 7e 6f 40 3d
       -0.18712053 0.23210062 0.087479755 0.046981327
0000d0 16 1b fa 3c e5 70 8e 3d a1 e4 35 be 2c 55 cd be
       0.030530494 0.06955127 -0.17762996 -0.40104043
0000e0 33 27 7c bd 4c 99 b0 be 93 ab b6 be 94 54 85 3d
       -0.06156082 -0.34491956 -0.35677776 0.065102726
0000f0 99 b8 72 bc 77 1d ea 3c 67 a4 1e 3e 58 94 55 be
       -0.014814519 0.028578503 0.15492402 -0.2085737
000100 67 b1 f8 3c 19 04 6c 3e f6 29 5d be c2 1c ea 3e
       0.03035803 0.23048438 -0.21598038 0.45725065
000110 cb e3 f8 3d 3d 5c 79 3d da 45 b6 bc af d8 f8 3b
       0.12152823 0.06087898 -0.022250105 0.00759419
000120 27 0b 45 3e 15 d1 fe bc 10 be 1c 3c 61 78 6a bc
       0.19242536 -0.031105557 0.009566799 -0.014310927
000130 fc d4 87 bd 41 7f 9d 3c 0e 11 e8 bd 92 dd b5 3c
       -0.066324204 0.019225718 -0.11331378 0.02220038
000140 20 68 e8 3c 42 17 b4 3d 6f 6d a7 3d 8f 7e 39 bd
       0.028369963 0.087934986 0.0817517 -0.04528671
000150 cc 05 b1 3d 99 bd e9 3b 07 20 16 bc 83 f4 c3 3d
       0.08643684 0.0071331975 -0.009162909 0.09568121
000160 9e b6 8c 3d 67 dd 03 3e 4b c7 c3 3d 5b 38 b8 bd
       0.06870769 0.12877427 0.095594965 -0.08995124
000170 99 17 21 3e dd c5 a1 bd c4 11 07 bf 93 39 31 be
       0.15731658 -0.078990676 -0.52761483 -0.17307119
000180 06 d1 ae bd 9e f5 09 bf 24 fe 9d bd 4b 65 f6 3d
       -0.08535962 -0.5389041 -0.07714489 0.12031039
000190 bd 88 d0 3d e3 20 c1 bd 5e c9 41 bd 11 3b 6d 3d
       0.10182331 -0.09430101 -0.04731118 0.05791766
0001a0 5b a6 14 be d5 f3 f4 bc 64 a0 3d bd dc e4 68 3c
       -0.14516585 -0.029901424 -0.04629554 0.014214721
0001b0 21 ea a4 3d 45 6d 34 bd 8a a6 aa 3c 5a 49 82 3d
       0.08052469 -0.04404952 0.020831365 0.06361647
0001c0 55 5b 5d 3d c0 23 00 3e ec 74 fe 3c 99 b0 ec 3d
       0.05404218 0.12513638 0.031061612 0.11557121
0001d0 c1 72 e4 bd fb 37 b0 3c 5f 7c a4 be bb a2 87 be
       -0.111547 0.021511069 -0.32126138 -0.2649134
0001e0 8f bf 8f 3d ea 78 43 be 99 8a b3 be 05 5e 0f 3d
       0.07018959 -0.19089094 -0.3506668 0.035001773
0001f0 4e c2 d3 3c f6 34 81 3d 1f c8 82 3d b1 95 bf bd
       0.025849488 0.063089296 0.06385826 -0.09354723
000200 38 8b db bc d6 2b 31 3c 7a c3 28 bb 42 0c 36 be
       -0.026799783 0.010813674 -0.0025751279 -0.17778113
000210 cc fa ed 3c 36 45 af 3d 47 d9 e4 bd 08 a1 0c 3e
       0.029050253 0.08558123 -0.11174255 0.13733304
000220 02 80 0e be 3b 95 12 be 9e fc 21 bc a6 8e 18 3e
       -0.13916019 -0.1431474 -0.009886889 0.14898166
000230 44 47 47 be e3 fe 06 3e b1 2f d4 3d 9c 6a 2d 3e
       -0.1946078 0.13183169 0.10360659 0.169352
000240 22 85 09 3b 2c a2 82 bd b7 75 ce bc 5b 93 f4 3c
       0.0020983894 -0.06378588 -0.025202615 0.02985542
000250 e0 b9 9d 3d 86 1d 8e 3c e1 d6 a7 bd f6 4f fa bd
       0.077014685 0.017348062 -0.08195282 -0.122222826
000260 5c d7 c8 bc af f6 04 3d ca 6d c7 3d 0b a4 07 3e
       -0.024516754 0.03246182 0.097377375 0.13246171
000270 50 33 8d 3b db d0 3f 3d 70 b6 b1 bc 67 e9 33 bd
       0.0043090954 0.04683004 -0.021693438 -0.04392376
000280 dc 72 0f 3d 27 22 81 3c b8 77 f2 3c 51 f8 38 bd
       0.035021648 0.015763355 0.029598102 -0.045158688
000290 4e a2 24 3c db 69 0a bd c7 d9 6f 3c 28 f8 18 3d
       0.010048462 -0.033792358 0.0146393245 0.037346035
0002a0 cf d4 9f bc ea 36 c1 bb 22 36 c0 bd 91 ad df 3c
       -0.019510655 -0.005896439 -0.09385325 0.027304443
0002b0 b8 2f 28 3f b0 4b 3d 3e bc 17 f1 bd b5 80 bf be
       0.65697813 0.18485904 -0.11772105 -0.37402883
0002c0 cc d9 25 be c1 6d f0 bc 1e c5 09 bd 13 1a 62 bd
       -0.16196364 -0.02934921 -0.03363525 -0.055200648
0002d0 62 0b 58 be bb 80 97 be 54 c7 dd bd 6e 21 10 bd
       -0.21098092 -0.295904 -0.108290344 -0.03518813
0002e0 f9 f8 9d bd af d7 0f bd e7 9d 2c 3d a6 57 a4 3d
       -0.077135034 -0.0351178 0.042142775 0.0802453
0002f0 a3 c8 42 3a 4c 85 14 bd ec a7 f3 bd c4 df 65 be
       0.000743041 -0.036259934 -0.11897263 -0.22448641
000300 7d 91 fc 3d b0 fe 8e 3d 57 92 81 bd 1b 02 05 3e
       0.12332437 0.069821715 -0.0632674 0.12989084
000310 3c 2c 8e 3c 7f 28 7b 3c a5 b8 63 bd f3 f7 c0 bd
       0.017355077 0.015329479 -0.055596013 -0.094222926
000320 ba 62 42 3d 11 4e f4 3c 50 91 6f 3e 5b 19 b1 3c
       0.047457434 0.029822381 0.23395276 0.021618536
000330 11 12 a5 bc ab 5c c4 3c 89 79 59 3d 6c 6f 0b 3e
       -0.020150216 0.023969969 0.05309442 0.13616723
000340 3b 06 11 3e 4f 12 da bd 6c 70 32 3e 90 57 4d 3e
       0.14162533 -0.10648023 0.17425698 0.20052934
000350 c7 85 be 3c 4b 38 09 bc b5 57 a6 bc 06 19 be bd
       0.02325715 -0.008375238 -0.020305494 -0.092821166
000360 3a 18 62 bc 04 c8 8c 3d bf 90 fa 3d b2 9c 7a bd
       -0.013799721 0.068740875 0.122346394 -0.061184593
000370 34 3d 9e bb 0b 35 12 bd 0d aa fc bd b8 55 80 3d
       -0.0048290733 -0.035695117 -0.12337122 0.062663496
000380 00 e7 22 bb b3 c7 1c be c6 d1 11 bf 36 07 87 3d
       -0.0024856925 -0.15310554 -0.56960714 0.06593172
000390 fa 23 0a be 25 c4 07 bf 5a fa 40 3d 2c 96 e2 3c
       -0.13490286 -0.5303367 0.047113754 0.027659498
0003a0 93 a1 29 be 03 45 e2 3d 02 a7 59 3c 29 0a cd bd
       -0.16565542 0.11048319 0.013284447 -0.100117035
0003b0 9d c0 88 3c d5 2f 5c 3d 0c da 02 be 3b ef a4 3d
       0.016693408 0.053756554 -0.12778491 0.08053442
0003c0 dc dc 28 3e c6 66 b3 bd 97 43 06 3e f8 b2 03 3e
       0.16490501 -0.08759837 0.13111721 0.1286124
0003d0 44 fa 75 bd b9 34 08 3e 77 de 98 bd c9 82 40 bd
       -0.060053125 0.13301362 -0.07464307 -0.046999726
0003e0 76 a3 d4 3d 47 4a 3e bc b5 af 8a be d4 43 98 3d
       0.1038274 -0.011614389 -0.2708718 0.07434812
0003f0 e5 17 42 3b 51 4a 5f 3c 02 dd 8f bb 80 a0 f9 3c
       0.0029616293 0.013628558 -0.00439036 0.03047204

conv4.bias f4 [8]
000000 93 2f fa 3f 25 47 09 40 8c 53 63 bf d2 41 b0 3f
       1.9545768 2.1449673 -0.8879936 1.3770087
000010 31 ff 5d 3d 60 af 87 3f 4a ff 50 3f 61 b5 2e 3f
       0.054198448 1.0600395 0.8163954 0.6824551

conv4.weight f4 [8, 8, 3, 3]
000000 e9 88 b7 be 26 fa d3 be be d0 bb 3d 97 32 12 be
       -0.35846642 -0.41401786 0.09170674 -0.14277111
000010 71 91 f5 be bf f1 75 be d6 3e ba 3d d9 23 8b be
       -0.47962525 -0.24018 0.09094016 -0.27175787
000020 78 9f a9 be c4 a7 9e be da 7e 03 bf 2c e1 60 bf
       -0.33129478 -0.3098737 -0.51365435 -0.87843585
000030 95 56 cb 3e ab fe ea 3e c6 b2 a8 bd fa e6 36 3e
       0.39714494 0.4589742 -0.08237223 0.17861548
000040 35 ee 00 3f f6 30 27 3e 22 3d 86 be 31 b8 1c bf
       0.50363475 0.16327271 -0.26218516 -0.61218554
000050 0c b4 81 be aa 6e 50 be 10 bc 16 be 79 bb 26 be
       -0.25332677 -0.20354715 -0.14720178 -0.16282453
000060 5a 4e 85 3e d5 5d 9d 3e de bf 0b 3f 9e 15 f7 bd
       0.2603634 0.3073565 0.5458964 -0.1206467
000070 a4 60 ef bd f2 9f 15 3f c8 f9 2a be 5f 04 be bd
       -0.116883546 0.5844718 -0.16696846 -0.092781775
000080 21 92 1f 3f 18 b6 13 bf c3 f6 94 be 69 ba af 3e
       0.6233235 -0.5769973 -0.29094514 0.34321907
000090 ce 0a f1 3e d1 65 d1 bd f2 33 a3 be 6b 8c 57 3f
       0.47078556 -0.10224498 -0.3187557 0.84198636
0000a0 9f 5c 1a be 9b 6a 67 bf ff e2 00 3f da f6 8d 3e
       -0.15074395 -0.9039704 0.5034637 0.27727395
0000b0 02 68 84 bf 18 96 d5 3e 3b 1c 07 3e 4f 68 36 3f
       -1.0344241 0.41716075 0.13194363 0.7125291
0000c0 fd 37 96 3f a6 49 9d 3d 53 e8 9b bd 5c 45 f1 3e
       1.1735836 0.07680063 -0.07612672 0.4712323
0000d0 8e 92 97 bc c7 dd 5e bf 66 c4 4e be f1 e0 db bc
       -0.0185025 -0.87057155 -0.20192108 -0.026840659
0000e0 81 ff 9e 3e f8 2a aa be 90 ad 9b bd d1 89 56 3e
       0.3105431 -0.33235908 -0.07601464 0.2095101
0000f0 4a ef df be fe 27 1f be 7a 79 ec bd d3 1d 25 bf
       -0.4373725 -0.155426 -0.11546607 -0.64498633
000100 e8 17 3f 3f 14 1e 95 3f 68 ef 10 3f 64 4c dc bf
       0.74645853 1.1649804 0.56615305 -1.7210813
000110 66 d1 a5 bf 84 84 35 3f 3c b2 31 bf b8 f8 9b be
       -1.2954528 0.7090533 -0.6941259 -0.30463195
000120 6f 5a 1a be aa 3b ed bd b3 d3 6d 3e e3 be 99 be
       -0.1507356 -0.11583646 0.23225288 -0.30028448
000130 e3 39 64 3d 39 15 e6 3b e1 ba d0 be 4b 0e 54 3e
       0.055719268 0.007021573 -0.40767577 0.20708577
000140 34 5f 19 be 8f 88 61 3f e5 f5 04 3f 20 55 e4 3e
       -0.14977723 0.88098997 0.51937705 0.44596195
000150 2d f9 78 3f 31 2d 01 be ab 08 76 3e 3c 79 f5 3d
       0.9725521 -0.12614895 0.24026744 0.11986014
000160 f9 85 9f bd 1b 4e 50 3e 9e f3 8e 3d 22 7f 48 3e
       -0.07789225 0.20342295 0.0698006 0.19579747
000170 6d 9b 3f bd 09 59 b6 3e ea 60 6d be c4 f2 25 be
       -0.046779085 0.35614803 -0.23181501 -0.16205889
000180 5f b7 b0 bc 52 10 ba be 97 84 e4 be 4f ca 6e 3d
       -0.021571813 -0.36340576 -0.44632408 0.058298405
000190 71 77 0b be a9 66 17 bf 0a a0 59 be 24 24 42 bd
       -0.13619782 -0.5914102 -0.21252456 -0.047397748
0001a0 75 2b b0 be 51 8e e8 bd 14 60 c0 3d 7f 51 05 be
       -0.34408155 -0.1135527 0.093933254 -0.1301937
0001b0 9c 34 b5 be 6f 59 94 3d 57 28 3f 3e 30 d3 37 bf
       -0.353917 0.072436206 0.18667732 -0.7180662
0001c0 9b 95 9d be dc d6 a8 3e de a2 54 bf 11 a4 87 bd
       -0.30778202 0.32976425 -0.83061016 -0.0662309
0001d0 93 e6 72 3f 1a 56 da bd 65 7b c5 3e 34 2a 42 3e
       0.9488308 -0.10660954 0.38570705 0.18961412
0001e0 b2 21 8a bd be 74 e8 be c8 b8 52 bd 02 69 e9 be
       -0.06744708 -0.45401567 -0.051445752 -0.45587927
0001f0 22 96 ac be 13 b7 80 3f 2c 03 dc 3e fd 32 25 3e
       -0.33708292 1.005587 0.4297117 0.16132732
000200 94 f8 f4 be 73 87 f9 3d 07 7b d7 be 81 4d d1 be
       -0.478459 0.12184038 -0.4208605 -0.40879443
000210 2f a5 b9 3c ef 1d 21 3e 77 f9 54 3e c1 7d 1a 3f
       0.022661773 0.15734075 0.20798288 0.60348135
000220 5b af ab be 85 08 38 bf 39 6b 32 3f 90 74 83 bf
       -0.33532223 -0.71888 0.6969486 -1.0269947
000230 d7 79 3d be 88 42 db bf 2f c9 e3 be 7f a4 b3 3f
       -0.1850351 -1.7129679 -0.44489428 1.4034575
000240 4f 84 84 be a2 56 19 bf d2 01 37 be 9c 18 0f bf
       -0.25882193 -0.59897816 -0.17871788 -0.55896926
000250 cf 3f 0b bf 9f 9e 0d be 25 30 e0 be cb 9f 7b be
       -0.5439424 -0.1383004 -0.4378673 -0.24572675
000260 08 b5 3a bd 1b 47 fa bc 61 fd 83 3e 41 b3 0e be
       -0.0455828 -0.030551484 0.2577925 -0.13935567
000270 16 45 ad 3c a8 a9 9a bb 46 7a 98 3e e0 35 8e 3b
       0.021151107 -0.0047199316 0.29780787 0.0043399185
000280 1c 04 91 be b1 34 56 be 98 1d 77 3e 53 76 7a be
       -0.28323448 -0.20918538 0.24132383 -0.244592
000290 72 e4 ff bd a9 db 1b bd 32 53 5e be 7b 61 40 bd
       -0.12494744 -0.03805128 -0.21711424 -0.046967965
0002a0 2e 59 f2 bd 3c 8d 3d be 16 eb 10 bd 32 e2 3e be
       -0.11833416 -0.18510908 -0.035380445 -0.18640974
0002b0 ab 82 d9 bb db 7d c9 bc 32 38 c1 bc f8 73 72 3d
       -0.0066378913 -0.024596145 -0.023586366 0.059192628
0002c0 0f 28 29 bd b3 6f 9b 3d d0 a7 95 be cb bd 40 be
       -0.04129797 0.07589664 -0.29229593 -0.188224
0002d0 1d e1 38 3c 44 26 97 bd db b9 7c bc fa ee 2a be
       0.01128414 -0.073803455 -0.015425171 -0.16692725
0002e0 98 d5 da 3d 19 82 0b 3f d6 fd 98 bd 41 65 46 3c
       0.10685271 0.5449539 -0.0747029 0.012109102
0002f0 de 48 ae 3d 01 71 4c be fc e0 1c bf 5d 31 8f be
       0.08509992 -0.19964983 -0.612808 -0.2796735
000300 26 a9 88 be c6 7d a7 be 07 76 5c 3e 81 fd aa be
       -0.2669155 -0.32713145 0.21529399 -0.33396533
000310 b5 62 72 3d c5 31 19 be 7f c8 d2 3d d5 29 6c 3c
       0.059176166 -0.14960392 0.10292148 0.01441427
000320 39 8c bd bd 1a c7 35 3e ad cd 47 bc bb 3a c3 be
       -0.09255261 0.17751732 -0.012195033 -0.38130745
000330 75 85 81 bc 50 45 c0 be 9a 80 bb bd 55 97 e5 3e
       -0.015810708 -0.3755288 -0.09155388 0.4484202
000340 00 67 24 be f9 e1 5a be c1 3e 49 3e 96 b9 04 3f
       -0.16054916 -0.21375264 0.19652845 0.5184568
000350 07 b1 30 3f 74 33 84 bd 51 f3 32 3e 86 c8 4c 3d
       0.6902012 -0.064551264 0.1747563 0.04999592
000360 ca cb 5d be 39 b9 a1 bb 64 a9 1c bd 64 a6 aa be
       -0.2165977 -0.0049354103 -0.03824748 -0.3333007
000370 98 0d 86 bd 4c 91 0f bc b4 d3 97 be 86 4a 35 bd
       -0.065455616 -0.008762669 -0.29653704 -0.044260524
000380 8b a9 65 be 93 4e d6 3d f6 f6 33 bd fe 25 6e bd
       -0.22427957 0.104642056 -0.043936692 -0.0581417
000390 49 38 cc bb ca 4b 68 3d 1b c4 c0 bc fe d0 a0 be
       -0.0062322957 0.056712903 -0.02353101 -0.31409448
0003a0 bc 69 25 bd d6 14 15 3e bc b3 59 3e 0f f1 8e 3e
       -0.04038404 0.1455873 0.2125997 0.27918288
0003b0 88 65 84 bc 0a e8 92 3e 7d aa d8 3e bf 2c 8d 3d
       -0.016161695 0.28692657 0.42317572 0.068933
0003c0 b8 5b 92 be 54 19 92 3d 29 60 85 3e 4b 5d 21 3d
       -0.285856 0.07133737 0.26049927 0.03939561
0003d0 ec f8 7d 3d cf 70 49 3d 63 d8 36 3e fa 8d 28 3e
       0.06200497 0.04917985 0.17855982 0.1646041
0003e0 4e 36 06 3e 7d cc b1 3e 07 86 b7 3e e4 61 f7 bc
       0.13106653 0.34726325 0.35844442 -0.030198045
0003f0 bc ca 8a be e4 2d ba be 29 17 14 be e8 c9 e8 be
       -0.271078 -0.36363137 -0.1446196 -0.45466542

conv5.bias f4 [16]
000000 0b 0a 14 3f fa 0f d4 3e c9 c8 0f bf 7e d6 bd 3e
       0.57827824 0.4141844 -0.5616575 0.37077707
000010 b4 8e cf 3d 68 f9 62 3b 6e 55 9d be f2 2e b0 3e
       0.1013464 0.003463352 -0.3072924 0.34410816
000020 bb cd c2 be 22 41 41 3e 2e 59 7a 3e 56 4b 2c be
       -0.38047585 0.18872502 0.24448082 -0.16825613
000030 1a f5 81 3e a7 5c 98 3d 84 21 91 be b7 2e 7b bd
       0.2538231 0.07439547 -0.28345883 -0.061323848

conv5.weight f4 [16, 8, 3, 3]
000000 81 fa b0 bb 7c d0 43 3c 71 5e d0 bc 87 3d ca bc
       -0.005400956 0.011951562 -0.025435658 -0.024687542
000010 5c 56 03 3c 59 6b 36 b9 fb 1a 07 bc d5 fc a6 bc
       0.008016195 -0.00017396863 -0.008246179 -0.020384232
000020 e4 e7 7e bc d8 2c 82 bd 9e 80 4e bd 7b 3c e3 39
       -0.015558217 -0.063562095 -0.050415628 0.00043341875
000030 f4 7e ca 39 80 6f 07 3e 6e d3 33 bb 34 9c 8e 3c
       0.0003862303 0.13226128 -0.0027439254 0.017408468
000040 64 e2 ab bc 3b b9 a9 3c c8 c5 03 bd ea a6 f6 3c
       -0.020981975 0.020718208 -0.03217104 0.030108888
000050 9e 9a ed bc 36 f6 c9 bb 34 38 9f 3d 78 1a 7a bd
       -0.029004391 -0.006163384 0.07774392 -0.0610604
000060 3e 14 49 3d 6e cc 8a 3b 99 96 86 bc ab 34 98 bc
       0.04909157 0.0042357957 -0.016429232 -0.018579802
000070 92 ba 86 bc b6 ba 96 bd a6 8e 83 bd ad 5b 3b 3c
       -0.016446386 -0.07359831 -0.064236924 0.011435431
000080 13 9f 12 3e 60 21 da ba 11 97 1f 3d 69 7c 5e bd
       0.14318494 -0.0016642027 0.038962428 -0.054317866
000090 17 9b 06 3d b5 37 59 3c cd 2e 46 3d bb 60 55 bd
       0.03286275 0.0132579105 0.048384476 -0.052094202
0000a0 d7 ff 31 bd fa 42 a1 3c 15 6b cc bc 44 22 e8 3c
       -0.04345688 0.019685257 -0.024953404 0.028336652
0000b0 6c 06 89 3a 6d 0b ba bd 4c 9a aa bd 62 fe dd bd
       0.0010454184 -0.090842105 -0.08330211 -0.10839535
0000c0 c6 2f 61 bd 01 bc 6e 3c 9c b2 af bd 4d 8d a3 3c
       -0.0549772 0.014571191 -0.08578989 0.019964838
0000d0 3b 4a 23 3d 3b 66 55 3c 08 79 fe bc 97 be 7c bd
       0.039865714 0.013024862 -0.031063572 -0.0617052
0000e0 f5 97 aa bd 99 47 92 bd d4 5f 26 bc 62 5d 24 bd
       -0.08329765 -0.071425624 -0.010154683 -0.04012812
0000f0 42 6a 09 b8 00 8a 4f 3d 32 27 6a 3c ac a5 ee 3c
       -3.2762306e-05 0.050668716 0.014291571 0.029131733
000100 bf 12 77 3b de a2 e0 bd eb 30 0f bd 42 e2 3f 3d
       0.0037700383 -0.109685645 -0.03495876 0.046846636
000110 ee 1d 77 bc 32 c2 09 bd 9f 0a a3 3c 03 79 39 3d
       -0.015082819 -0.033632465 0.019902525 0.04528142
000120 6f d3 80 3b d2 f3 3a bd 34 60 fd 3c 2b 5b c2 3c
       0.003931455 -0.04564268 0.030929662 0.023725113
000130 e7 f5 67 3c c2 62 38 bd 9a 6c 01 3d ce 21 98 bc
       0.014157749 -0.045016058 0.03159771 -0.018570807
000140 4c a5 9b 3d 8c 43 dc 3a b0 bb a0 bd 1a f5 83 bd
       0.07599887 0.0016804799 -0.078482985 -0.06443234
000150 c2 8c 18 bd 05 4c a7 3d cc 7d 23 3d 2f 15 1c bc
       -0.037243612 0.081687964 0.03991489 -0.009526535
000160 92 7c c5 bc ee 66 c2 bc ca 0b 6f 3a e0 86 fa 3c
       -0.024107251 -0.023730721 0.0009118883 0.030581892
000170 3e dc d5 3c 63 46 47 bd 71 d0 ca bd 99 2d 89 bd
       0.026105996 -0.04865111 -0.09903038 -0.0669815
000180 1d a4 1b 3d 34 b8 3f 3d 2c 3a 97 3d dd 32 33 3b
       0.037998307 0.04680653 0.07384142 0.002734355
000190 06 23 a2 3d b6 57 8f 3d 0a b8 ff bc fd fe 07 be
       0.079168364 0.069991514 -0.031215686 -0.13280864
0001a0 2b 89 8c bd 81 0e 2f 39 bf ed 0c bc 46 f8 c6 3b
       -0.068621 0.00016694704 -0.008601605 0.006072077
0001b0 d1 cb 1b 3c 65 07 4e 3c a6 54 16 bb 33 86 ae 3a
       0.009509043 0.012575005 -0.0022938638 0.0013315141
0001c0 f0 19 2d 3d c0 e5 f0 3c c8 77 13 3c d1 b7 73 3c
       0.042261064 0.029406428 0.009000726 0.014875368
0001d0 6b ca 27 bd 6a b4 c9 bd e5 e0 92 ba fc fb ff bc
       -0.040964525 -0.098488644 -0.001120594 -0.031248085
0001e0 8a 33 c2 bd 95 4a 9e bd fb c0 c1 3d 73 aa a8 bd
       -0.094824865 -0.07729069 0.09460636 -0.082356356
0001f0 32 a9 02 bc e6 19 13 3c f4 c3 80 3b e8 5d 98 3c
       -0.00797491 0.008978343 0.0039296094 0.018599465
000200 4e 35 b8 3d 49 5e bf bc 0e 82 71 bd 17 69 54 bd
       0.08994542 -0.023360388 -0.05896192 -0.051858034
000210 bf e1 0a bc 68 2d fe bb d2 f7 b2 3c 93 aa 3e bc
       -0.008476674 -0.0077568777 0.021846686 -0.011637348
000220 f5 5a d3 bd 42 58 a7 bd 53 05 1c bd 73 03 c6 bd
       -0.10320083 -0.08171131 -0.038091015 -0.09668627
000230 20 19 86 bd fc e4 be 3d 76 93 9a 3d 35 d4 b4 3d
       -0.06547761 0.09321019 0.07547657 0.08829538
000240 e6 53 81 bd 5f a7 86 bd d1 ee 25 bd 3a ea 9a bd
       -0.063148305 -0.06574892 -0.040510956 -0.075642064
000250 51 dd 1d bd 80 49 df bd 19 7f 26 bd 22 25 ca bd
       -0.038541142 -0.10902691 -0.040648554 -0.09870364
000260 e4 84 00 bd 68 5f c3 bc e2 1e f9 bc 24 56 94 bc
       -0.031376734 -0.023849204 -0.030410234 -0.018107481
000270 ef c3 b4 3c 49 e3 1c bd c2 bf 21 bd fb 21 c6 bc
       0.022066085 -0.038302694 -0.039489515 -0.024186125
000280 30 be a2 bc f0 69 08 bd 85 2b 19 3d 19 7d 2d bd
       -0.01986608 -0.033304155 0.03739502 -0.04235563
000290 ad 2c 50 3d 0a b8 2a 3c 46 01 a9 bd 9d bb c9 bc
       0.050823856 0.010419855 -0.08252196 -0.024625594
0002a0 c0 64 a9 3c 14 60 09 3d 83 36 91 3d 87 3c 7c 3b
       0.020677924 0.033538893 0.070904754 0.0038488226
0002b0 7f 37 a4 3c 34 6a b6 bc 83 21 95 3c e4 57 e2 3c
       0.020045994 -0.022267438 0.018204456 0.0276298
0002c0 6a 55 15 bd 91 a4 d3 3d 74 0f e9 3b 73 2b 29 bc
       -0.03645841 0.10334123 0.007112438 -0.0103253005
0002d0 8f 1f f0 bb d2 0f 24 3c 6e 23 90 bc a6 6c 4b 3b
       -0.007327981 0.0100135375 -0.01759502 0.0031040101
0002e0 cf 60 c2 bc 0d 3b 1a 3c 86 de 62 bc 91 79 21 3d
       -0.023727803 0.009413493 -0.013846999 0.039422575
0002f0 b8 cd a3 3d e1 12 d3 3c 41 35 44 3d 88 71 8a 3d
       0.07998222 0.025765838 0.04790235 0.067599356
000300 2f b5 48 3c fd 42 1f 3c 6f 4c 18 3d d5 6b bc 3c
       0.012250229 0.009720561 0.037182268 0.023000637
000310 43 d1 b8 3d 6c 99 d2 3d a4 cb 7f 3b ad ed 5e bc
       0.090242885 0.10283169 0.0039031291 -0.013606471
000320 06 6f 1d bc ed 4a 88 bb 04 a7 24 3d f8 f7 36 bd
       -0.00960899 -0.0041593225 0.04019834 -0.044670075
000330 0a e3 17 3d 64 86 46 3d 49 60 57 3d 5f df 17 bd
       0.037081756 0.04846801 0.05258206 -0.037078258
000340 ef 24 0b bd 63 d3 bf 3d ba 52 95 3c fb 67 ba 3b
       -0.03397077 0.09366491 0.018227924 0.005688665
000350 68 fe cf bb fe 99 0d 3d 74 30 37 bb 68 0d 86 3d
       -0.0063474663 0.034570687 -0.0027952464 0.06545526
000360 0b 87 af bc c6 e7 f8 bc e2 86 d9 bb 7c 34 80 bc
       -0.021426698 -0.030383956 -0.0066383937 -0.015650027
000370 1a d5 6a 3c 1f a1 53 bc 24 e8 b2 3c df c5 36 3b
       0.014333034 -0.012916832 0.021839209 0.0027888936
000380 36 ba 4b bb 62 86 78 3d 2c 8a ba b8 5d 28 7d 3b
       -0.0031086332 0.060675032 -8.894908e-05 0.0038628795
000390 1c 10 94 bc 6d 62 8e 3c 03 05 75 3c 3b 49 85 bd
       -0.018074088 0.017380917 0.014954808 -0.06508108
0003a0 73 f0 81 bc 08 f9 65 bd 68 23 a0 bc 36 21 82 bd
       -0.015861725 -0.056145698 -0.019548133 -0.06353991
0003b0 6a c7 76 3c df 38 1d 3d 85 43 53 3d ac 82 fb 3b
       0.015062192 0.038384315 0.051578064 0.0076754894
0003c0 19 dd 7a bd 5f 30 0b bd 94 67 af bc 23 ae 91 3d
       -0.06124601 -0.033981677 -0.021411695 0.07113292
0003d0 f4 ee 59 bd 4d 52 d5 bd ce 02 b7 3c 05 4b d8 bb
       -0.0532064 -0.10416088 0.022340205 -0.00660074
0003e0 44 37 69 bd 9f 87 d0 3c 3f 25 ea 3b 8a c9 45 bc
       -0.05693747 0.025455294 0.0071455534 -0.012071976
0003f0 8b 7f 4a bd ce 92 65 3b d2 04 9d bc 34 e7 ee 3c
       -0.04943804 0.003503013 -0.019167338 0.02916298

conv6.bias f4 [16]
000000 ff 8f bd 3d 74 8b bf bc e1 5c 5c 3e a2 5a 0e 3e
       0.09255981 -0.023381926 0.21519805 0.13901761
000010 d0 8b 95 3e 4b 31 bf 3d 48 04 2e bd d2 a8 a5 bd
       0.2920823 0.09335574 -0.04248455 -0.080888405
000020 bf f3 df 3d 22 e9 8c 3e 18 18 f4 3d 7c 8b de bd
       0.10935163 0.27521616 0.11918658 -0.10866448
000030 d0 ae f0 3d ad dc e0 3e 14 7a b7 3d a4 6c 97 bd
       0.11752093 0.43918362 0.089588314 -0.073937684

conv6.weight f4 [16, 16, 3, 3]
000000 12 62 24 3d f5 bf 18 3d 8b 7c 18 3e 90 ad d0 bd
       0.04013259 0.03729244 0.1489126 -0.101893544
000010 7a 6e f2 bd f6 e2 39 be 5d 22 d4 bc 7e d1 f1 bc
       -0.11837478 -0.18152985 -0.025895292 -0.029518839
000020 5b 37 31 be 08 cf 25 be c3 66 91 bc 06 d4 ea 3d
       -0.17306273 -0.16192257 -0.017749196 0.114662215
000030 34 f7 3b bd 9f af a8 3c 21 ec 95 3c bb 65 b0 bb
       -0.04589005 0.020591555 0.018301072 -0.005383221
000040 f6 7a d0 bd 91 fa 09 bd c5 15 aa 3d e4 5f aa 3e
       -0.10179703 -0.033686224 0.083049335 0.33276284
000050 42 7c 24 3e 57 f8 9a bd 67 9b 7d bd 14 21 96 3d
       0.16063026 -0.07566898 -0.06191578 0.07330528
000060 3d 79 b0 bc 27 e4 6e bd d0 c0 1e bd 37 ed a7 bc
       -0.021542186 -0.05832305 -0.0387581 -0.020498855
000070 35 ef c9 bb 30 1d bd 3c db a2 69 3e df 81 4c 3d
       -0.006162549 0.023085207 0.2281603 0.049928542
000080 9a bb 98 3d e0 d8 18 3d 5a 3c 47 3d 98 1e 1c 3d
       0.07457657 0.037316203 0.04864154 0.038115114
000090 d3 2a 9b be ce d8 4a be 30 1a 70 bd a0 74 4c be
       -0.3030611 -0.19809267 -0.058618724 -0.19966364
0000a0 4c 8c 13 be a4 f0 84 bd 9b ff 11 be 86 2e a4 bd
       -0.14408988 -0.06491211 -0.14257662 -0.08016686
0000b0 08 bf 02 be d4 b3 17 be 50 cd 7d bd 13 21 c1 bd
       -0.12768185 -0.14814693 -0.06196338 -0.094301365
0000c0 ec 43 f8 bd 50 fa 69 bd ff 26 b3 bd 0d a2 e7 3c
       -0.1212233 -0.057123482 -0.08747672 0.028275514
0000d0 92 3b 8b bd 0e de 6f bd b9 d9 58 be ee 8e 4a 3b
       -0.067984715 -0.058561377 -0.21176805 0.0030907947
0000e0 89 75 69 bd df e7 a0 bd ec f0 be bd d2 92 22 3c
       -0.056996856 -0.07856726 -0.09323296 0.0099227
0000f0 52 58 77 3e 35 88 e9 bd bd 2b ec 3b 5a 86 b4 3d
       0.24154785 -0.114029326 0.0072073624 0.08814688
000100 70 15 56 3e 04 2e 92 3d fa 46 47 bd 18 f9 f7 bc
       0.20906615 0.07137683 -0.048651673 -0.030270144
000110 9a 9f 41 3d ca 89 bb bd a4 cf bb 3d e5 2a 05 bd
       0.04727135 -0.091571406 0.09170464 -0.03251161
000120 60 27 61 bd 2e 4a 17 be 24 3c 08 be 38 49 14 bd
       -0.05496919 -0.14774391 -0.13304192 -0.03620264
000130 c7 c0 d0 bd 48 d2 c0 bd 81 ba 32 bd cb ea 1a be
       -0.10193019 -0.09415108 -0.043634895 -0.15128629
000140 c2 92 19 3c 3b a7 0a be 22 7b 0c bd 14 91 62 3d
       0.009373369 -0.13540356 -0.034297116 0.05531414
000150 54 9b e6 bd 10 1f 65 bd 38 49 1a 3c 0e a7 02 be
       -0.11260095 -0.055937827 0.009416871 -0.12759039
000160 9b b5 ae bd 53 81 06 bc 80 b8 d0 bd 47 71 c1 bd
       -0.08530732 -0.008209544 -0.101914406 -0.09445434
000170 73 ca 41 bc 55 33 0a be d1 36 af bc a9 86 4c b9
       -0.011828053 -0.13496144 -0.021388443 -0.00019505121
000180 a1 45 e2 bd fc 2b 7a 3c 32 b3 28 3d 57 87 2a bd
       -0.11048437 0.015269276 0.04118652 -0.041632976
000190 66 ff 6e bd 63 7b e0 bd 38 04 fb bb b8 3b d1 bd
       -0.058349036 -0.10961034 -0.007660415 -0.102164686
0001a0 86 ec 96 bd 8e d7 99 bc 70 4c 80 3b d1 ee 5b bd
       -0.07369332 -0.018779542 0.003915362 -0.05369455
0001b0 81 e6 7d 3e c8 56 d4 bd 4c ca a3 bb 4e c3 43 3e
       0.24794962 -0.10368115 -0.004998481 0.19117472
0001c0 56 e7 a0 3d 9c d7 68 3d 7f 31 88 3d e0 f9 4b 3d
       0.07856624 0.056846246 0.06650066 0.049798846
0001d0 86 4d 4e bd 77 5d e1 bd 23 24 59 bd e1 46 8f bd
       -0.0503669 -0.11004155 -0.05301298 -0.06995941
0001e0 1d 93 f8 bc 2d 40 a2 bc 9b d1 3e 3d d4 e3 73 ba
       -0.030343587 -0.019805992 0.046586614 -0.00093036634
0001f0 ff 17 1c 3d 42 8a 2a 3c e7 c4 dc 3c f7 fd 5f 3e
       0.038108822 0.01040894 0.02694936 0.21874224
000200 35 a4 3b be a4 1f 2c bd 51 56 0f 3e 8e be 6e bd
       -0.18324359 -0.042022362 0.13997771 -0.058287196
000210 a5 a1 aa bc 9e a8 10 be ec 56 34 3d f0 2c 7b 3a
       -0.020829031 -0.14126822 0.044028208 0.00095815863
000220 e1 44 c2 3a 38 5a e6 ba 5d f4 d8 3a e6 cd bb b9
       0.0014821553 -0.0017574495 0.0016552318 -0.00035820826
000230 7a 71 d7 ba 82 bd ae ba 5f 32 01 bb 42 86 ef 39
       -0.0016437017 -0.0013331624 -0.0019713861 0.00045685662
000240 bb 45 6a 36 47 09 91 36 5b 69 9b b5 52 14 6f 36
       3.4909306e-06 4.3224168e-06 -1.1579062e-06 3.5625603e-06
000250 2e 7f 8c 36 c3 25 f7 35 3f ce 98 35 0f dc 87 b5
       4.187131e-06 1.8413924e-06 1.1384908e-06 -1.0122329e-06
000260 1a ef 4b b5 48 fe 20 36 b4 2c 29 35 14 2a 13 35
       -7.597133e-07 2.398987e-06 6.302246e-07 5.4823e-07
000270 b6 f7 61 b6 10 aa 5b b6 6f c5 02 b6 c3 77 48 b6
       -3.36718e-06 -3.2732532e-06 -1.948643e-06 -2.9872033e-06
000280 a4 fb a2 b6 00 00 00 00 0b f9 20 b4 5e 64 95 35
       -4.857271e-06 0.0 -1.4991762e-07 1.1130576e-06
000290 ce ae 92 35 f3 e1 42 b6 3b 2e db b5 79 c2 33 35
       1.0928723e-06 -2.9039772e-06 -1.6330226e-06 6.696569e-07
0002a0 bc 95 84 b6 69 81 54 b6 bb 35 6b b6 06 9d 2e 36
       -3.951338e-06 -3.1665788e-06 -3.5049004e-06 2.601942e-06
0002b0 a2 ca 26 36 cf bc 72 35 06 4e 12 b6 8a f6 b5 b5
       2.4853875e-06 9.042678e-07 -2.180111e-06 -1.3557303e-06
0002c0 a7 1b 9f b6 c6 fe 0a b5 22 7f 5b b5 df f9 97 b6
       -4.7417884e-06 -5.177975e-07 -8.176886e-07 -4.5292395e-06
0002d0 8a 39 25 b6 10 d7 b8 b5 1e 35 0d b5 ce d8 aa b5
       -2.4620408e-06 -1.377166e-06 -5.260389e-07 -1.2729085e-06
0002e0 78 e0 04 b6 d1 5c c8 35 fa 96 a7 b5 10 64 a4 b5
       -1.980019e-06 1.4928174e-06 -1.248641e-06 -1.2248074e-06
0002f0 db a5 05 b6 46 0a fe b5 7f 42 63 36 42 d8 0f 36
       -1.9915085e-06 -1.8927465e-06 3.3864342e-06 2.143454e-06
000300 2a ae f7 b5 7d 09 fc 35 bb 24 93 b5 7b bd 8b 35
       -1.8453622e-06 1.8778225e-06 -1.0963043e-06 1.0411453e-06
000310 0a b1 2c 35 79 de 13 b6 3b a1 23 35 d4 13 62 b5
       6.433262e-07 -2.2034203e-06 6.0956853e-07 -8.4220414e-07
000320 b8 c4 83 36 49 81 d6 34 7b 47 23 b6 bf 4b 5c b6
       3.9270053e-06 3.9954674e-07 -2.43305e-06 -3.2826645e-06
000330 00 00 00 00 6f e3 89 b5 6e 30 41 b6 63 7e 42 36
       0.0 -1.0273487e-06 -2.878743e-06 2.898182e-06
000340 12 a0 a9 36 b1 8b bc 36 05 dc 36 36 54 52 ce 36
       5.055227e-06 5.619099e-06 2.7248182e-06 6.1488627e-06
000350 61 12 e6 36 00 00 00 00 d0 76 e9 b5 a6 f4 6b 35
       6.8566737e-06 0.0 -1.7394432e-06 8.790033e-07
000360 00 c4 55 b5 fa 6a f4 b5 8e 96 10 b6 9e a9 b0 b5
       -7.96339e-07 -1.8210551e-06 -2.1545306e-06 -1.3162387e-06
000370 6d 89 87 b6 f1 5c a0 b6 37 a5 39 35 78 11 8e b6
       -4.039312e-06 -4.7791914e-06 6.915829e-07 -4.2339634e-06
000380 e6 f9 88 b5 17 46 47 b5 4c df c6 34 78 ee ce 35
       -1.020552e-06 -7.423527e-07 3.7042844e-07 1.54176e-06
000390 d1 84 85 35 71 24 fd 34 08 de 2b 36 76 c3 7a b5
       9.947927e-07 4.7151437e-07 2.5610225e-06 -9.341669e-07
0003a0 f4 ed 7e 35 cb db 2a 36 bc 22 aa b5 52 84 97 b4
       9.496864e-07 2.545991e-06 -1.2676096e-06 -2.8222217e-07
0003b0 5b dd 58 b6 2b a3 75 b5 98 77 e6 35 15 ea 8d 35
       -3.2315354e-06 -9.1507053e-07 1.7171142e-06 1.0573445e-06
0003c0 af 87 a3 35 13 ab 9e 36 e1 79 45 36 80 64 87 b6
       1.2183935e-06 4.7286826e-06 2.942623e-06 -4.0350133e-06
0003d0 95 6f aa b5 9d cb a2 b5 55 1b 3c b6 f9 61 cd 35
       -1.2698462e-06 -1.21292e-06 -2.8030092e-06 1.5302204e-06
0003e0 cc a9 f2 36 21 79 0d b6 92 01 50 b5 53 79 25 35
       7.231929e-06 -2.1081144e-06 -7.7488323e-07 6.164384e-07
0003f0 79 ff 67 b6 1e b0 16 36 9b df 98 36 2b d9 12 b6
       -3.4570387e-06 2.2454255e-06 4.555984e-06 -2.1882104e-06

conv7.bias f4 [32]
000000 a0 e0 27 3e 2e 45 e5 3e 04 4f 48 be 1a ef 8c 3c
       0.16394281 0.44779342 -0.19561392 0.017203856
000010 0a a9 8f bc 73 d8 93 3d 30 24 2e be c8 47 8f 3d
       -0.017536659 0.07219019 -0.17005992 0.06996113
000020 8a 62 39 3d 74 1d 30 3d 19 e6 26 be 01 e3 cb 3d
       0.04525999 0.04299684 -0.16298713 0.09955407
000030 95 8e b2 3e b6 a6 10 3d 15 1a e0 3d 4c f6 96 3c
       0.34874406 0.035315238 0.10942475 0.01842799
000040 1a 16 89 be ba aa 10 3e 6b 10 e5 bd 9c 75 6d 3e
       -0.26774675 0.14127627 -0.11184772 0.23189396
000050 e5 67 8a 3d 26 04 88 3e 8c b8 cc 3c 50 b6 03 3b
       0.067580976 0.26565665 0.024990343 0.002009768
000060 7a b2 b5 3c 14 f9 8c 3e d0 72 2a 3e 3f a2 24 3e
       0.02217983 0.27533782 0.1664536 0.16077517
000070 13 8a ab bd 4a de 5d 3e 60 de 5d 3d d0 f0 b2 bb
       -0.08375945 0.21666828 0.05416715 -0.005460836

conv7.weight f4 [32, 16, 3, 3]
000000 54 28 16 bd 45 f0 06 3d d5 a1 c5 3d 1a 7d 5e be
       -0.036659554 0.032943983 0.09650008 -0.2172741
000010 35 c7 70 be 35 75 2a be 6b 36 eb bd be 2b e7 3d
       -0.23513491 -0.16646273 -0.11484989 0.1128764
000020 e9 64 12 3c 1f 57 12 bb 1c 55 8b 3a 07 32 ff b9
       0.008935192 -0.002232976 0.0010630223 -0.00048674663
000030 28 91 b7 ba 92 44 60 bb 58 e3 ac 3a 35 9d 4c 3a
       -0.0014005052 -0.0034220559 0.0013190312 0.0007805408
000040 20 d5 8f 3a bb 01 3a 3a 58 35 96 3d e8 03 54 be
       0.001097355 0.0007095595 0.07334393 -0.20704615
000050 12 28 8b bd 47 3a 07 3e 8c 52 11 3e 93 6a 1b be
       -0.06794752 0.13205825 0.14191645 -0.15177374
000060 07 c7 95 3d 9f 07 bf 3d ff 67 81 bd 7c 89 c7 3d
       0.07313352 0.093276255 -0.06318664 0.0974302
000070 7f 68 e3 bd 68 aa 1b 3e d0 c0 40 3c e8 18 9e 3d
       -0.111039154 0.15201724 0.01176472 0.07719594
000080 76 04 69 3e 04 d4 1b 3d 1f 6a 39 3e 86 d3 a1 3b
       0.22755608 0.03804399 0.18106888 0.0049385456
000090 52 83 64 3d bc 0a 12 be f8 29 98 3c 48 6d 80 3c
       0.0557893 -0.14261907 0.0185747 0.01567711
0000a0 96 33 3a 3e 5c 1a fd 3c cb eb a2 3d 1d eb 1b 3d
       0.18183741 0.030896358 0.0795513 0.03806602
0000b0 b3 75 02 3e e7 3e 77 3d cf 5c 1f be f5 ea 8c be
       0.12740211 0.060362723 -0.15562747 -0.27523008
0000c0 8b 60 5f 3d d1 c2 61 bd 42 cd db 3c d1 e8 2c 3c
       0.05453543 -0.055117432 0.026831273 0.010553555
0000d0 d3 f3 36 bd 02 a6 91 bc 20 80 c7 3c 2f cb 91 bc
       -0.044666123 -0.017779354 0.024353087 -0.01779708
0000e0 90 76 85 bd 84 16 19 be 95 7b 06 3e 36 4b 02 be
       -0.065167546 -0.14949995 0.1313308 -0.12724003
0000f0 d6 23 f0 bd 94 e8 89 bc 3d 01 4e ba 5c 0a 59 be
       -0.11725585 -0.016834535 -0.0007858461 -0.21195358
000100 e2 15 40 bd 3e 61 00 3c 7f 3c 76 be 7f 19 78 be
       -0.04689587 0.007835684 -0.24046515 -0.24228476
000110 29 fa 49 bc 7e eb 59 bd c0 0f 49 3c 50 b1 0a be
       -0.012327709 -0.0532031 0.0122718215 -0.13544202
000120 19 21 f8 3c a3 02 4d 3d ea 1a b2 be cc 34 a7 bc
       0.03028922 0.050051343 -0.3478616 -0.020410918
000130 9b ff ac 3e 21 2e 73 3d 0c 1a 14 be 8f 0f c5 bd
       0.33788761 0.059370164 -0.14463061 -0.09622108
000140 f2 25 20 be 06 eb 3f be b6 13 0a be 42 50 39 bd
       -0.15639475 -0.18741998 -0.13484082 -0.045242555
000150 66 bd b8 3d 55 8a 05 bd 87 ae 9c bd bb bd 7a 3e
       0.090205 -0.032602627 -0.07650476 0.24486439
000160 a7 2d 4c 3d ee 5b 86 3d e1 82 17 3d 7a 7d 3f bd
       0.049848225 0.06560503 0.03699005 -0.046750523
000170 ff 55 3a 3e 30 4d 6b 3e 38 71 d0 bd c3 6f 98 3e
       0.18196867 0.22978663 -0.10177845 0.29772767
000180 95 09 8d 3d 2b 28 a8 bd 93 0c 9a be 2e db 09 bb
       0.06886593 -0.082107864 -0.30087718 -0.0021035182
000190 1f 5a 74 3a e2 24 a2 b9 4f e2 86 3a 50 84 71 b9
       0.00093212904 -0.00030926528 0.0010290834 -0.00023032841
0001a0 6c 22 46 39 af b4 88 3a df 46 ef ba 18 26 82 ba
       0.00018895575 0.0010429824 -0.0018255374 -0.0009929566
0001b0 9b f8 3f bd 1e c2 90 3d 97 ab 3a 3d e0 46 e2 bd
       -0.046867948 0.07068275 0.045573797 -0.110486746
0001c0 1e c6 37 3d 44 5c a3 bd 9e a4 ef 3c ee 01 c4 3c
       0.044866674 -0.07976583 0.0292533 0.023926701
0001d0 74 85 06 3e 29 31 5e bc b2 9b f0 bd fc 06 b6 3d
       0.13136846 -0.013561525 -0.117484465 0.08888051
0001e0 3d 0c 69 3d 24 90 03 be 88 06 45 3e f9 ae c1 3d
       0.056896437 -0.12847954 0.19240773 0.094572015
0001f0 b1 4a e7 bd 85 66 f3 bd 17 04 42 be f7 79 9e be
       -0.11293543 -0.118847884 -0.18946873 -0.30952427
000200 93 a8 83 3e c9 cb ea bd 85 17 ea bd 48 06 60 3a
       0.2571455 -0.1146465 -0.11430267 0.0008545858
000210 52 09 1a 3c 1c af 3a bb bb b1 40 be a1 04 98 bd
       0.009401636 -0.002848572 -0.18817799 -0.07422758
000220 fe fc d7 bd 75 87 4a bd 6a e4 03 bd 30 62 c0 bd
       -0.10546301 -0.04944559 -0.032200254 -0.09393728
000230 bb b4 96 bd 48 c6 eb bc 3c 6a b0 3d 13 ae 9e 3c
       -0.0735869 -0.028781071 0.086140126 0.019370114
000240 0f 50 e6 bd fd bf cc bd 3f f2 1e bd bb 9d 60 bd
       -0.11245739 -0.09997556 -0.038805243 -0.054837923
000250 79 93 26 bd 9a 1c d9 3d f0 b9 0d be 81 e7 63 bd
       -0.040667985 0.106011584 -0.13840461 -0.0556407
000260 99 c8 9c be 10 33 05 bb 0f 41 9b 3a b6 a5 8d bb
       -0.30621794 -0.0020324625 0.001184495 -0.004322733
000270 f6 30 9c ba a7 1b c0 ba 37 b6 24 bb 01 d8 e9 ba
       -0.0011916447 -0.0014656679 -0.0025133023 -0.0017840863
000280 df 13 41 3a 5d 4a 87 38 44 40 15 bd 94 60 01 3e
       0.0007365327 6.451153e-05 -0.03643824 0.12634498
000290 e1 13 7f 3d 42 31 95 bc 8d df 00 bd 59 92 b1 3d
       0.062274817 -0.018211965 -0.031463195 0.08670492
0002a0 9f 1d 98 be 3d 52 a5 3c f3 37 00 bd 14 64 a8 3c
       -0.297101 0.020180816 -0.031303357 0.020555533
0002b0 c4 cf 1b be f2 3d 07 bd 7d b6 86 bd d1 03 95 be
       -0.15215975 -0.03301806 -0.065777756 -0.29104474
0002c0 a6 ec 92 3d 4c 86 88 3c cd 94 2c bd 9c a8 f0 38
       0.07174043 0.0166656 -0.042134095 0.00011475498
0002d0 4d ff d1 bd 59 66 37 3e db 55 2e bc 1d 5f 47 be
       -0.10253773 0.17910136 -0.010640587 -0.19469877
0002e0 84 2a 5d bc eb 52 96 3d bf e5 ff bd 68 2d 95 bc
       -0.013498906 0.07340034 -0.124949925 -0.018210128
0002f0 ae f8 20 be 95 7b 8b bd ed 2d af be 06 f6 17 bc
       -0.15719864 -0.06810681 -0.34214726 -0.009274965
000300 d8 f7 33 be a1 c1 b9 3d 23 b3 3e 3d a3 87 6d bd
       -0.17575014 0.09070135 0.046557557 -0.05799068
000310 2d 01 fc bc f6 44 81 3c ae f5 9d be 9b e7 ad be
       -0.03076228 0.015779953 -0.308515 -0.33965763
000320 65 eb 86 bd 09 55 4b be a9 9e 89 be 64 60 3e 3e
       -0.06587867 -0.19856657 -0.2687886 0.18591458
000330 a3 16 b4 bd 13 27 86 be 4d f2 c8 3d 9d 99 c4 3c
       -0.0879338 -0.26201686 0.0981184 0.02399903
000340 48 25 49 bc d5 1c ca 3c c8 5c ee bd 20 69 2b be
       -0.012276955 0.024671951 -0.1163879 -0.16739321
000350 93 58 f4 bc 1b 46 9c bd 90 44 10 3e 53 ac 98 3c
       -0.029827392 -0.07630559 0.14088655 0.018636858
000360 40 25 46 be 9a 57 94 be 87 75 8f bd 39 a3 7d 3e
       -0.19350147 -0.28973085 -0.070048384 0.24769296
000370 3c 7a a8 bd 6e 30 6a 3d 80 22 de 3b 0b a0 7c be
       -0.08226439 0.057175092 0.006779015 -0.24670427
000380 60 5b 8e 3e ac f4 0b 3e eb b5 21 be fe db 4a 3c
       0.2780409 0.13667554 -0.15792052 0.012381552
000390 cf e3 7d be ea 7f 14 bd 68 02 5d be 01 b4 f9 bd
       -0.24793933 -0.0362548 -0.21582949 -0.12192536
0003a0 6b cb 1c be 9d e0 10 be 65 29 6a be 7d 45 f0 3c
       -0.15311973 -0.14148183 -0.22867353 0.02933001
0003b0 38 1d 5d be f5 c1 9b bc b5 f5 9d 3d 5f 49 93 be
       -0.21593177 -0.019013384 0.077128805 -0.28766915
0003c0 c8 91 0f be dd 57 a7 bc 3b 33 63 be ae 73 ef 3a
       -0.14020455 -0.020427639 -0.22187512 0.0018268728
0003d0 45 34 18 bb 74 80 cf bb fa 34 9c ba ff dd e9 37
       -0.0023224514 -0.0063324515 -0.0011917644 2.787914e-05
0003e0 c4 06 f1 ba ea 14 18 3b 9a df e8 39 82 04 1f 3a
       -0.0018388857 0.0023205825 0.00044417084 0.00060660404
0003f0 2c 1d 47 3e a2 72 b5 3d d8 ed 41 be 3c d0 66 3e
       0.19444722 0.08859755 -0.18938386 0.22540373

conv8.bias f4 [32]
000000 a8 c3 c7 be 6f b4 a1 be 30 cc 1d 3e ae 88 bc be
       -0.3901646 -0.31582972 0.15409923 -0.36823028
000010 98 8f c1 be d2 ae 9f be 56 38 14 bf ba 0c f6 be
       -0.37804866 -0.31188065 -0.5789846 -0.48056585
000020 8e e4 d6 be 13 94 fc be 55 15 18 bf 99 1f 03 bf
       -0.41971248 -0.49331722 -0.5940755 -0.5122009
000030 80 c8 a2 3d 99 ae 02 bf 29 a4 0d 3f 64 81 c3 be
       0.079483986 -0.51047665 0.55328614 -0.38184655
000040 40 40 a0 3d 50 f6 30 3f a9 55 c0 be e0 12 da be
       0.07824755 0.69125843 -0.37565354 -0.42592525
000050 32 41 ec be f3 32 d1 be 5e 2a b0 3f 76 36 aa be
       -0.4614349 -0.40859184 1.376293 -0.33244675
000060 40 a8 28 3f 61 6a 59 3e 65 70 55 3f 57 56 a9 be
       0.6588173 0.21231987 0.83374625 -0.33073685
000070 7e d8 a4 3f c1 80 ec be 7b a6 ac 3f c7 3a 7e 3f
       1.2878568 -0.4619198 1.3488306 0.9930844
