models/gender_predictor.onnx (onnx, 933138 bytes, 28 tensors)

Scale5_bias_3 f4 [24]
0	0xbbfead00	-0.007772088
1	0x3d446348	0.047946244
2	0x3c78bc54	0.01518162
3	0x3cb5b994	0.022183217
4	0xb07cd7c2	-9.1983676e-10
5	0xbd0d468c	-0.034491107
6	0xa5c173ec	-3.3558715e-16
7	0xa3023608	-7.058756e-18
8	0xb549b84a	-7.514651e-07
9	0xadb1eff1	-2.0229126e-11
10	0x3d9ccb0d	0.07655916
11	0x3dce42da	0.10071345
12	0xbe54beaf	-0.20775865
13	0xb5edaa66	-1.7707468e-06
14	0xa0a31fba	-2.763427e-19
15	0x3e2eb376	0.17060646
16	0x3c6306e8	0.013856627
17	0x3e94827c	0.29005802
18	0xbdd17e28	-0.102291405
19	0x3c58b3a8	0.013226427
20	0xbcf0f684	-0.029414423
21	0x3d4a4548	0.049382478
22	0xbd5f0ba0	-0.054454446
23	0xbd236366	-0.039889716

_const__add_bias_ip1_hide_3_bias_5 f4 [128]
0	0xa7c67e05	-5.509267e-15
1	0x1e81d8fd	1.374815e-20
2	0x2f0be521	1.2723379e-10
3	0x30a2a69e	1.1834407e-09
4	0x31c20ba9	5.6474687e-09
5	0x31bea400	5.5483724e-09
6	0xb0c8fcf0	-1.4623804e-09
7	0xb1c2ffa3	-5.6752056e-09
8	0x2f8ba04c	2.539785e-10
9	0x2d1430cd	8.423662e-12
10	0xb32510e5	-3.843242e-08
11	0x000cdbc6	1.180866e-39
12	0xb28e6941	-1.657884e-08
13	0x800cd2a8	-1.177595e-39
14	0xb055cc23	-7.7779044e-10
15	0x24bef3fb	8.2812684e-17
16	0x000cd8ed	1.179844e-39
17	0x1c55913a	7.066349e-22
18	0xb0db4359	-1.5953489e-09
19	0x2be57f30	1.630673e-12
20	0xaeeb3614	-1.0696169e-10
21	0x32082956	7.925641e-09
22	0x8fa69310	-1.642551e-29
23	0x3186378a	3.9062273e-09
24	0x93378d14	-2.3167404e-27
25	0xb1ea565b	-6.820114e-09
26	0xa5dea7e7	-3.8624636e-16
27	0xb0b48317	-1.3133982e-09
28	0xb16e22f2	-3.4653422e-09
29	0x30b1f041	1.2946729e-09
30	0xb0868af5	-9.789277e-10
31	0x800cdd8a	-1.181499e-39
32	0x000cdd7f	1.181484e-39
33	0x32c95e99	2.3442498e-08
34	0x301e8fdb	5.7684496e-10
35	0x800cbed3	-1.170481e-39
36	0xb01e0c73	-5.7497757e-10
37	0x308bcb75	1.0171407e-09
38	0xb1342955	-2.6216942e-09
39	0x007ce5d2	1.1470046e-38
40	0x932c8d90	-2.1779248e-27
41	0xb09ad865	-1.1266478e-09
42	0x800cc9cd	-1.174418e-39
43	0x30a998cf	1.2339799e-09
44	0xb10bf171	-2.0364406e-09
45	0x20820118	2.202358e-19
46	0x3009a0dc	5.0068905e-10
47	0x310f8c01	2.0888822e-09
48	0x2e736aca	5.534665e-11
49	0x81a102ce	-5.9146084e-38
50	0x328cc7a5	1.6388933e-08
51	0xafbefdb0	-3.4741054e-10
52	0x32a5ac49	1.9286874e-08
53	0x0e5cbfef	2.7209506e-30
54	0x09d101a4	5.0316463e-33
55	0xb1c7d0fd	-5.8154215e-09
56	0x000cdce4	1.181267e-39
57	0xb1068e8a	-1.958059e-09
58	0x319fac21	4.647078e-09
59	0x96c48fe1	-3.1756308e-25
60	0x800cde45	-1.181761e-39
61	0x000cd5f5	1.178779e-39
62	0xb21a6a07	-8.988088e-09
63	0x08b0d83a	1.0643449e-33
64	0x321a12e1	8.968272e-09
65	0x30877c9c	9.857959e-10
66	0xb32985b5	-3.9469985e-08
67	0x32928490	1.705692e-08
68	0x2f6b8e2c	2.1423635e-10
69	0x317f842f	3.7182522e-09
70	0xafd5df7c	-3.890327e-10
71	0x072b98a5	1.2909468e-34
72	0x2e33dff9	4.0898816e-11
73	0xb1f7a901	-7.2078596e-09
74	0xb03f8e20	-6.9687367e-10
75	0x327a94d4	1.4585755e-08
76	0x2f5350d7	1.9219058e-10
77	0x2f7e009b	2.310138e-10
78	0x800cdd3a	-1.181387e-39
79	0x000cc0cd	1.17119e-39
80	0xb0306d32	-6.4183603e-10
81	0x2fdff4e2	4.0737463e-10
82	0xaeeb6f5b	-1.07063435e-10
83	0xb201cb0e	-7.5549575e-09
84	0x31550998	3.1001033e-09
85	0xb11b5eea	-2.260942e-09
86	0xab0c1cfa	-4.9778205e-13
87	0x000a4c6d	9.45771e-40
88	0x000cdff2	1.182362e-39
89	0x328615ff	1.5609656e-08
90	0x86926bc0	-5.507742e-35
91	0x9f82ab76	-5.53408e-20
92	0xac77d300	-3.521794e-12
93	0xaf7c9ae0	-2.2974289e-10
94	0x319fa136	4.6458366e-09
95	0xb1241e96	-2.3882527e-09
96	0xb02515b1	-6.0057476e-10
97	0x31546d0a	3.0912042e-09
98	0xb284d636	-1.5464234e-08
99	0x25250699	1.4313704e-16
100	0x312b1267	2.4894236e-09
101	0x02aee6a6	2.5699388e-37
102	0x000cce9e	1.176146e-39
103	0x32268ade	9.6940465e-09
104	0x06354287	3.4091193e-35
105	0xb1a34b42	-4.75248e-09
106	0xa046d0c1	-1.6840323e-19
107	0x2f08dbbc	1.2447193e-10
108	0x30f87cc8	1.807984e-09
109	0x3202259a	7.5755455e-09
110	0x3009d59e	5.014388e-10
111	0x31fb4219	7.312576e-09
112	0x800d6e98	-1.233535e-39
113	0x09878a00	3.2629842e-33
114	0xaf9932f8	-2.7866753e-10
115	0x30df1a5e	1.623288e-09
116	0xb25ad583	-1.2737817e-08
117	0x30dea1fb	1.6198664e-09
118	0x0626c7b3	3.1367846e-35
119	0xb14a812b	-2.9468292e-09
120	0x31dd00e8	6.4320496e-09
121	0x3119cde5	2.2381468e-09
122	0x3211de0f	8.490601e-09
123	0x800cddc5	-1.181582e-39
124	0x8636b99d	-3.4366763e-35
125	0xae1a9c6e	-3.5154483e-11
126	0xb1aa85e7	-4.962874e-09
127	0x800cdc69	-1.181094e-39

Scale6_weights_10 f4 [40, 24, 3, 3]
0	0x3eae58f0	0.3405223
1	0xbcd9f00f	-0.026603727
2	0xbc0c7acc	-0.008574199
3	0xbd642cc7	-0.055706766
4	0xbc3e720b	-0.01162387
5	0x3d324a0a	0.04352764
6	0xbdfb4d15	-0.122705616
7	0xbc8cff27	-0.01721151
8	0xbc258536	-0.010102561
9	0xbcdc584f	-0.026897578
10	0xbe433fa4	-0.19067246
11	0xbe16456c	-0.1467492
12	0x3c0e8f7a	0.0087012
13	0x3dc44987	0.09584337
14	0xbd8eaceb	-0.06966575
15	0x3dc62227	0.09674483
16	0x3e92e5cf	0.28690955
17	0x3cd7f9e3	0.026364272
18	0x3ce9a5d9	0.028521465
19	0xbdf44dde	-0.119289145
20	0xbd51087a	-0.051033475
21	0xbe34e726	-0.17666301
22	0xbe088919	-0.13333549
23	0x3bcac6c9	0.006188248
24	0x3ccab850	0.02474609
25	0x3c97c32b	0.01852568
26	0x3d52ca49	0.051462445
27	0xbc50e3c7	-0.012749619
28	0xbd91e16c	-0.07123074
29	0xbd662914	-0.05619152
30	0xbd91d7af	-0.071212165
31	0x3ca1afc3	0.01973713
32	0xbe1396f6	-0.14413056
33	0x3db90140	0.090334415
34	0x3d6cfdb9	0.057859156
35	0x3cceb8a1	0.025234522
36	0xb0210866	-5.8583394e-10
37	0xafb6d09e	-3.3253839e-10
38	0x2fd557b8	3.8806802e-10
39	0xaf3281c4	-1.6235108e-10
40	0x2d9b07d6	1.762494e-11
41	0x300dc425	5.157424e-10
42	0xaee80d58	-1.0552509e-10
43	0x2e45a34c	4.493765e-11
44	0xadc7edfe	-2.272937e-11
45	0xbd1980f7	-0.037476506
46	0x3d968339	0.073492475
47	0xbd9e9180	-0.07742596
48	0xbcc6b370	-0.024255484
49	0x3d3d28fa	0.046181656
50	0x3e223870	0.15841842
51	0xbe03c9a5	-0.1286989
52	0xbe865481	-0.26236346
53	0x3d9fde0d	0.07806025
54	0x258a4dc9	2.3991893e-16
55	0xa44da9fd	-4.4596275e-17
56	0xa53c09a9	-1.6309674e-16
57	0x25c2e722	3.3810257e-16
58	0xa503db72	-1.143679e-16
59	0xa53b8e38	-1.626785e-16
60	0x258d9709	2.4561946e-16
61	0xa4fe2560	-1.10218256e-16
62	0xa53df564	-1.6476278e-16
63	0xa23c72d7	-2.5539547e-18
64	0xa208cbba	-1.8539289e-18
65	0xa278b210	-3.3704533e-18
66	0xa042bd4b	-1.6495071e-19
67	0xa1c9b623	-1.3668501e-18
68	0x221eff18	2.1548038e-18
69	0x9ff6321d	-1.0426796e-19
70	0xa2473b9f	-2.7001092e-18
71	0x22aea4ed	4.7337416e-18
72	0x354e73cf	7.6909504e-07
73	0xb463927f	-2.1194317e-07
74	0xb208807d	-7.945457e-09
75	0x34486145	1.8661838e-07
76	0xb4012d37	-1.203051e-07
77	0xb3b299b8	-8.316732e-08
78	0xb41c65a4	-1.4565609e-07
79	0xb44a1487	-1.8820184e-07
80	0xb3c33ec5	-9.091813e-08
81	0x2d562b67	1.2174129e-11
82	0xad231fc3	-9.27253e-12
83	0x2bc3519f	1.3878238e-12
84	0xabe6ff01	-1.6413261e-12
85	0xad38849a	-1.04886325e-11
86	0xad3692d4	-1.0378105e-11
87	0xad155e99	-8.490674e-12
88	0xaca193b3	-4.592293e-12
89	0xad3c8053	-1.07150564e-11
90	0xbdc50332	-0.0961975
91	0x3cb2c85b	0.021824053
92	0xbe49ac49	-0.19694628
93	0xbd0534e5	-0.032521147
94	0xbcce82cb	-0.025208851
95	0xbdc4e6c2	-0.09614326
96	0xbd7b8f62	-0.061416037
97	0x3d75eeef	0.060042318
98	0xbe3eea19	-0.18643989
99	0xbdb0a222	-0.086246744
100	0x3b74b0a3	0.003733673
101	0x3d3ed222	0.046587117
102	0xbdd0433c	-0.10169074
103	0x3d03eea0	0.032209992
104	0x3daa1604	0.083049804
105	0x3e05ce51	0.13066985
106	0x3d9f2673	0.077710055
107	0x3e287937	0.1645249
108	0x3dc8bf40	0.09802103
109	0xbc3f298e	-0.011667622
110	0xbe3146c5	-0.17312153
111	0xbd7a4648	-0.06110218
112	0xbd23a351	-0.039950673
113	0x3e451a11	0.19248225
114	0xbdbff9ae	-0.093737945
115	0xbd66bf95	-0.05633505
116	0xbd7dfdf3	-0.062009763
117	0xb503544e	-4.892398e-07
118	0x35103c3e	5.3731844e-07
119	0xb53d1ce1	-7.045001e-07
120	0xb506a530	-5.015927e-07
121	0x3485ee98	2.494678e-07
122	0x34dbec54	4.096388e-07
123	0xb50d17cd	-5.256123e-07
124	0x34e43b07	4.2511257e-07
125	0x3599340e	1.1414538e-06
126	0x216a39be	7.9358705e-19
127	0x9fbe736e	-8.065909e-20
128	0x2032de27	1.515069e-19
129	0x203763f9	1.5533781e-19
130	0x1e882c1b	1.4417802e-20
131	0x1ec12813	2.0451244e-20
132	0xa086aab4	-2.2813445e-19
133	0x1fa0a413	6.8034074e-20
134	0x1df1686e	6.3900147e-21
135	0xbd4a10a5	-0.04933228
136	0x3d120e5f	0.035658237
137	0x3ceb6a47	0.0287372
138	0xbe153d6a	-0.14574209
139	0xbd9f632a	-0.07782586
140	0xbdb96850	-0.09053099
141	0xbe5841f9	-0.21118917
142	0xbd54fa6a	-0.051996626
143	0x3df52a28	0.11970931
144	0xbb103f24	-0.002201029
145	0x3da3afe8	0.07992536
146	0x3e7526cd	0.23940583
147	0xbd3a3c54	-0.04546769
148	0xbdd12ad2	-0.102132455
149	0x3ca4a12e	0.020096388
150	0xbdf1cd48	-0.118067324
151	0x3bca3518	0.00617088
152	0xbdf634a5	-0.1202176
153	0x3c780ba6	0.015139496
154	0x3dedba5c	0.11607811
155	0x3e213f43	0.15746789
156	0xbd7678b0	-0.06017369
157	0xbc75ef09	-0.015010604
158	0xbdd27da6	-0.10277872
159	0xbe4e9e01	-0.20177461
160	0x3dadc89a	0.08485527
161	0xbe07d743	-0.1326571
162	0xbe0adaea	-0.13560072
163	0xbdf06dcd	-0.11739693
164	0xbe4486c6	-0.19192037
165	0xbcdb6acc	-0.026784323
166	0xbd91c8cf	-0.07118379
167	0xbd97735b	-0.07395049
168	0xbdc8f757	-0.09812801
169	0x3bb49ac8	0.0055116154
170	0xbd07a1fe	-0.033113472
171	0x3e6989a6	0.22806415
172	0xbdfd3995	-0.123644985
173	0x3e2c5e5d	0.16832872
174	0x3d6e7f2d	0.058226753
175	0xbd928261	-0.07153774
176	0x3d4b3219	0.049608324
177	0xbcefcc3d	-0.029272193
178	0xbd4d99fb	-0.050195675
179	0x39ef7dc6	0.0004567934
180	0xbd9f33eb	-0.077735744
181	0x3deaf827	0.114731126
182	0x3aaf2121	0.0013361314
183	0x3d6849a9	0.056710873
184	0xbba8b3aa	-0.0051483708
185	0x3d1636eb	0.036673468
186	0xbe4bd1b3	-0.19904213
187	0xbe17c0a7	-0.14819585
188	0xbd93cc93	-0.07216754
189	0x3da44b90	0.08022225
190	0x3deff2d9	0.117162414
191	0x3e13ca02	0.14432529
192	0x3e5aabe1	0.21354629
193	0xba3c9c6a	-0.00071949384
194	0x3df82ff6	0.12118523
195	0x3e11dabf	0.14243601
196	0xbde487be	-0.11158703
197	0x3e273df3	0.16332226
198	0xbd9605d3	-0.0732533
199	0xbe4ef1f3	-0.20209484
200	0xbd567552	-0.05235798
201	0xbd6fa07d	-0.058502663
202	0xbdc94d20	-0.098291636
203	0xbe2910ee	-0.16510364
204	0xbe24b0ff	-0.16083144
205	0xbe36db98	-0.17857206
206	0xbd82709a	-0.06369133
207	0xbe061972	-0.13095644
208	0xbd6d4d3c	-0.057934985
209	0xbd68ef2b	-0.056868713
210	0x3ce8e8f1	0.028431388
211	0x3db24c05	0.08705906
212	0x3d0ae6ac	0.033911392
213	0xbcd0fe54	-0.025511898
214	0x3e487606	0.19576272
215	0x3b59cd8c	0.0033234088
216	0x8044c832	-6.31663e-39
217	0x8003fee8	-3.6695e-40
218	0x00991bf3	1.4060857e-38
219	0x800b36fd	-1.029917e-39
220	0x80de2425	-2.0400446e-38
221	0x8035cd85	-4.941008e-39
222	0x80893e97	-1.2603916e-38
223	0x000b7aa6	1.054188e-39
224	0x80ea4480	-2.1514079e-38
225	0x8095381b	-1.3703616e-38
226	0x81028725	-2.397419e-38
227	0x811f0fcc	-2.9215021e-38
228	0x80821977	-1.194775e-38
229	0x80cc29b2	-1.8749399e-38
230	0x812a0d57	-3.123364e-38
231	0x00271004	3.58733e-39
232	0x00463c79	6.450178e-39
233	0x80bc985d	-1.7319731e-38
234	0x80671e4d	-9.469926e-39
235	0x80f0f124	-2.2127024e-38
236	0x00186979	2.241888e-39
237	0x809e3bbe	-1.453144e-38
238	0x80645d50	-9.217024e-39
239	0x80209751	-2.993018e-39
240	0x006df037	1.0096242e-38
241	0x806fea76	-1.0277849e-38
242	0x000b92dd	1.062875e-39
243	0x0107cd72	2.4942984e-38
244	0x0029859e	3.813188e-39
245	0x80443c0f	-6.266359e-39
246	0x00a9b54a	1.5585233e-38
247	0x80e00a0b	-2.0574754e-38
248	0x00209d02	2.99506e-39
249	0x00a3ab33	1.50306e-38
250	0x8037c3b1	-5.121153e-39
251	0x80016278	-1.2716e-40
252	0x01099abd	2.5273945e-38
253	0x003e32ac	5.711978e-39
254	0x807528bf	-1.075937e-38
255	0x00849f92	1.2179529e-38

Scale2_bias_11 f4 [16]
0	0xa53120d4	-1.5363425e-16
1	0xaf878c86	-2.4656205e-10
2	0xb1f12407	-7.018119e-09
3	0x3f092d64	0.53584886
4	0x3e96e7cf	0.2947373
5	0xa89e3207	-1.756322e-14
6	0xbe35c1c4	-0.17749697
7	0x9ee37937	-2.4084693e-20
8	0x3f0b8ae2	0.54508793
9	0x3dea1ccc	0.11431274
10	0xbe4d388a	-0.20041099
11	0xa302720b	-7.071464e-18
12	0x3e6b8e1c	0.23003429
13	0xa28a1c9c	-3.7435266e-18
14	0xa0c20dd6	-3.2874034e-19
15	0xa09cb898	-2.6549582e-19

_const_ip2_hide_1_mean_12 f4 [128]
0	0x22ad8477	4.7031997e-18
1	0x29da877c	9.7046476e-14
2	0x2575ebcf	2.1330258e-16
3	0x2a094ca4	1.2194634e-13
4	0x3dfe2e4d	0.12411175
5	0x3de6d723	0.11271503
6	0x3e6ec9d7	0.23319183
7	0x25514f56	1.815474e-16
8	0x2e95c3eb	6.8105376e-11
9	0x27f8851d	6.897815e-15
10	0x3e3b04a8	0.18263495
11	0x26cf3670	1.4378266e-15
12	0x26f17831	1.6755312e-15
13	0x225cbb8d	2.9914848e-18
14	0x2a21f10a	1.43833e-13
15	0x3e01bfd8	0.12670839
16	0x3d99256a	0.07477839
17	0x3e9f122d	0.31068555
18	0x23a038a6	1.7371226e-17
19	0x3eb867c0	0.36016655
20	0x283c329f	1.0447073e-14
21	0x3e134596	0.14382014
22	0x26fd7fff	1.7590095e-15
23	0x236aaa71	1.2721258e-17
24	0x298bd01f	6.208943e-14
25	0x26b55a0f	1.2583808e-15
26	0x1f313a98	3.7529676e-20
27	0x3e708c65	0.23491056
28	0x26268a95	5.7780633e-16
29	0x26b0f899	1.2279836e-15
30	0x3ec3f140	0.38269997
31	0x29799ed5	5.542687e-14
32	0x276f49a3	3.3207831e-15
33	0x3e7ff3b9	0.24995317
34	0x376ddaae	1.4177216e-05
35	0x3e1a5f5d	0.1507544
36	0x3ea3c6c1	0.31987575
37	0x3da979aa	0.08275159
38	0x3eb16e11	0.34654287
39	0x3e3ec66e	0.18630382
40	0x3e49f0b7	0.19720732
41	0x2590c021	2.511021e-16
42	0x2144e28a	6.6707205e-19
43	0x29891ef7	6.089394e-14
44	0x3d071171	0.032975618
45	0x34e4daa9	4.2627406e-07
46	0x3e91143f	0.2833576
47	0x3c23ae51	0.009990291
48	0x25fdfa0e	4.4057948e-16
49	0x3e7f362a	0.24923006
50	0x2b09ec03	4.899971e-13
51	0x3984d454	0.000253352
52	0x3c5c1f18	0.013435148
53	0x26a21d1f	1.1248901e-15
54	0x3e91c357	0.28469345
55	0x2a8c9611	2.4973125e-13
56	0x26d7583e	1.494254e-15
57	0x3ea78519	0.32718733
58	0x3e9ecbd9	0.31014898
59	0x3dd1055b	0.102060996
60	0x3ca5fccb	0.020262143
61	0x3ce79719	0.028270291
62	0x3e0081b8	0.12549484
63	0x250f2e68	1.2418996e-16
64	0x3e045f3c	0.12926954
65	0x29b3fb9e	7.9928455e-14
66	0x3e8a0916	0.26960057
67	0x240274fe	2.8288353e-17
68	0x3ddf1e16	0.1089441
69	0x3e86254f	0.2620034
70	0x2678fcd2	8.638492e-16
71	0x3e816b6d	0.25277272
72	0x25126c9a	1.2700277e-16
73	0x3dfe82e4	0.12427309
74	0x26677cd4	8.03134e-16
75	0x3e91e315	0.28493562
76	0x23242f6b	8.900499e-18
77	0x3e0df113	0.13861494
78	0x2888a3e3	1.5170108e-14
79	0x33d3d9f4	9.8650986e-08
80	0x3e1650d5	0.14679272
81	0x3af52e8d	0.001870589
82	0x26a0c58f	1.1155779e-15
83	0x25b7cea2	3.188546e-16
84	0x2a00944d	1.1420136e-13
85	0x3d6062a1	0.05478156
86	0x3e863407	0.2621157
87	0x31268265	2.42303e-09
88	0x2125e01e	5.620079e-19
89	0x23fc4805	2.7352396e-17
90	0x3eb1614e	0.3464455
91	0x3de9bf9e	0.11413501
92	0x3e8c80d8	0.2744205
93	0x3dbe86b0	0.09303033
94	0x249d42cd	6.820106e-17
95	0x3e918bb1	0.2842689
96	0x2684324d	9.172974e-16
97	0x23419daa	1.0495938e-17
98	0x2651f43d	7.2842446e-16
99	0x2d01e966	7.384626e-12
100	0x399b347c	0.00029603008
101	0x2e98ff56	6.9575165e-11
102	0x3e1343c4	0.1438132
103	0x2603fb85	4.579063e-16
104	0x3ee5be9b	0.44871983
105	0x3ea4489e	0.32086653
106	0x348fa0fb	2.6752954e-07
107	0x2f577db6	1.9598798e-10
108	0x3e572129	0.21008743
109	0x2aac6f0e	3.0630397e-13
110	0x2637c935	6.3763566e-16
111	0x2954ba86	4.723524e-14
112	0x246a9200	5.086433e-17
113	0x272afffd	2.373101e-15
114	0x23c3af6e	2.121624e-17
115	0x323441de	1.0492355e-08
116	0x25f43879	4.236552e-16
117	0x2bf54348	1.7426971e-12
118	0x29ba1288	8.263274e-14
119	0x3e6b9f1a	0.23009911
120	0x3e8561c6	0.26051158
121	0x313bbb3f	2.7318519e-09
122	0x3ec8a1f5	0.39186063
123	0x264131ca	6.7027803e-16
124	0x28502db7	1.1556232e-14
125	0x26406f4f	6.6764233e-16
126	0x3e98f152	0.29871613
127	0x26b0b1a8	1.2260607e-15

_const_ip2_hide_1_variance_13 f4 [128]
0	0x1d002fec	1.6965434e-21
1	0x25adf5ce	3.017728e-16
2	0x20413f53	1.6368688e-19
3	0xa7702a30	-3.332956e-15
4	0x3db3d154	0.087801605
5	0x3da32713	0.07966437
6	0x3e36a10a	0.17834869
7	0xa31b1416	-8.40682e-18
8	0xac846730	-3.7631218e-12
9	0x233cd4a2	1.0236527e-17
10	0x3e0488ee	0.1294286
11	0xa4be6bc3	-8.258192e-17
12	0xa4dd8c2b	-9.6080926e-17
13	0xa0715171	-2.0440441e-19
14	0x260c1c90	4.8610967e-16
15	0x3db7af10	0.089689374
16	0x3d547f0f	0.051878985
17	0x3e615956	0.22006735
18	0xa07770a9	-2.095899e-19
19	0x3e8c087a	0.27350217
20	0xa5a745a8	-2.9017083e-16
21	0x3dd05dd1	0.10174144
22	0xa49d4350	-6.820193e-17
23	0xa10a55b3	-4.686964e-19
24	0x25482c11	1.7362165e-16
25	0x21c9371b	1.3634876e-18
26	0x9ee7cf91	-2.4543924e-20
27	0x3e380a18	0.179726
28	0xa4032011	-2.8433258e-17
29	0x21c34a76	1.3233424e-18
30	0x3e950d44	0.29111683
31	0xa7774d90	-3.4320183e-15
32	0x2296bc80	4.0857164e-18
33	0x3e35b473	0.17744617
34	0x3566c913	8.597428e-07
35	0x3ddac8b4	0.10682812
36	0x3e79578b	0.24349801
37	0x3d6cce3e	0.057813875
38	0x3e7af779	0.24508466
39	0x3e072338	0.13197029
40	0x3e0f50af	0.13995622
41	0x206b48f2	1.992941e-19
42	0x9f86d956	-5.711076e-20
43	0x254518f9	1.7095487e-16
44	0x3ca5a61b	0.020220807
45	0x338a1a1b	6.430874e-08
46	0x3e5dbeac	0.21654767
47	0x3b63cd81	0.003475994
48	0xa45edfde	-4.83282e-17
49	0x3e35289a	0.1769127
50	0x2715efaa	2.0807826e-15
51	0x38866180	6.407779e-05
52	0x3bbf9ded	0.0058476836
53	0x21aee4b7	1.1851239e-18
54	0x3e5ecf86	0.21758851
55	0xa7f7f9f1	-6.882726e-15
56	0xa4c33d57	-8.467168e-17
57	0x3e7f15a3	0.24910598
58	0x3e60f4dd	0.21968408
59	0x3d93560a	0.07194145
60	0x3c28f5d8	0.01031252
61	0x3c871c41	0.016492965
62	0x3db5e0ac	0.088807434
63	0x1fca9c31	8.5808725e-20
64	0x3dbb32f6	0.091405794
65	0x2589c2b7	2.3897656e-16
66	0x3e43d98a	0.19125953
67	0x1e8e8572	1.5090027e-20
68	0x3d9d9b9d	0.076956965
69	0x3e3ec4eb	0.18629806
70	0x21693068	7.9007536e-19
71	0x3e37da67	0.17954408
72	0xa2bcbd6d	-5.1158064e-18
73	0x3db3fdc4	0.08788636
74	0xa41f2b2a	-3.451419e-17
75	0x3e5f01c6	0.2177802
76	0xa154012d	-7.182995e-19
77	0x3dc8fcf6	0.098138735
78	0x240573ce	2.8937868e-17
79	0xb3473fe6	-4.6391413e-08
80	0x3dd4d775	0.10392658
81	0x39fd49d2	0.0004831092
82	0x21ad184a	1.1729365e-18
83	0xa40aa895	-3.0066774e-17
84	0xa76907cf	-3.2339479e-15
85	0x3d17b8d7	0.03704151
86	0x3e3ed9fc	0.18637842
87	0x2ef092d4	1.0940018e-10
88	0x9f073762	-2.8633174e-20
89	0x1e861fce	1.4200956e-20
90	0x3e872582	0.26395804
91	0x3da55995	0.08073727
92	0x3e56a68c	0.2096197
93	0x3d85b7dc	0.06529209
94	0x1f4d1d7c	4.3434827e-20
95	0x3e4dfa4a	0.20115009
96	0xa45dd8af	-4.8105274e-17
97	0xa0cc57d0	-3.4617054e-19
98	0xa3fdff05	-2.753832e-17
99	0x299f2bc8	7.068613e-14
100	0x389e7156	7.5551376e-05
101	0x2bad723a	1.2324094e-12
102	0x3dd05b4e	0.10173665
103	0xa45d6302	-4.80056e-17
104	0x3ea1ad4e	0.31577533
105	0x3e7a300f	0.24432395
106	0x331bc7f8	3.627062e-08
107	0xacc50ddc	-5.6006155e-12
108	0x3e25ca6a	0.16190496
109	0x26a8fceb	1.1725895e-15
110	0xa3f6bc6d	-2.6751175e-17
111	0x250feec3	1.2484168e-16
112	0xa1f7a187	-1.6780127e-18
113	0xa4e39ef1	-9.8714814e-17
114	0x1e436191	1.034339e-20
115	0x30374cac	6.668397e-10
116	0xa44f0817	-4.4892822e-17
117	0x2847bd29	1.1087737e-14
118	0xa788d903	-3.7982867e-15
119	0x3e27a276	0.16370568
120	0x3e4c06d0	0.19924474
121	0x2f0cf9ca	1.2821669e-10
122	0x3e988702	0.29790503
123	0xa3d066b5	-2.2594903e-17
124	0xa580162e	-2.221949e-16
125	0xa3d0a751	-2.2622266e-17
126	0x3e691d9a	0.22765198
127	0xa483a878	-5.709759e-17

Scale6_bias_18 f4 [40]
0	0x3d49b2b0	0.049242675
1	0x9ef7ed16	-2.6250199e-20
2	0xa305abfc	-7.2463636e-18
3	0xbd935ae2	-0.07195069
4	0xab6ef329	-8.489204e-13
5	0x9f2e1551	-3.6863566e-20
6	0x9fa2cff4	-6.89537e-20
7	0xbd8ef38a	-0.06980045
8	0x3d07e172	0.033173986
9	0xa8ee8786	-2.6482082e-14
10	0x3d6d353a	0.05791209
11	0xbd8ab0a2	-0.06771971
12	0x3cc702a3	0.02429325
13	0xaa065f74	-1.1934708e-13
14	0xa8a298da	-1.8051902e-14
15	0xaf257db9	-1.5051328e-10
16	0x3c928be3	0.017888969
17	0xa88d8adc	-1.5714365e-14
18	0xb1429baa	-2.83192e-09
19	0xaa97309d	-2.685672e-13
20	0xb4c89a10	-3.7364998e-07
21	0xa3a3400b	-1.7699619e-17
22	0xa71e1c13	-2.1942124e-15
23	0xa6f31323	-1.6866699e-15
24	0xb1efd0fc	-6.9795743e-09
25	0xa428f051	-3.663275e-17
26	0xb09d3748	-1.1438965e-09
27	0x3e0384ea	0.12843671
28	0x9fde07f8	-9.403384e-20
29	0xbcb39040	-0.02191937
30	0xbd7a8f4e	-0.061171822
31	0xbd8fb4c4	-0.070169
32	0xad530d0e	-1.199686e-11
33	0xb605946c	-1.9904937e-06
34	0xa3a5eb72	-1.798905e-17
35	0xbe2b2aaa	-0.16715494
36	0xa13e6982	-6.451414e-19
37	0xaed3bb97	-9.628492e-11
38	0x3d89c924	0.06727818
39	0xb5f5931d	-1.8296738e-06

_const__ip_ip2_hide_3_rhs_21 f4 [128, 128]
0	0x800c0dee	-1.107023e-39
1	0x800c0dad	-1.106932e-39
2	0x0008ca09	8.0716e-40
3	0x802b19d3	-3.95819e-39
4	0x80917c43	-1.3360724e-38
5	0x802c7535	-4.082808e-39
6	0x001a9e13	2.444429e-39
7	0x8105fd30	-2.4609895e-38
8	0x8074471d	-1.0678428e-38
9	0x003f6213	5.820819e-39
10	0x8116d09c	-2.770032e-38
11	0x000c0d45	1.106786e-39
12	0x813aaf30	-3.4288495e-38
13	0x00000027	5.5e-44
14	0x002fe606	4.398785e-39
15	0x8000007a	-1.71e-43
16	0x000c0d25	1.106741e-39
17	0x000c0d8a	1.106883e-39
18	0x8035f9d8	-4.956908e-39
19	0x000c0b58	1.106095e-39
20	0x80092c91	-8.42507e-40
21	0x008dc0eb	1.3018011e-38
22	0x800c0d24	-1.10674e-39
23	0x803d0c1f	-5.606313e-39
24	0x000c0cf5	1.106674e-39
25	0x81d90795	-7.972409e-38
26	0x000c0d5d	1.10682e-39
27	0x0020ff9d	3.030433e-39
28	0x0031ece0	4.584914e-39
29	0x0009cd85	9.00246e-40
30	0x8011571d	-1.592454e-39
31	0x000c0d95	1.106898e-39
32	0x800c0d91	-1.106893e-39
33	0x813909e0	-3.3986219e-38
34	0x0003cbef	3.48664e-40
35	0x00000078	1.68e-43
36	0x0004c516	4.38043e-40
37	0x001091f3	1.521725e-39
38	0x8021dad1	-3.109068e-39
39	0x800c0d3c	-1.106774e-39
40	0x800c0d0f	-1.10671e-39
41	0x000d4aa9	1.220644e-39
42	0x800c0d10	-1.106712e-39
43	0x001919bd	2.30512e-39
44	0x0114baec	2.7317417e-38
45	0x000c0dce	1.106978e-39
46	0x800f5daa	-1.411133e-39
47	0x0020eeed	3.024446e-39
48	0x8110139c	-2.6462692e-38
49	0x000c0cf1	1.106668e-39
50	0x80c9af7a	-1.8521884e-38
51	0x80bb69ca	-1.7211188e-38
52	0x00c829d4	1.8382104e-38
53	0x800c0d15	-1.106719e-39
54	0x800c0d2d	-1.106753e-39
55	0x80c96ef0	-1.8498732e-38
56	0x800c0dd6	-1.10699e-39
57	0x001b3e15	2.501829e-39
58	0x00475f75	6.554564e-39
59	0x800c0d61	-1.106825e-39
60	0x000c0d46	1.106788e-39
61	0x80093c17	-8.48076e-40
62	0x818bdb11	-5.137488e-38
63	0x000c0d14	1.106718e-39
64	0x00a125c6	1.4799065e-38
65	0x003de17c	5.682854e-39
66	0x814b9426	-3.7391503e-38
67	0x811bd3ee	-2.8621056e-38
68	0x80032ecf	-2.92298e-40
69	0x8018b7f5	-2.270043e-39
70	0x800ae988	-1.00213e-39
71	0x800c0e0e	-1.107068e-39
72	0x000bc78a	1.081772e-39
73	0x80806273	-1.179026e-38
74	0x003e50ab	5.722739e-39
75	0x81414d92	-3.5504155e-38
76	0x0006d72c	6.28202e-40
77	0x01084f64	2.5036215e-38
78	0x000c0d0f	1.10671e-39
79	0x000c0d56	1.10681e-39
80	0x00180407	2.205497e-39
81	0x000f0357	1.37873e-39
82	0x803ad19e	-5.401655e-39
83	0x8053ed69	-7.707513e-39
84	0x005c4ef5	8.47719e-39
85	0x0021cb8b	3.103589e-39
86	0x800c09c9	-1.105536e-39
87	0x000c0dcf	1.10698e-39
88	0x000607f4	5.53866e-40
89	0x00adbe27	1.5955755e-38
90	0x800c0d29	-1.106747e-39
91	0x000c0d73	1.10685e-39
92	0x00fec7c0	2.3397873e-38
93	0x8005aac6	-5.2044e-40
94	0x802be39f	-4.030581e-39
95	0x8053e5ba	-7.704757e-39
96	0x8016eba5	-2.104914e-39
97	0x00219022	3.082276e-39
98	0x8101a1b8	-2.3809586e-38
99	0x000c0d8c	1.106886e-39
100	0x8086ba65	-1.2372822e-38
101	0x800c0dee	-1.107023e-39
102	0x000c0d33	1.106761e-39
103	0x0090cab8	1.3297033e-38
104	0x800c0d6a	-1.106838e-39
105	0x808fd2f2	-1.3208149e-38
106	0x000c0d43	1.106783e-39
107	0x803442ca	-4.799405e-39
108	0x80835a4d	-1.2062844e-38
109	0x813c0296	-3.4532002e-38
110	0x80486212	-6.647337e-39
111	0x806816eb	-9.559113e-39
112	0x000c0d89	1.106881e-39
113	0x800c0d89	-1.106881e-39
114	0x801d0897	-2.666311e-39
115	0x0110888c	2.654659e-38
116	0x806b2681	-9.84021e-39
117	0x00271152	3.587798e-39
118	0x000c0d31	1.106758e-39
119	0x80249997	-3.361176e-39
120	0x006ae398	9.816208e-39
121	0x804355f4	-6.183812e-39
122	0x0074a018	1.0710348e-38
123	0x000c0d00	1.10669e-39
124	0x800c0d52	-1.106804e-39
125	0x000bc4d5	1.0808e-39
126	0x805dc468	-8.611158e-39
127	0x800c0d91	-1.106893e-39
128	0x800c0b93	-1.106178e-39
129	0x000c0d62	1.106827e-39
130	0x8d9cb943	-9.658842e-31
131	0x8fbca794	-1.860278e-29
132	0x9081a243	-5.113153e-29
133	0x8fc16af5	-1.9072468e-29
134	0x0f82fc8c	1.2916267e-29
135	0x90ea0d0e	-9.231684e-29
136	0x905df979	-4.3776752e-29
137	0x0ffa652f	2.4690878e-29
138	0x9105e238	-1.0561559e-28
139	0x000c0dc8	1.10697e-39
140	0x91279afe	-1.3221738e-28
141	0x80033807	-2.95605e-40
142	0x0fcd49c9	2.0242982e-29
143	0x000c0da3	1.106918e-39
144	0x800c0dd2	-1.106984e-39
145	0x000c0d9c	1.106908e-39
146	0x8fe297a3	-2.2343729e-29
147	0x800c10cc	-1.108052e-39
148	0x0d8a13c9	8.50967e-31
149	0x107361b0	4.7998556e-29
150	0x000c0d17	1.106722e-39
151	0x8ffb4a24	-2.4779069e-29
152	0x000c0dde	1.107e-39
153	0x91bfebac	-3.027973e-28
154	0x800c10ad	-1.108008e-39
155	0x0f993d9a	1.5110693e-29
156	0x0fd45a2f	2.0939551e-29
157	0x0f128777	7.224445e-30
158	0x8f33743b	-8.8477666e-30
159	0x000c0d6d	1.106842e-39
160	0x800c0d14	-1.106718e-39
161	0x91263650	-1.3111827e-28
162	0x0ed2b0fc	5.1939427e-30
163	0x000c0d52	1.106804e-39
164	0x0edff68e	5.5211168e-30
165	0x0f40a3f9	9.497911e-30
166	0x8f9c6a69	-1.5423775e-29
167	0x800c0d5e	-1.106821e-39
168	0x800c0da1	-1.106915e-39
169	0x0f175ca5	7.4627175e-30
170	0x000c0d13	1.106716e-39
171	0x0f7ae69f	1.2370368e-29
172	0x11067b50	1.0608735e-28
173	0x800c0d10	-1.106712e-39
174	0x8f25d8d6	-8.176889e-30
175	0x0f9910b9	1.5093406e-29
176	0x9102318a	-1.0270457e-28
177	0x80093c17	-8.48076e-40
178	0x90a749cc	-6.598359e-29
179	0x90a19db3	-6.3746277e-29
180	0x10b7b506	7.2459684e-29
181	0x800c0d04	-1.106695e-39
182	0x80093b32	-8.47755e-40
183	0x90a70ca9	-6.588939e-29
184	0x000c0d23	1.106739e-39
185	0x0f645a66	1.1258678e-29
186	0x100b14cc	2.7428938e-29
187	0x80033525	-2.94571e-40
188	0x000c0dae	1.106933e-39
189	0x800c0db1	-1.106938e-39
190	0x9178edfd	-1.9637086e-28
191	0x000c0d01	1.106691e-39
192	0x10957cc7	5.896239e-29
193	0x0ff520a2	2.4171435e-29
194	0x913668ed	-1.4389601e-28
195	0x910c83d8	-1.108468e-28
196	0x0e65abed	2.8309209e-30
197	0x8f663297	-1.1349619e-29
198	0x8f1a165b	-7.597092e-30
199	0x000c0dcb	1.106974e-39
200	0x8c0cdec6	-1.0852246e-31
201	0x90731199	-4.7936857e-29
202	0x0fe46d24	2.2524575e-29
203	0x912d70f4	-1.36821e-28
204	0x8e00719d	-1.583192e-30
205	0x10f72c12	9.749222e-29
206	0x800c0d10	-1.106712e-39
207	0x000c0d11	1.106713e-39
208	0x0f611f2d	1.1099361e-29
209	0x0f23303c	8.04581e-30
210	0x8ff37dbc	-2.4010081e-29
211	0x9025a0a3	-3.2664262e-29
212	0x101d5038	3.102459e-29
213	0x0f9bfeee	1.5382375e-29
214	0x000c0f41	1.107498e-39
215	0x800c0db0	-1.106936e-39
216	0x80060251	-5.51844e-40
217	0x1093563a	5.811413e-29
218	0x000c0d62	1.106827e-39
219	0x00060713	5.53551e-40
220	0x10e79e51	9.135736e-29
221	0x0e212d7b	1.986668e-30
222	0x8fbf6a0c	-1.8874902e-29
223	0x9009850c	-2.7120982e-29
224	0x8f6bec00	-1.16318465e-29
225	0x0f9b3e50	1.5308182e-29
226	0x90e271b9	-8.93165e-29
227	0x800c0cfb	-1.106682e-39
228	0x90674578	-4.5610234e-29
229	0x800c0d43	-1.106783e-39
230	0x000c0d5b	1.106817e-39
231	0x1078d0db	4.9070273e-29
232	0x800c0d66	-1.106832e-39
233	0x907bd595	-4.966556e-29
234	0x800c0d8a	-1.106883e-39
235	0x8fdca4a8	-2.1757098e-29
236	0x9073b1dc	-4.8060318e-29
237	0x9128c83b	-1.3314564e-28
238	0x9011711f	-2.8683353e-29
239	0x90489e3d	-3.9564948e-29
240	0x800c0da3	-1.106918e-39
241	0x000c0cf9	1.10668e-39
242	0x8f8b9801	-1.3765008e-29
243	0x1102c607	1.0316214e-28
244	0x904e141b	-4.0641825e-29
245	0x0fae52cd	1.7189618e-29
246	0x000c0d00	1.10669e-39
247	0x8fa60382	-1.6370215e-29
248	0x10368eed	3.6003277e-29
249	0x9008aa92	-2.6952673e-29
250	0x1050eb87	4.120221e-29
251	0x000c0d3a	1.106771e-39
252	0x800c0de6	-1.107012e-39
253	0x8c10e489	-1.1162129e-31
254	0x9036c9ee	-3.6048732e-29
255	0x800c0d65	-1.106831e-39

Scale3_weights_24 f4 [16, 16, 3, 3]
0	0x8fc7e158	-1.9709714e-29
1	0x8fac6918	-1.700099e-29
2	0x8ecd0d2e	-5.0549093e-30
3	0x900adfe1	-2.738817e-29
4	0x90085e37	-2.689385e-29
5	0x8fd6aeb3	-2.1169321e-29
6	0x8fc462c2	-1.9365132e-29
7	0x8f629ea8	-1.1173216e-29
8	0x0e8a1590	3.404039e-30
9	0x14436395	9.864623e-27
10	0x11ca35bf	3.1903104e-28
11	0x94a7710b	-1.6907278e-26
12	0x14e8b913	2.3499012e-26
13	0x1484c92b	1.340794e-26
14	0x138765dc	3.4179232e-27
15	0x14fb8eb1	2.5400805e-26
16	0x14e85621	2.3459985e-26
17	0x141c89ee	7.903189e-27
18	0x9339acf2	-2.3435551e-27
19	0x92f10dbc	-1.5212624e-27
20	0x945b0d43	-1.105929e-26
21	0x147a57b3	1.263907e-26
22	0x14ec15ef	2.3838562e-26
23	0x15368b81	3.6864656e-26
24	0x93abaceb	-4.333698e-27
25	0x940ace19	-7.007865e-27
26	0x146d07e5	1.1966999e-26
27	0x944e34bb	-1.04107414e-26
28	0x94d23779	-2.1226461e-26
29	0x94eb2166	-2.374211e-26
30	0x14b52b91	1.8293513e-26
31	0x14bd291d	1.910034e-26
32	0x1498d972	1.5433845e-26
33	0x93cf5d3f	-5.2346094e-27
34	0x945c4940	-1.11216076e-26
35	0x940c260d	-7.075698e-27
36	0x14c0b68f	1.9459052e-26
37	0x94a29c6f	-1.6419522e-26
38	0x94bdb443	-1.9155224e-26
39	0x13fc982c	6.3763796e-27
40	0x957d9ce8	-5.121672e-26
41	0x958231d5	-5.25852e-26
42	0x15cf447d	8.371469e-26
43	0x14fb1bc1	2.535547e-26
44	0x93234b70	-2.0610686e-27
45	0x1223a613	5.1638433e-28
46	0x133038d4	2.2242342e-27
47	0x12afa063	1.1083591e-27
48	0x126d7bed	7.4936764e-28
49	0x12f04faa	1.5165768e-27
50	0x137af646	3.1675858e-27
51	0x93cedf44	-5.2221868e-27
52	0x938cbf97	-3.552989e-27
53	0x92ea30ce	-1.4779507e-27
54	0x14afdfbd	1.7758733e-26
55	0x14650974	1.156341e-26
56	0x145349c9	1.0667329e-26
57	0x1448aebb	1.0131879e-26
58	0x14c8a0e9	2.0258307e-26
59	0x153ab5bb	3.770576e-26
60	0x937c9059	-3.187804e-27
61	0x949d8fe4	-1.5909704e-26
62	0x92be1384	-1.1995497e-27
63	0x076ab721	1.765802e-34
64	0x88b8076e	-1.1075844e-33
65	0x894262e2	-2.3398395e-33
66	0x07fd594e	3.8119698e-34
67	0x89514f45	-2.5194732e-33
68	0x89b2d58a	-4.3052752e-33
69	0x0974a50d	2.9448038e-33
70	0x081c8ceb	4.711019e-34
71	0x87b20a1a	-2.67884e-34
72	0x12d13f1e	1.3205314e-27
73	0x9355e9fe	-2.6999747e-27
74	0x14506d1c	1.05228344e-26
75	0x94b1d590	-1.7956668e-26
76	0x9500113b	-2.5862987e-26
77	0x9534bb43	-3.6498434e-26
78	0x14388466	9.315737e-27
79	0x13b79c69	4.6349927e-27
80	0x13e00839	5.6553658e-27
81	0x948c0445	-1.4138071e-26
82	0x13ce5a2e	5.2090635e-27
83	0x14ad5c83	1.7505025e-26
84	0x94831217	-1.3234755e-26
85	0x139ea6ed	4.004941e-27
86	0x148fff53	1.4540018e-26
87	0x94f702be	-2.4941708e-26
88	0x948e2147	-1.4351461e-26
89	0x939b302b	-3.9175e-27
90	0x94b9bd26	-1.8754832e-26
91	0x94893ea6	-1.3858175e-26
92	0x948a4646	-1.3962157e-26
93	0x948b6992	-1.4077053e-26
94	0x93af69d3	-4.428056e-27
95	0x14577923	1.0878616e-26
96	0x93efe98d	-6.056238e-27
97	0x135a21f5	2.753221e-27
98	0x148fca27	1.4519045e-26
99	0x8cedd863	-3.6645865e-31
100	0x8d11af62	-4.4892684e-31
101	0x8cd13651	-3.223424e-31
102	0x8d35bd8a	-5.600308e-31
103	0x8d578076	-6.640662e-31
104	0x8d019980	-3.9935963e-31
105	0x8d93a1d3	-9.098532e-31
106	0x8da1b658	-9.966289e-31
107	0x8d8986bb	-8.475712e-31
108	0x94b6c707	-1.8455806e-26
109	0x1382d701	3.3028624e-27
110	0x155c90cd	4.4542874e-26
111	0x95a9e650	-6.8621925e-26
112	0x9596457c	-6.0694145e-26
113	0x9368ce1e	-2.938414e-27
114	0x94f49117	-2.4694932e-26
115	0x95143c72	-2.9936045e-26
116	0x12cbbbd0	1.28574e-27
117	0x8b80cf5d	-4.961581e-32
118	0x0ad5394d	2.0532708e-32
119	0x0cd92bc3	3.3460482e-31
120	0x0beb78a4	9.070023e-32
121	0x0b7fb7e3	4.9249555e-32
122	0x0c8b93f5	2.150539e-31
123	0x8981e2fb	-3.126907e-33
124	0x8c06cc16	-1.0384399e-31
125	0x8b6f9b3c	-4.614651e-32
126	0x89f2abca	-5.842093e-33
127	0x8a806f64	-1.2367852e-32
128	0x8b0b55ae	-2.6834884e-32
129	0x0b1fdcb7	3.0788334e-32
130	0x0b238eb0	3.1500004e-32
131	0x0a4e62af	9.9370995e-33
132	0x0ad52a81	2.0527142e-32
133	0x0b0cc146	2.7108422e-32
134	0x0a7e10a5	1.2232786e-32
135	0x0859ee40	6.5581124e-34
136	0x09f23c01	5.831581e-33
137	0x0a1aef9d	7.4598965e-33
138	0x0a3dfe73	9.1478756e-33
139	0x0a9d70f8	1.5161044e-32
140	0x0add3c39	2.1304179e-32
141	0x0a209668	7.732008e-33
142	0x0ac998a9	1.941302e-32
143	0x0b0ed7be	2.7510512e-32
144	0x23dfe93b	2.4276485e-17
145	0xa3574e59	-1.1671764e-17
146	0x22659cd1	3.1118305e-18
147	0x24190657	3.3181957e-17
148	0x24486518	4.3453717e-17
149	0x2418f12a	3.316402e-17
150	0x240821a0	2.951878e-17
151	0x23db90b3	2.380531e-17
152	0x22bbfa9c	5.0951795e-18
153	0xaee2e172	-1.0317337e-10
154	0x2bfa635d	1.7791147e-12
155	0x2f284849	1.5305192e-10
156	0x2d4ea6b1	1.1746757e-11
157	0x2c2589f0	2.352448e-12
158	0x2ecc9850	9.303902e-11
159	0x2ee9d1f6	1.063291e-10
160	0x2e96a14f	6.8498644e-11
161	0x2edebe8b	1.01292384e-10
162	0x30e351ec	1.6539707e-09
163	0x316f93c6	3.4863077e-09
164	0xaf34100b	-1.6376604e-10
165	0x31bf8120	5.5735114e-09
166	0x31fc0a7c	7.335357e-09
167	0x3206a6d7	7.8377616e-09
168	0xb17aa13f	-3.6471446e-09
169	0x309cb309	1.1401379e-09
170	0x3190c246	4.213038e-09
171	0x3d81c0ee	0.063356265
172	0xbd6349be	-0.055490248
173	0xbe779d09	-0.24180998
174	0x3e414a06	0.18875894
175	0x3e653460	0.2238326
176	0xbe029895	-0.12753518
177	0xbd246d2e	-0.040143184
178	0x3edd7be5	0.43258587
179	0x3cdf2461	0.027239027
180	0xbef0856c	-0.46976793
181	0x3e87dd88	0.26536202
182	0x3e13888f	0.14407562
183	0xbe2e4a84	-0.17020613
184	0xbcf88c89	-0.03034045
185	0x3dce5756	0.10075252
186	0x3e0fc961	0.14041664
187	0xbec19bbf	-0.37814137
188	0x3e9644c5	0.29349342
189	0x285dc59f	1.2310817e-14
190	0x287ee597	1.4149617e-14
191	0x26c62be1	1.3750903e-15
192	0x27cf722c	5.7577827e-15
193	0x282a7c2f	9.463824e-15
194	0x28193595	8.504825e-15
195	0x2742c772	2.7031028e-15
196	0x2808c0df	7.591339e-15
197	0x2822cd06	9.037264e-15
198	0x3b5cc3c6	0.0033686026
199	0xbc185f44	-0.009300057
200	0xbea83474	-0.3285252
201	0x3db3183d	0.087448575
202	0x3e0c0b75	0.13676246
203	0xbe7d5fda	-0.24743596
204	0x3d3b95c0	0.04579711
205	0x3e844f9b	0.25841984
206	0xbccf38e0	-0.025295675
207	0x1ec53b9f	2.0882845e-20
208	0x1e99015c	1.6200067e-20
209	0x1c44ce77	6.511781e-22
210	0x1e164536	7.955246e-21
211	0x1dffd9e4	6.772323e-21
212	0x1db4f91c	4.7903176e-21
213	0x9e8f39ed	-1.5164671e-20
214	0x9e5321f4	-1.1177268e-20
215	0x9d25fc77	-2.196809e-21
216	0xbd9da0d2	-0.0769669
217	0xbe485dc6	-0.19567022
218	0x3e17150a	0.1475412
219	0x3dbec870	0.09315574
220	0xbe9fd233	-0.31215057
221	0x3b527259	0.0032111614
222	0x3e174539	0.147725
223	0xbe22528d	-0.15851803
224	0xbe971a58	-0.29512286
225	0x3cb38e76	0.021918517
226	0x3d99de0d	0.07513056
227	0xbd1f2d69	-0.038861666
228	0x3d5c1fc3	0.053741228
229	0xbe077afc	-0.13230509
230	0xbe744ee6	-0.23858222
231	0x3e4dfb99	0.20115508
232	0xbd85bfcd	-0.06530724
233	0xbe82503c	-0.2545184
234	0xbd5074d2	-0.05089266
235	0x3c9135c0	0.017725825
236	0xbc1d9873	-0.009618866
237	0x3c2181df	0.009857624
238	0x3d87bf77	0.06628316
239	0x378c9f0c	1.6763363e-05
240	0xbc5010d8	-0.012699328
241	0xbda54bf8	-0.080711305
242	0xbd96d2e2	-0.073644415
243	0x22fd8d8d	6.872566e-18
244	0x22dcb6bc	5.9824597e-18
245	0x222f1d30	2.3732374e-18
246	0x22d4af1b	5.7648115e-18
247	0x22eb27c5	6.3738985e-18
248	0x222453a3	2.2270421e-18
249	0x22b8ae28	5.0057695e-18
250	0x22baa171	5.0586334e-18
251	0x22766fe2	3.3398447e-18
252	0x3ddd95a5	0.10819558
253	0xbd7658f5	-0.06014343
254	0xbbf3d815	-0.0074415305
255	0xbc3923a5	-0.011300002

Scale2_weights_27 f4 [16, 8, 3, 3]
0	0x8ba78c36	-6.4537026e-32
1	0x0a2488eb	7.922064e-33
2	0x0c18c984	1.1770295e-31
3	0x8b1b54f5	-2.991583e-32
4	0x8af03f34	-2.3134934e-32
5	0x0bc077bd	7.413587e-32
6	0x0b9803b4	5.855384e-32
7	0x0b8b1897	5.357785e-32
8	0x0ba2bd0c	6.2684576e-32
9	0x86a9ace1	-6.382476e-35
10	0x8715ac7d	-1.1260204e-34
11	0x8698bbb1	-5.7451833e-35
12	0x048a14da	3.2462793e-36
13	0x864cf3fc	-3.8547387e-35
14	0x85cf675d	-1.9504156e-35
15	0x06889552	5.137692e-35
16	0x06c993bb	7.5824867e-35
17	0x07069305	1.0124245e-34
18	0x099fd341	3.847652e-33
19	0x0b3b4686	3.6067946e-32
20	0x0be9077c	8.9759597e-32
21	0x0b1bc918	3.00032e-32
22	0x0b508022	4.015574e-32
23	0x0bdd0cfc	8.514564e-32
24	0x0bdab494	8.424225e-32
25	0x0beee8d5	9.202459e-32
26	0x0c0971d2	1.0588348e-31
27	0x05e4a574	2.1501795e-35
28	0x0782f051	1.9701471e-34
29	0x077a5123	1.8831754e-34
30	0x06b1a654	6.68244e-35
31	0x0787595e	2.0365068e-34
32	0x07ac95bb	2.5967687e-34
33	0x879eb5c6	-2.3880035e-34
34	0x8791a351	-2.1913164e-34
35	0x86f29508	-9.1249264e-35
36	0x8c0da8d7	-1.0913053e-31
37	0x8c372a2e	-1.41105e-31
38	0x0bd0310e	8.0192495e-32
39	0x0bd3f13a	8.16372e-32
40	0x0a9ec735	1.528978e-32
41	0x0b886778	5.2540977e-32
42	0x0c8bfdae	2.156902e-31
43	0x0cb7d20a	2.8322027e-31
44	0x0c7a8954	1.9300625e-31
45	0x8ca0fca0	-2.4803946e-31
46	0x8ce203aa	-3.4823019e-31
47	0x8cf4416b	-3.7633525e-31
48	0x8ccef78d	-3.1888315e-31
49	0x8cf51412	-3.7760306e-31
50	0x8d127174	-4.512629e-31
51	0x8cadbbf9	-2.6768002e-31
52	0x8c9250f5	-2.2543586e-31
53	0x8cacdb75	-2.6632877e-31
54	0x8ab23b9a	-1.7163196e-32
55	0x8b3195b9	-3.42016e-32
56	0x8c5af3dd	-1.6867494e-31
57	0x8be60fe1	-8.861667e-32
58	0x8bd3da02	-8.1602265e-32
59	0x8bebda4c	-9.0847164e-32
60	0x8c75d0c5	-1.8936938e-31
61	0x8c96cc16	-2.323399e-31
62	0x8c7d5bab	-1.9517996e-31
63	0x8b92468b	-5.6343296e-32
64	0x8b3ae913	-3.5997643e-32
65	0x88161e09	-4.517429e-34
66	0x8b554da5	-4.108072e-32
67	0x8b2acc08	-3.2894305e-32
68	0x094b4855	2.4469247e-33
69	0x0a089e5a	6.5779444e-33
70	0x0ae2dc69	2.1845917e-32
71	0x0b3da06c	3.6520764e-32
72	0x2209adff	1.8659075e-18
73	0x21e7f4ed	1.5718e-18
74	0x21d5993c	1.4474002e-18
75	0x21483f0c	6.784608e-19
76	0x210034e7	4.34381e-19
77	0x216674b6	7.8081497e-19
78	0x217a72ac	8.485506e-19
79	0x20cfd966	3.5211026e-19
80	0x211fc1d9	5.412785e-19
81	0x11a1f343	2.5551243e-28
82	0x1187acc7	2.1405727e-28
83	0x1160b31b	1.7725675e-28
84	0x8f71a7e4	-1.1914552e-29
85	0x0dd8089b	1.3314099e-30
86	0x116114c1	1.7755766e-28
87	0x11b25f52	2.8142194e-28
88	0x1160ad4e	1.7723888e-28
89	0x11181f26	1.2000284e-28
90	0x1799dfed	9.94392e-25
91	0x17b0d146	1.1426561e-24
92	0x17a871e6	1.0885498e-24
93	0x9745e6d5	-6.3945484e-25
94	0x16e2b0e1	3.6623896e-25
95	0x18012366	1.669073e-24
96	0x97d29ae7	-1.3610035e-24
97	0x97f9ef83	-1.6151709e-24
98	0x97b8620e	-1.1915474e-24
99	0x913a3fd8	-1.4692486e-28
100	0x910c4ca9	-1.1067675e-28
101	0x0f8eb2f5	1.4071213e-29
102	0x9164b03e	-1.8040337e-28
103	0x9170ab2e	-1.898541e-28
104	0x91811856	-2.036761e-28
105	0x9156e28c	-1.6951434e-28
106	0x9190b719	-2.2832037e-28
107	0x912af0cf	-1.348484e-28
108	0x22193e44	2.076833e-18
109	0x223a28c0	2.5229273e-18
110	0x222e3126	2.3607416e-18
111	0x2163b6b6	7.715241e-19
112	0x21a4a2ca	1.1156162e-18
113	0x21f22dc1	1.6410669e-18
114	0x2218bcc4	2.0699773e-18
115	0x2235dc01	2.4646543e-18
116	0x222642dd	2.2532592e-18
117	0xa195ed19	-1.0159392e-18
118	0xa138077c	-6.235153e-19
119	0xa1c83b5e	-1.3568242e-18
120	0x208a6477	2.3444591e-19
121	0x21210709	5.4558233e-19
122	0xa0f7de29	-4.199044e-19
123	0xa0d8af79	-3.6707941e-19
124	0x1ee4e8a3	2.4236655e-20
125	0xa17b3dad	-8.5123735e-19
126	0xa1ebe664	-1.5985203e-18
127	0xa1d939e0	-1.4719811e-18
128	0xa1deeae3	-1.5105479e-18
129	0xa1ca588c	-1.3711491e-18
130	0xa1c38268	-1.3248232e-18
131	0xa1da9534	-1.4811748e-18
132	0xa264398a	-3.0930223e-18
133	0xa26c34ed	-3.2011983e-18
134	0xa25a4cec	-2.9585231e-18
135	0x179458e2	9.586713e-25
136	0x17680753	7.4972487e-25
137	0x1716a02f	4.8669794e-25
138	0x16df9562	3.6121867e-25
139	0x169163c2	2.348897e-25
140	0x16f6a17e	3.984536e-25
141	0x945a6e84	-1.1027983e-26
142	0x96c127c2	-3.1205922e-25
143	0x95fa499c	-1.0109033e-25
144	0xa72747f5	-2.3214914e-15
145	0xa70d31b5	-1.9594627e-15
146	0xa669b48f	-8.1082817e-16
147	0xa7048297	-1.8389473e-15
148	0xa606798c	-4.6655316e-16
149	0xa5b567ae	-3.146875e-16
150	0x26d6352f	1.4863648e-15
151	0x2743c686	2.7169306e-15
152	0x2694fe81	1.0338546e-15
153	0x9510c4d5	-2.923584e-26
154	0x95172577	-3.0523762e-26
155	0x952ea519	-3.526926e-26
156	0x1408e5a6	6.9115355e-27
157	0x130ab631	1.7507876e-27
158	0x944894c0	-1.0126755e-26
159	0x14a1498d	1.6285856e-26
160	0x14c71265	2.010112e-26
161	0x1480f6ac	1.3021992e-26
162	0x9ad6358c	-8.8594835e-23
163	0x9af86554	-1.027341e-22
164	0x9a9c1368	-6.455144e-23
165	0x9a0dbf5a	-2.931269e-23
166	0x9a81bead	-5.36612e-23
167	0x9a8224ad	-5.382599e-23
168	0x1b36b51b	1.5113205e-22
169	0x1b1cc7ca	1.2968573e-22
170	0x1b1311ea	1.2165343e-22
171	0x9416729c	-7.5956674e-27
172	0x13769c86	3.1126737e-27
173	0x9446e4bd	-1.0041556e-26
174	0x94e466ca	-2.306266e-26
175	0x94b4ea88	-1.8267862e-26
176	0x932466aa	-2.0750327e-27
177	0x94f85f71	-2.5079246e-26
178	0x949fd478	-1.6138701e-26
179	0x14136789	7.442022e-27
180	0xa6f1ccbd	-1.6778229e-15
181	0x2550148b	1.8048084e-16
182	0xa62199f0	-5.606672e-16
183	0x2780d2fa	3.575588e-15
184	0x27957140	4.1478594e-15
185	0x26de8e6c	1.5442948e-15
186	0x251b7f3d	1.3487217e-16
187	0x255b4bd3	1.9020912e-16
188	0x26dc4ace	1.5285842e-15
189	0x260c7681	4.873286e-16
190	0x267220ee	8.4005244e-16
191	0xa60cf1e8	-4.89001e-16
192	0xa78fb45e	-3.9886028e-15
193	0xa79125eb	-4.0286695e-15
194	0xa76e5d19	-3.3079603e-15
195	0xa815e92a	-8.321721e-15
196	0xa8177d33	-8.409332e-15
197	0xa808e932	-7.600083e-15
198	0xa5848b23	-2.2992633e-16
199	0x25c9e2f4	3.502173e-16
200	0x25d5f239	3.7113746e-16
201	0xa72a571b	-2.363946e-15
202	0xa7955d4a	-4.145695e-15
203	0xa7516725	-2.9060491e-15
204	0xa700af7a	-1.7858694e-15
205	0xa7694b48	-3.2376056e-15
206	0xa733e02d	-2.4962766e-15
207	0x9aadd020	-7.188737e-23
208	0x9abb5da5	-7.749268e-23
209	0x9a8ec67e	-5.9050505e-23
210	0x99cc89bb	-2.1148735e-23
211	0x99f7cf15	-2.5622841e-23
212	0x9a08f228	-2.8319753e-23
213	0x19e0ca51	2.3242772e-23
214	0x197fc9d6	1.32239515e-23
215	0x18c776b8	5.156017e-24
216	0xbe012b05	-0.12614067
217	0x3d97c00f	0.07409679
218	0xbd07e923	-0.03318132
219	0xbe25d038	-0.1619271
220	0xbbcc28cc	-0.0062304493
221	0x3e5e56ac	0.2171275
222	0xbeb6c627	-0.35698053
223	0xbdbaea1b	-0.09126683
224	0x3e4249df	0.18973492
225	0x20287382	1.4268372e-19
226	0x200b661b	1.1807542e-19
227	0x20029bc4	1.1062967e-19
228	0x1f00d6b3	2.728265e-20
229	0x1efce1be	2.6774903e-20
230	0x1e77ce91	1.3118788e-20
231	0x9e5dc16d	-1.1739642e-20
232	0x9f4a5afa	-4.2850418e-20
233	0x9f83e593	-5.5860457e-20
234	0x25882bf4	2.3622023e-16
235	0xa1674376	-7.835513e-19
236	0xa4eab642	-1.0179008e-16
237	0x24b040ba	7.6437484e-17
238	0xa4e98de8	-1.0128804e-16
239	0xa4e95658	-1.01193914e-16
240	0xa4fa3960	-1.08517414e-16
241	0xa59e9846	-2.7511815e-16
242	0xa588a773	-2.3705707e-16
243	0xa016ade6	-1.2763032e-19
244	0xa07c61e9	-2.1377626e-19
245	0x9fabd135	-7.276742e-20
246	0x9fb88ee3	-7.816342e-20
247	0x9fd9d2ec	-9.2252016e-20
248	0x1e22e903	8.624394e-21
249	0x1ea038b6	1.6964114e-20
250	0x1f61f7b5	4.7850502e-20
251	0x1fd7563f	9.1198724e-20
252	0xbec8cb4f	-0.39217612
253	0xbf3e3eca	-0.7431456
254	0xbcc0d5d6	-0.023539465
255	0xbe1a9587	-0.15096103

_const_ip1_hide_2_mean_30 f4 [128]
0	0xb6a8f8b2	-5.035742e-06
1	0x3221be54	9.414709e-09
2	0x38846f6f	6.3150066e-05
3	0x39347cb1	0.00017212589
4	0x391cdd0e	0.00014959669
5	0xb961e1d9	-0.00021541807
6	0xba9d0058	-0.0011978252
7	0x3a36f080	0.00069785863
8	0x39cf074d	0.00039487556
9	0x3af080c8	0.0018348927
10	0x3ac902ae	0.0015335882
11	0x1d5d948e	2.9325907e-21
12	0x3a9ff03b	0.0012202332
13	0x1d10ea5e	1.9179406e-21
14	0xbb1a0cb7	-0.0023506114
15	0x3556fd43	8.0089757e-07
16	0x9c8a22bf	-9.141056e-22
17	0xb0d9cc45	-1.5846885e-09
18	0x397e7db2	0.00024270153
19	0xb8c839d2	-9.547513e-05
20	0x38f6d949	0.000117706666
21	0x3bb831f2	0.0056211883
22	0xabb2073d	-1.264967e-12
23	0x38f31d63	0.00011592617
24	0x2c19434e	2.177997e-12
25	0x3aea7613	0.0017887972
26	0xb5baf191	-1.3928385e-06
27	0x3a6a2ece	0.0008933366
28	0xba67afd0	-0.0008838149
29	0xba054546	-0.000508387
30	0x38840255	6.294685e-05
31	0x1d2d39bc	2.2926207e-21
32	0x9cb5adab	-1.2022467e-21
33	0x3c34ca80	0.011034608
34	0x38dc44a8	0.00010503206
35	0xa083cb66	-2.232686e-19
36	0xb8820555	-6.199876e-05
37	0x3953cc83	0.00020198715
38	0x3964d0ca	0.00021821554
39	0xa2a80011	-4.553656e-18
40	0xace72711	-6.569752e-12
41	0x3a1be66b	0.0005947116
42	0x20cc3a50	3.4597532e-19
43	0xb958dc65	-0.00020681469
44	0x3beff32a	0.0073226886
45	0xb2ec56a9	-2.7513424e-08
46	0x387ede51	6.0765367e-05
47	0xba8e1ac6	-0.0010841719
48	0xb83c98d0	-4.496501e-05
49	0x2406cbdf	2.9229304e-17
50	0x3a63f121	0.0008695294
51	0xbace8557	-0.0015756291
52	0xbc21169a	-0.009832049
53	0x2a2d7589	1.5406265e-13
54	0x275b0648	3.039576e-15
55	0x3af6966f	0.0018813143
56	0x1bdb49d2	3.6278216e-22
57	0xbaa61e69	-0.0012673858
58	0x3b0c540c	0.00214124
59	0x2e8e9b5c	6.48501e-11
60	0x1d928f27	3.8793894e-21
61	0x2108f81e	4.6406973e-19
62	0xbcac7027	-0.021049572
63	0x28f4fcc7	2.7199066e-14
64	0xbc148168	-0.009064056
65	0xbae8e148	-0.0017767334
66	0xba4e5315	-0.00078706566
67	0xbab87b7d	-0.0014074888
68	0x3955eec5	0.00020402212
69	0xb84ddda2	-4.908222e-05
70	0x39426667	0.0001853943
71	0x27323fbb	2.473701e-15
72	0xb721655c	-9.619947e-06
73	0x39ff6973	0.00048715956
74	0x3b63c501	0.0034754875
75	0x3c60835a	0.013703192
76	0xb88d2082	-6.729459e-05
77	0xbbde48ea	-0.0067835944
78	0x1d96fd79	3.9966754e-21
79	0x2158b05a	7.3417046e-19
80	0xba885bf3	-0.001040338
81	0x3a3369cc	0.0006844073
82	0x3aadca6e	0.0013259181
83	0x39a8442b	0.00032094246
84	0xbb8c29b2	-0.0042774314
85	0xbad072f5	-0.00159034
86	0xb6dc0d0f	-6.558031e-06
87	0x22ce05b4	5.584245e-18
88	0x1bf345e1	4.0246136e-22
89	0xbb77a311	-0.0037786404
90	0x25c79652	3.4622858e-16
91	0xb1b998ce	-5.4015805e-09
92	0x3c6f01b7	0.014587811
93	0xb98a86e8	-0.00026421924
94	0xb87e8267	-6.0679766e-05
95	0xbb81b6ba	-0.0039585503
96	0xb8043f92	-3.1530457e-05
97	0xbaf404d1	-0.0018617158
98	0x3a773afc	0.00094310916
99	0xb554df9c	-7.930155e-07
100	0xbb781eae	-0.0037860083
101	0x2353d90b	1.14842936e-17
102	0x1cc4ada1	1.3015074e-21
103	0x3b8d4d96	0.0043122275
104	0x264b5d34	7.0556087e-16
105	0x3a9888df	0.001163747
106	0x33a54d4b	7.697471e-08
107	0x392723e2	0.00015939728
108	0x39ee61ae	0.00045467674
109	0xba8b6164	-0.0010633883
110	0x3898596c	7.264581e-05
111	0xbb0fefb6	-0.0021962947
112	0xa2850b62	-3.6061774e-18
113	0x26d9d52f	1.5115183e-15
114	0xba97aeb1	-0.0011572448
115	0x3c907fb1	0.017639013
116	0xba50468b	-0.0007945082
117	0x3b2aa5ce	0.0026038769
118	0x262e1d11	6.040777e-16
119	0xb8a46c85	-7.840343e-05
120	0x3ba6fa62	0.005095766
121	0x39c79f01	0.00038074705
122	0x3b5cd186	0.0033694222
123	0x1c36f6c3	6.053768e-22
124	0x251a2cde	1.3372572e-16
125	0x37aa1c9c	2.0278902e-05
126	0xb95ebc17	-0.00021241639
127	0x9b220bc1	-1.3404124e-22

Scale3_bias_34 f4 [16]
0	0xa9ec3e7d	-1.04913453e-13
1	0xbdb00f94	-0.08596721
2	0xae2da11d	-3.9478743e-11
3	0x3d4df338	0.05028078
4	0xbe0e7850	-0.13913083
5	0x3ed510f6	0.41614503
6	0xb9037cb9	-0.00012539596
7	0x3c2e9364	0.010655258
8	0x3e0a95dd	0.13533731
9	0x3dbf0048	0.093262255
10	0x3f0b9311	0.5452128
11	0xbbb48050	-0.00550846
12	0xbdf6f5b5	-0.12058584
13	0xbc5bfc64	-0.013426874
14	0x3e55169d	0.20809408
15	0x3dec87f4	0.115493685

_const__add_bias_ip2_hide_3_bias_36 f4 [128]
0	0x000306b5	2.77913e-40
1	0x85bbfc18	-1.7678e-35
2	0x0002acdb	2.4568e-40
3	0x800c3e0e	-1.124287e-39
4	0xb0edb325	-1.7294935e-09
5	0x30772648	8.991248e-10
6	0xb233c3d9	-1.0463702e-08
7	0x800c3e17	-1.1243e-39
8	0x800c3de3	-1.124227e-39
9	0x005ddbb2	8.619513e-39
10	0x314d6057	2.988619e-09
11	0x800c3de7	-1.124232e-39
12	0x00000048	1.01e-43
13	0x000c3df7	1.124255e-39
14	0x065a0e5f	4.10118e-35
15	0x31091e2d	1.9953277e-09
16	0x2ee5d80a	1.04520906e-10
17	0xb12916bc	-2.460566e-09
18	0x000c3e27	1.124322e-39
19	0x32190321	8.9064836e-09
20	0x000c3dee	1.124242e-39
21	0x3145a066	2.875845e-09
22	0x800c3dfa	-1.124259e-39
23	0x800c3e03	-1.124272e-39
24	0x03affa19	1.0342995e-36
25	0x00069d5c	6.07463e-40
26	0x800c3daf	-1.124154e-39
27	0xb1a02685	-4.660992e-09
28	0x800c3e05	-1.124274e-39
29	0x80000fa9	-5.618e-42
30	0x32aae69c	1.9895474e-08
31	0x000c3dfe	1.124265e-39
32	0x0006de48	6.30752e-40
33	0xb29e2889	-1.8412054e-08
34	0xa2aed270	-4.7385604e-18
35	0x30bf20a7	1.3906359e-09
36	0x32a09185	1.8692626e-08
37	0xaf4de613	-1.872638e-10
38	0x32f46b64	2.8454174e-08
39	0x31393ec8	2.695673e-09
40	0xb0e04f46	-1.6320676e-09
41	0x00031d3f	2.85998e-40
42	0x000c3d88	1.124099e-39
43	0x844bcfed	-2.395801e-36
44	0x2f367d7a	1.6597382e-10
45	0x1d993496	4.0553135e-21
46	0x3244ab97	1.14477166e-08
47	0x2d879b5f	1.5416722e-11
48	0x000c3dc1	1.124179e-39
49	0x3229f380	9.89246e-09
50	0x8857d136	-6.4945135e-34
51	0xa7e1fd51	-6.272469e-15
52	0xaeaf5ec3	-7.974912e-11
53	0x00018e5d	1.42906e-40
54	0x325ee316	1.2973734e-08
55	0x000c3dac	1.12415e-39
56	0x000c3df6	1.124253e-39
57	0xb1e90f6f	-6.782947e-09
58	0xb105d4a1	-1.9474913e-09
59	0x309244c4	1.0642442e-09
60	0xafad7dc7	-3.1557887e-10
61	0x2f3b9b61	1.7062753e-10
62	0xb14b1285	-2.9550915e-09
63	0x800af6d9	-1.006907e-39
64	0xb116a2a9	-2.1920334e-09
65	0x855db31c	-1.0424267e-35
66	0xb2e06ff9	-2.6127951e-08
67	0x0008b7ff	8.0069e-40
68	0x31ab78a4	4.9904703e-09
69	0xb1e536fd	-6.6710286e-09
70	0x000dd9c0	1.271975e-39
71	0x32a330ec	1.8997945e-08
72	0x000c3d74	1.124071e-39
73	0xb175418c	-3.5689451e-09
74	0x000607da	5.5383e-40
75	0xb24d360c	-1.1944859e-08
76	0x800c3e0b	-1.124283e-39
77	0x3131c596	2.5869205e-09
78	0x82d5280a	-3.1320518e-37
79	0x000c3de1	1.124224e-39
80	0xb18aa36a	-4.0349066e-09
81	0xac0043dd	-1.8227566e-12
82	0x00126998	1.690919e-39
83	0x800c3e19	-1.124302e-39
84	0x800c3de7	-1.124232e-39
85	0xb0c69798	-1.4449482e-09
86	0xb2506317	-1.2129724e-08
87	0x94710230	-1.2167822e-26
88	0x000c3dda	1.124214e-39
89	0x800b99a3	-1.065305e-39
90	0x311242d2	2.128378e-09
91	0xb115a0f2	-2.177384e-09
92	0xb270e675	-1.40222385e-08
93	0xb10e52d3	-2.07108e-09
94	0x8002eb3c	-2.68057e-40
95	0x31f8bdd2	7.23933e-09
96	0x800c3d80	-1.124088e-39
97	0x000c3de5	1.12423e-39
98	0x800c3e3a	-1.124349e-39
99	0x8c9a185d	-2.374212e-31
100	0x288b475f	1.5463052e-14
101	0x0ef8d3a1	6.134051e-30
102	0xb11e2577	-2.3013322e-09
103	0x000c3dfb	1.12426e-39
104	0x3267687a	1.3469725e-08
105	0xb27963a1	-1.4516361e-08
106	0x9d8b2304	-3.68292e-21
107	0x800c3e0b	-1.124283e-39
108	0x3248a401	1.1678822e-08
109	0x068091a1	4.836223e-35
110	0x80093c5b	-8.48171e-40
111	0x84715cf9	-2.8372105e-36
112	0x800c3def	-1.124244e-39
113	0x800c3dfb	-1.12426e-39
114	0x8008aaf2	-7.96008e-40
115	0x18654904	2.963442e-24
116	0x800c3e09	-1.12428e-39
117	0x09a1ef90	3.8984624e-33
118	0x00093b88	8.47875e-40
119	0x319bc2a3	4.5332214e-09
120	0x3242ad10	1.1331636e-08
121	0x95aa4beb	-6.878223e-26
122	0x329ea768	1.8469748e-08
123	0x80030490	-2.77143e-40
124	0x800c3de6	-1.124231e-39
125	0x800c3dfe	-1.124265e-39
126	0x3227e1fd	9.772063e-09
127	0x000c3dc2	1.12418e-39
