models/mask_detector.onnx (onnx, 933132 bytes, 28 tensors)

_const_ip1_hide_2_variance_0 f4 [128]
0	0x3e0b6bed	0.13615389
1	0x3a713390	0.0009201104
2	0x3cc27c74	0.023740984
3	0x3d25332a	0.040331997
4	0x3a50539c	0.0007947029
5	0x392a6a2d	0.00016252017
6	0x3a905c55	0.0011013845
7	0x397f709b	0.00024360644
8	0x3df9f29a	0.12204476
9	0x3e2a0f8c	0.16607493
10	0x369c490a	4.657665e-06
11	0x3d1ac486	0.037785076
12	0x3aad489f	0.0013220495
13	0x3d2fb032	0.042892642
14	0x3d10079e	0.035163514
15	0x3db23e31	0.08703268
16	0x3d2cc926	0.042184018
17	0x3a9d7a1f	0.0012014544
18	0x3b67f4b7	0.0035393664
19	0x3dd52c69	0.10408861
20	0x399f79a1	0.00030417464
21	0x3c973cf0	0.018461674
22	0x3a40ee4c	0.0007359728
23	0x3ab6cd7e	0.001394674
24	0x39d8d394	0.00041356368
25	0x3af91058	0.0019002063
26	0x3a9bbc61	0.0011881703
27	0x39a1e4fe	0.00030878925
28	0x3e5d02da	0.21583119
29	0x3efd4cd4	0.49472678
30	0x3d80b9f3	0.06285467
31	0x3ad2956d	0.0016066261
32	0x3a0bb8d6	0.0005329972
33	0x3aa0586b	0.0012233382
34	0x3c1e123c	0.009647902
35	0x3aff0061	0.0019455069
36	0x3d593117	0.05302533
37	0x37a0df46	1.9177456e-05
38	0x3a32bc98	0.0006818264
39	0x3e725cb2	0.23668173
40	0x3d6aa442	0.057285555
41	0x3b7c838a	0.0038530552
42	0x3bd19f52	0.0063971663
43	0x3950b83e	0.00019905061
44	0x3abd5806	0.0014445789
45	0x3a3b858f	0.00071533857
46	0x3c24d10b	0.010059605
47	0x3c1631a4	0.009167109
48	0x3952c208	0.00020099443
49	0x3700636e	7.652545e-06
50	0x3afeb427	0.0019432352
51	0x3897f16c	7.2452094e-05
52	0x3d6f1591	0.058370177
53	0x3e921ae9	0.28536156
54	0x3a306e32	0.00067302876
55	0x3e71a855	0.2359937
56	0x3a237bde	0.0006236414
57	0x3e190c9c	0.14946216
58	0x3b1129fb	0.0022150266
59	0x3d9cc5ca	0.07654913
60	0x3afa52e8	0.0019098194
61	0x3c7bd782	0.015371205
62	0x38e3529e	0.00010839592
63	0x3a1dc990	0.000601911
64	0x3a98dfbb	0.0011663357
65	0x3cad0a8b	0.021123191
66	0x3a4765ca	0.00076064153
67	0x3a2e2382	0.00066428643
68	0x375ab79a	1.3036561e-05
69	0x3b1b4aa2	0.0023695608
70	0x3b90b340	0.0044158995
71	0x3c9c3d7a	0.019072283
72	0x382ea5c6	4.163922e-05
73	0x3af95ca2	0.0019024799
74	0x38d2baca	0.000100483725
75	0x3a7d4ed3	0.000966293
76	0x3a4dc48a	0.0007849416
77	0x3e9cb4a6	0.30606574
78	0x3beb5f40	0.0071829855
79	0x3a128480	0.0005589202
80	0x370eb382	8.5056545e-06
81	0x3d8fcd03	0.07021525
82	0x3a677996	0.00088300684
83	0x3a4a806c	0.0007724825
84	0x3b122b97	0.0022303814
85	0x3c0d6c4f	0.00863178
86	0x39202f61	0.00015276439
87	0x3a17cf12	0.0005791049
88	0x3e1be23d	0.15223022
89	0x3ac89867	0.0015304209
90	0x3afbfd55	0.0019225279
91	0x380e15e5	3.387583e-05
92	0x3c4570c2	0.012050809
93	0x3e1a2e72	0.1505678
94	0x3b5fc00b	0.0034141566
95	0x38cb1a1a	9.684656e-05
96	0x38c220fa	9.256783e-05
97	0x3e95c674	0.2925297
98	0x3ad641a7	0.001634647
99	0x3804c5cb	3.165546e-05
100	0x370a422e	8.24085e-06
101	0x3dbf942f	0.09354436
102	0x3dc89b85	0.09795288
103	0x3c3b2313	0.011421937
104	0x3de0b36a	0.109717205
105	0x3892577a	6.978116e-05
106	0x3a425a8e	0.00074140064
107	0x3d101a31	0.035181228
108	0x3c830a95	0.015996257
109	0x3b61f791	0.0034479836
110	0x3abb75ab	0.0014302036
111	0x38e9a868	0.00011141674
112	0x3b03fc1c	0.0020139283
113	0x3daa716f	0.08322417
114	0x3d91bc65	0.071160115
115	0x381e2011	3.77e-05
116	0x3a8cbda1	0.0010737666
117	0x36ca4f5c	6.0293078e-06
118	0x3db7345d	0.089455344
119	0x3e7582ca	0.23975673
120	0x3c023e68	0.007949449
121	0x3a97445a	0.0011540756
122	0x3936300a	0.00017374769
123	0x3d7bea6f	0.06150287
124	0x3cf9913c	0.030464761
125	0x3cecc8f7	0.028904421
126	0x3896a358	7.1829825e-05
127	0x3d753eff	0.05987453

_const__add_bias_fc3_8W_PosAug_bias_1 f4 [2]
0	0xbe4e3d73	-0.20140629
1	0x3e4e3d9b	0.20140688

Scale7_weights_2 f4 [80, 40, 3, 3]
0	0xbc3b0675	-0.011415114
1	0xbd052678	-0.03250739
2	0x3c2fae8e	0.010722769
3	0x3d4bd577	0.049764123
4	0xbc1979b2	-0.009367393
5	0x3c45eec6	0.012080854
6	0x3c2fbda7	0.010726369
7	0xbbafebcf	-0.0053686867
8	0x3ae106eb	0.0017168199
9	0xbc370793	-0.011171239
10	0xbc026168	-0.007957794
11	0x3be21a32	0.0069000954
12	0xbbf27f0f	-0.0074004005
13	0xbc85866f	-0.016299454
14	0xbbd33aad	-0.0064462037
15	0xb9cbaf94	-0.00038849993
16	0xbc730e5e	-0.014834968
17	0xbc4dd1d8	-0.012562238
18	0x3bf0a9c1	0.007344455
19	0xbba5fdaf	-0.005065642
20	0xbb9a015a	-0.004699868
21	0xbd02816e	-0.031861715
22	0xbd162c79	-0.036663506
23	0xbce2d06c	-0.027687274
24	0xbb9b75a0	-0.0047442466
25	0x3bfea6e6	0.0077713607
26	0xbb91e9ef	-0.004452936
27	0x3afec9cd	0.0019438803
28	0xbc7f9c34	-0.015601207
29	0x3b621832	0.0034499285
30	0x3b858ace	0.0040753847
31	0xbc82a736	-0.015948873
32	0xba85e0bc	-0.0010214071
33	0x3bc55fd8	0.0060233884
34	0xbb2b7cfe	-0.002616703
35	0x3b39cc10	0.002835039
36	0x3cd2cdea	0.025732953
37	0x3d2952d9	0.041338775
38	0x3d1b45c5	0.037908334
39	0xbc003f53	-0.007827598
40	0x3b9fa94c	0.0048724767
41	0x3c85fac3	0.016354924
42	0xbc256e04	-0.010097031
43	0xbbe1d6dd	-0.006892069
44	0x3abe0af5	0.0014499115
45	0x3bbcdfcf	0.0057639848
46	0x3c63d672	0.013906108
47	0x3b9e8fa9	0.004838903
48	0xbb453e94	-0.0030097114
49	0xbb2536d7	-0.002520969
50	0x3b894013	0.0041885464
51	0x39510779	0.00019934577
52	0xbb88e7a9	-0.0041780067
53	0xba340e13	-0.00068685523
54	0xbc286f18	-0.010280393
55	0xbc918a56	-0.017766159
56	0x3bd34e4d	0.006448543
57	0x3bb0f08e	0.00539977
58	0xbb852b51	-0.0040640016
59	0x3c549ac0	0.012976348
60	0x3ac2e836	0.001487023
61	0x3b9264d6	0.004467587
62	0x3be088e1	0.0068522547
63	0x3c969315	0.018380681
64	0xbcb4f260	-0.02208823
65	0xbce2cf25	-0.027686665
66	0xbc4e7108	-0.012600191
67	0xbc8df5c5	-0.017329106
68	0xbc9d5967	-0.01920767
69	0x39f68f03	0.00047027328
70	0xbc261ffd	-0.010139463
71	0xbc61398a	-0.013746629
72	0x3c919f9d	0.017776305
73	0xbba4a659	-0.005024713
74	0xbb152824	-0.0022759521
75	0xbbba173e	-0.00567904
76	0xbcafca65	-0.021458814
77	0xbc7c70b1	-0.015407727
78	0xbb756454	-0.0037443833
79	0x3c0193ba	0.007908756
80	0x3bb1db33	0.005427742
81	0xbb8c9299	-0.0042899367
82	0xbc45d2a2	-0.012074145
83	0xbc5fca17	-0.013659022
84	0xbc9c3723	-0.01906926
85	0xbc981da3	-0.01856882
86	0xbcfb6898	-0.030689523
87	0x3bde2c12	0.006780156
88	0x3c57771d	0.013150957
89	0x3b1bbe67	0.0023764612
90	0x3cfc853e	0.030825254
91	0x3ca1cd74	0.019751288
92	0x3c8f39d5	0.017483631
93	0x3c214a89	0.009844431
94	0x3c1c5d73	0.009543764
95	0x3c39a71f	0.011331349
96	0xbbf7033f	-0.0075382288
97	0xbc5fe2a2	-0.013664873
98	0xbb034381	-0.002002925
99	0x3b8a3584	0.0042178053
100	0xba269e63	-0.0006355999
101	0x3c6d3721	0.014478476
102	0xbb9de34c	-0.0048183557
103	0xbc8e064c	-0.017336987
104	0xbbb09d26	-0.0053898273
105	0xbc670810	-0.014101043
106	0xbbf69a35	-0.007525707
107	0xbbcf2ebb	-0.0063227094
108	0x3cdbcad1	0.026830109
109	0xbc037023	-0.008022341
110	0xbca67b44	-0.02032245
111	0x3c4b3d12	0.012404697
112	0xbb0f61f7	-0.002187846
113	0xbbb171e7	-0.0054151895
114	0xbc84c9f7	-0.016209586
115	0xbca21ecc	-0.019790076
116	0xbc9768fa	-0.018482674
117	0x3b2285c8	0.0024798978
118	0x3ae2c440	0.0017300919
119	0x3a7373b8	0.0009286958
120	0x3a012dde	0.0004927794
121	0x3a25d35a	0.00063257443
122	0xba1308a0	-0.000560889
123	0xb9a34806	-0.00031143444
124	0xb817b997	-3.617405e-05
125	0xb9ab36b7	-0.00032656427
126	0x3b0e1db0	0.0021685176
127	0xbb238421	-0.002495058
128	0x3c7475fd	0.014920709
129	0xbd46ce55	-0.048536617
130	0xbd4f11bc	-0.050554022
131	0xbce536cb	-0.027980229
132	0xbbd75cab	-0.006572326
133	0xbb94acaf	-0.004537187
134	0xbc1795e0	-0.009252042
135	0xbbb74635	-0.005593086
136	0x3c6102cc	0.013733577
137	0x3ca09bf6	0.019605618
138	0x3bd86de4	0.006604897
139	0x3ccbf16b	0.02489539
140	0x3cb87675	0.022517422
141	0xbcc46f89	-0.023978965
142	0xbc913d69	-0.017729478
143	0xbc6da1f2	-0.014503943
144	0xbcbfed49	-0.023428576
145	0xbcb31d00	-0.021864414
146	0x3b45c93f	0.0030179766
147	0xbc8ed80a	-0.017437
148	0xbc347183	-0.011013391
149	0x3b7306ea	0.0037082979
150	0xbc625868	-0.013815023
151	0xbb2e1ae1	-0.0026566314
152	0x39d848ab	0.00041252872
153	0x3c8e73fc	0.01738929
154	0x3a07254f	0.0005155401
155	0x3aa61dd2	0.0012673682
156	0x3b478cfa	0.0030449019
157	0xb9209013	-0.00015312461
158	0xbc38f881	-0.011289717
159	0xbc14121a	-0.009037519
160	0xbbceebff	-0.006314754
161	0xbc07b034	-0.008281756
162	0xbbffa4f1	-0.007801645
163	0x3c109fc1	0.008827151
164	0x3c9c6f8a	0.019096155
165	0xbb66812f	-0.0035172214
166	0xbbd05229	-0.0063574505
167	0x3c4579ae	0.0120529365
168	0xbbf36c37	-0.0074286717
169	0xbb29ea1a	-0.002592689
170	0x39297f45	0.00016164508
171	0xbc8b01d0	-0.016968638
172	0xbbd73944	-0.006568106
173	0xbbba9875	-0.005694444
174	0x3c3abd93	0.011397737
175	0xbbbd9357	-0.0057853865
176	0xbb17179a	-0.002305484
177	0xbc9c30f7	-0.019066317
178	0xbc4c1dfe	-0.012458323
179	0x3bded19d	0.00679989
180	0xbb87a600	-0.004139662
181	0xbc902f2d	-0.01760062
182	0x3c9742fb	0.018464556
183	0xbd164bda	-0.03669343
184	0xba343a03	-0.00068750995
185	0xbc831a30	-0.016003698
186	0x3b92cdbb	0.0044800914
187	0xbc12569c	-0.008931782
188	0x3c5f6d28	0.013636865
189	0x3b495405	0.0030720246
190	0xbc296294	-0.010338444
191	0xbb01a517	-0.001978224
192	0x3b64552f	0.0034840812
193	0x3d13685b	0.035988193
194	0x3d31ebda	0.043437816
195	0xbc5ffad8	-0.013670646
196	0xbca1ab75	-0.019735077
197	0xbcaeb38b	-0.021325847
198	0xbd02bb2f	-0.031916793
199	0xbccc57cc	-0.024944209
200	0xbcf0afc2	-0.029380683
201	0xbd137bfa	-0.036006905
202	0xbcfcb78d	-0.030849243
203	0xbd373254	-0.04472573
204	0x3b8249e1	0.003976092
205	0xbb7260f2	-0.0036984053
206	0xbc6f2581	-0.014596344
207	0x3b6e6bfd	0.0036380284
208	0xbc124e9d	-0.008929876
209	0xbb8575f2	-0.004072898
210	0x3bfad288	0.007654492
211	0xbc2d0d28	-0.010562219
212	0xbb50e38a	-0.0031873905
213	0xbc2154c8	-0.009846874
214	0xba6c625a	-0.0009017341
215	0x3b67147a	0.0035260008
216	0x3acc2561	0.0015575105
217	0xb9d6cecd	-0.0004097134
218	0xbb33da45	-0.0027443331
219	0xb900a3bb	-0.00012268026
220	0xb90a33d0	-0.00013180007
221	0xba293374	-0.00064545055
222	0x3a1f18a8	0.0006069043
223	0x3a8eeea5	0.0010904862
224	0x3a17637c	0.0005775017
225	0xbd6216bf	-0.055197474
226	0xbd231173	-0.039811563
227	0xbbad675e	-0.0052918633
228	0xbd064369	-0.03277913
229	0xbd19b850	-0.03752929
230	0xba77070b	-0.0009423352
231	0xbc7d776d	-0.015470368
232	0xbc86569e	-0.016398724
233	0x3be79910	0.007067807
234	0x3997f380	0.00028982386
235	0xb8e971cf	-0.00011131504
236	0xba8936de	-0.0010468622
237	0x3a13f686	0.000564434
238	0x3af7bbb2	0.0018900542
239	0x3ab657db	0.0013911681
240	0xba9c98f2	-0.0011947437
241	0xb939f980	-0.00017735921
242	0xba9f8b02	-0.0012172165
243	0xbb289a82	-0.002572686
244	0xbc188d0b	-0.009310971
245	0xbbea2980	-0.0071460605
246	0x3c015db3	0.007895875
247	0xbb4383b1	-0.0029833133
248	0x3b29fbb3	0.0025937378
249	0xba208e56	-0.00061247253
250	0xbabafbb8	-0.0014265692
251	0xbb09c26e	-0.002102043
252	0xbb42ed7e	-0.0029743607
253	0xbc9c3ab7	-0.019070966
254	0xbbfcd0a2	-0.0077153007
255	0x3b26595a	0.0025382848

_const_ip1_hide_1_mean_5 f4 [128]
0	0x3d9a244d	0.07526455
1	0x3c08e60b	0.008355628
2	0x3cfeccf3	0.031103587
3	0x3d2c54d2	0.04207308
4	0x3b853437	0.0040650624
5	0x3b0fb0af	0.002192538
6	0x3c2c8150	0.010528877
7	0x3bce035f	0.006287023
8	0x3d9137ea	0.07090743
9	0x3daaf252	0.08347
10	0x3a8ef87f	0.0010907798
11	0x3d1ec3fd	0.038761128
12	0x3c4b3902	0.012403728
13	0x3cf7c410	0.030244857
14	0x3c9784b0	0.018495888
15	0x3d770555	0.06030782
16	0x3d38fd16	0.045163237
17	0x3c0efe91	0.008727686
18	0x3c41cd05	0.011828666
19	0x3d85eea1	0.065396555
20	0x3ba42ee2	0.0050104717
21	0x3ce29ff6	0.027664166
22	0x3b05b8da	0.002040437
23	0x3cdda51f	0.027056275
24	0x3c9bfdc3	0.019041901
25	0x3c6a80ac	0.014312904
26	0x3bf0eb96	0.007352303
27	0xb5b03f5f	-1.3131465e-06
28	0x3dc33377	0.095313005
29	0x3e134e65	0.14385374
30	0x3d50d9cf	0.05098897
31	0x3bb52974	0.0055286232
32	0x3c4bf64a	0.012448857
33	0x3bbd6615	0.0057799914
34	0x3ca98bec	0.020696603
35	0x3bdd7107	0.0067578587
36	0x3d407364	0.046985045
37	0x3ada0a13	0.0016635082
38	0xba956216	-0.001139703
39	0x3dcbdade	0.09953855
40	0x3d4879f5	0.048944432
41	0x3c824585	0.01590229
42	0x3c86090f	0.016361741
43	0x3c1bcae6	0.009508824
44	0x3bd0cbf5	0.00637197
45	0x3c9ad8b9	0.01890217
46	0x3dca370b	0.0987378
47	0x3cbde8e6	0.023182344
48	0xbb080453	-0.002075453
49	0x3a6ca09b	0.00090266176
50	0x3c017d31	0.007903383
51	0x3b2ed182	0.002667517
52	0x3d461a6c	0.04836504
53	0x3ddea598	0.10871428
54	0x3bba01a6	0.005676466
55	0x3dc60a8a	0.09669979
56	0x3b9a3ae5	0.004706728
57	0x3ede0ff4	0.43371546
58	0x3c130aac	0.008974712
59	0x3d68944b	0.05678205
60	0xbb95afe0	-0.004568085
61	0x3c9b7126	0.018974852
62	0x3b086e3f	0.0020817665
63	0x3b8b5d0f	0.004253037
64	0x3c1822b4	0.009285618
65	0x3cf22c7c	0.029562227
66	0x3b0769ef	0.0020662507
67	0x3b72e126	0.0037060468
68	0x3b726efb	0.003699242
69	0x3c2ad7eb	0.010427455
70	0x3c8fe9a7	0.017567469
71	0x3ced19ca	0.028942961
72	0x3b49122f	0.0030681004
73	0x3bd90147	0.0066224667
74	0x3aefba4a	0.0018289771
75	0x3b1d8253	0.0024033978
76	0x3b24bed0	0.0025138147
77	0x3de61016	0.11233537
78	0x3c8d1fae	0.01722702
79	0x3c0141ef	0.007889255
80	0x3aae5509	0.0013300489
81	0x3d5a6472	0.05331845
82	0x3be6f60c	0.007048374
83	0x3b5b9359	0.0033504574
84	0x3c1dd4ea	0.009633282
85	0x3c9f79aa	0.019467194
86	0xbad6724c	-0.0016360967
87	0x3c693a68	0.014235117
88	0x3da2a248	0.07941109
89	0x3c347a30	0.01101546
90	0x3bafebbe	0.005368679
91	0x3a1e3c6d	0.0006036226
92	0x3cb779a2	0.022396866
93	0x3da29a6a	0.079396084
94	0x3bf99f6c	0.0076178815
95	0x3b3b2890	0.0028558113
96	0x3b108448	0.0022051502
97	0x3de27848	0.11058098
98	0x3c4d8905	0.012544875
99	0x3acdcdad	0.0015701555
100	0x3aa4e97c	0.0012581791
101	0x3d7ffaad	0.062494922
102	0x3d810495	0.06299702
103	0x3cbd5254	0.023110546
104	0x3d894b54	0.06703821
105	0x3afb1a3b	0.0019157598
106	0x3b8f50d2	0.004373648
107	0x3d1e612f	0.0386669
108	0x3cd761d5	0.026291767
109	0x3c5c15f0	0.013432965
110	0x3ce3e9d4	0.027821459
111	0x3b52ba73	0.003215459
112	0x3c1b581e	0.009481458
113	0x3d1b5df4	0.037931398
114	0x3e23189f	0.15927361
115	0xbb3f5923	-0.0029197417
116	0x3c2a67c0	0.0104007125
117	0x3a6eca4f	0.0009109126
118	0x3d79e4ba	0.061009146
119	0x3dcd4779	0.10023398
120	0x3ca5e907	0.020252718
121	0x3b4913f8	0.0030682068
122	0x3b36237a	0.0027792142
123	0x3d4d67fd	0.050148
124	0x3d00e86e	0.031471662
125	0x3cfd60e9	0.03093
126	0x3af47165	0.0018649517
127	0x3d4ee3e2	0.050510295

Scale7_bias_7 f4 [80]
0	0x3d9dff53	0.07714715
1	0xbdcb4f09	-0.09927184
2	0xbccebf04	-0.025237568
3	0x3d206f34	0.03916855
4	0xbe22baae	-0.15891525
5	0x3dbca351	0.09210838
6	0xbdfd4a72	-0.12367715
7	0xbd4be8d4	-0.04978259
8	0xbda2c1aa	-0.07947095
9	0x3d1cfe76	0.03832861
10	0x3d71f51a	0.059071638
11	0x3c0bb780	0.0085276365
12	0x3d87659e	0.06611179
13	0xbd37db0e	-0.04488664
14	0x3de4230b	0.111394964
15	0x3db951aa	0.09048779
16	0xbd8c0c66	-0.06838302
17	0xbcc1f078	-0.023674235
18	0xbc3108c0	-0.010805309
19	0xbc2f6282	-0.010704638
20	0xbcaa73f0	-0.020807236
21	0xbbfa7d56	-0.0076443357
22	0x3da0bccc	0.0784851
23	0xbd0735b8	-0.033010215
24	0x3d8ed56f	0.06974303
25	0xbde6a19e	-0.11261295
26	0xbd85782f	-0.06517064
27	0xbbb20219	-0.005432379
28	0xbdfdb5e5	-0.12388209
29	0x3d714880	0.058907032
30	0x3d8ff70d	0.07029543
31	0xbd2c0dc0	-0.0420053
32	0x3b0d04e0	0.0021517798
33	0x3c1205ff	0.008912562
34	0xbd4a7698	-0.049429506
35	0xbe0810f6	-0.1328772
36	0x3da622a2	0.081120744
37	0xbbe85cf0	-0.007091157
38	0x3d091da2	0.033475526
39	0xbce381c8	-0.027771845
40	0x3d53e3a8	0.05173078
41	0x3c1ba158	0.009498917
42	0x3c385c08	0.011252411
43	0xbd093a2f	-0.033502754
44	0xbdc6c78d	-0.0970603
45	0xbcba8b08	-0.022771373
46	0xbda1faa8	-0.07909137
47	0x3d081faa	0.033233322
48	0x3da0fafd	0.07860372
49	0x3bd347b8	0.0064477585
50	0xbc1a8dae	-0.009433193
51	0xbdd02464	-0.10163191
52	0xbe007e7f	-0.12548254
53	0xbbb9f2e8	-0.0056747086
54	0xbda1c522	-0.07898928
55	0x3d8ebe54	0.06969896
56	0x3c03114c	0.007999729
57	0x3e0197c4	0.1265555
58	0x3d440b9e	0.04786264
59	0x3e03769d	0.12838216
60	0xbcb98370	-0.022645682
61	0xbdbc4530	-0.09192884
62	0x3d4ffff6	0.050781213
63	0xbd798d47	-0.06092575
64	0x3dae9c64	0.08525923
65	0x3d807aec	0.062734455
66	0xbd1ed468	-0.038776785
67	0xbe02363a	-0.12715998
68	0x3e0ee974	0.13956243
69	0xbd1906e6	-0.037360094
70	0xbdfa1b45	-0.122122325
71	0xbc2e8688	-0.010652192
72	0x3dfc22d6	0.12311332
73	0x3d6fd069	0.058548365
74	0xbd48b034	-0.048996165
75	0x3a6e1740	0.0009082444
76	0x3c0ea7a0	0.008706957
77	0xbdb9862d	-0.09058795
78	0x3c813742	0.01577342
79	0x3d915723	0.07096698

Scale2_weights_10 f4 [16, 8, 3, 3]
0	0xbc49aaf1	-0.012308822
1	0xbc3383cd	-0.010956717
2	0xbb9cad7d	-0.0047814236
3	0xb92f1d20	-0.0001670015
4	0xbabacbea	-0.0014251445
5	0x3bd83387	0.0065979394
6	0x3c0fdf23	0.008781227
7	0x3c0ec2fb	0.008713479
8	0x3c905a84	0.017621286
9	0xbcf9c4c5	-0.030489335
10	0xbd0cda79	-0.03438804
11	0xbcdd8a9a	-0.02704363
12	0xbcc97e60	-0.024596393
13	0xbcbf8075	-0.023376683
14	0xbc65c08c	-0.0140229575
15	0xbd36d9d5	-0.044641335
16	0xbd3ba931	-0.04581565
17	0xbcf95972	-0.030438159
18	0x3a04fa98	0.0005072742
19	0x39a50e97	0.00031482123
20	0x39a43d19	0.0003132604
21	0x3a33cf55	0.0006859203
22	0x3a04a638	0.0005060169
23	0x39f7d2c8	0.00047268555
24	0x39010034	0.00012302474
25	0xba0ceffc	-0.00053763366
26	0xb9e8d8f5	-0.00044412134
27	0x3cc32f2a	0.0238262
28	0x3cfed034	0.031105138
29	0x3d0bf84b	0.034172338
30	0x3d06ac77	0.03287932
31	0x3d145fb2	0.036224075
32	0x3cfb7cdb	0.030699184
33	0x3d252e98	0.04032764
34	0x3d3c792e	0.046014003
35	0x3d1fd7f2	0.0390243
36	0x3dd5cc3d	0.10439346
37	0x3dd06987	0.10176378
38	0x3d8ece85	0.06972984
39	0x3d9afd5d	0.075678565
40	0x3d9359bd	0.071948506
41	0x3d26cb23	0.04072107
42	0xbc9f4fbb	-0.019447198
43	0xbcbdf6ca	-0.023188967
44	0xbd35fd94	-0.044431284
45	0xb871817c	-5.757947e-05
46	0xba09265b	-0.00052318507
47	0x38e15071	0.000107438194
48	0x39b4bf45	0.00034474782
49	0x38c00b30	9.157357e-05
50	0xb98889d3	-0.00026042628
51	0x3a1e5a79	0.0006040703
52	0x3837a9da	4.3788787e-05
53	0xb943fc62	-0.00018690669
54	0x3b39289c	0.0028252965
55	0x3b7fc740	0.0039028674
56	0x3b67ecad	0.0035388872
57	0x39f4ebd5	0.00046715015
58	0x39aeba66	0.00033326744
59	0x3aa8398f	0.0012834537
60	0xbb62ca1a	-0.0034605325
61	0xbb6afb6c	-0.0035855426
62	0xbb51db67	-0.0032021643
63	0xbb865617	-0.004099618
64	0xbc3c6d37	-0.011500648
65	0xbca495f8	-0.020091042
66	0xbc1042fe	-0.008805035
67	0xbc9740cc	-0.018463515
68	0xbcbbc73b	-0.022922149
69	0xbc288e37	-0.010287813
70	0xbc919d5b	-0.017775228
71	0xbc995bba	-0.018720496
72	0xb9f5e1f7	-0.00046898398
73	0x3c976d52	0.018484745
74	0x3cb9fdb8	0.02270399
75	0x3d127923	0.035760056
76	0x3d54171f	0.051779862
77	0x3d6a4c11	0.05720145
78	0x3db30163	0.08740499
79	0x3dcd4892	0.10023607
80	0x3dc13ba5	0.094352044
81	0x3d3fc7c2	0.046821363
82	0x3d5bce04	0.05366327
83	0x3d4f0838	0.050544947
84	0xbbbad90f	-0.005702145
85	0x3b8f19e6	0.004367101
86	0x3cbda26b	0.023148736
87	0xbcabea13	-0.020985639
88	0xbd08ffb9	-0.033447
89	0xbd151008	-0.03639224
90	0x396464e2	0.00021781356
91	0xba6ad221	-0.0008957703
92	0xb98e4e6c	-0.0002714278
93	0xb8ddb31c	-0.00010571463
94	0xba2d876e	-0.0006619607
95	0x39d42902	0.00040466344
96	0xb98dd529	-0.00027052432
97	0xb9a973da	-0.00032320508
98	0x3946511e	0.0001891297
99	0x3d624145	0.055238027
100	0x3d6ebaab	0.05828349
101	0x3d960d59	0.073267646
102	0x3d953ae9	0.07286627
103	0x3d534653	0.05158074
104	0x3d13692e	0.03598898
105	0x3d6e4567	0.058171656
106	0x3d036b52	0.03208477
107	0x3bf70ca6	0.0075393496
108	0xbd0c0e76	-0.03419348
109	0xbd19ae14	-0.03751953
110	0xbc4cabb4	-0.012492109
111	0xbd445e87	-0.04794171
112	0xbd69e389	-0.05710176
113	0xbd05cd90	-0.032666743
114	0xbd9a460e	-0.07532893
115	0xbdad103e	-0.084503636
116	0xbd685941	-0.056725744
117	0x3b05907c	0.002038031
118	0x3b34eb63	0.0027606122
119	0x3b38da21	0.0028206187
120	0x3b4a8da9	0.003090719
121	0x3b515547	0.0031941698
122	0x3b4ea096	0.0031528822
123	0x3b9b6150	0.004741825
124	0x3b9ee022	0.004848496
125	0x3b9c278f	0.004765458
126	0xbb0713f3	-0.0020611256
127	0xbb03f9c2	-0.002013788
128	0xbaedf8f8	-0.0018155864
129	0xbba31b36	-0.004977609
130	0xbbec80df	-0.007217511
131	0xbbf051f5	-0.007333989
132	0xbc01e160	-0.007927269
133	0xbc1bd7d5	-0.009511908
134	0xbc21678a	-0.009851346
135	0x3e430309	0.19044127
136	0x3e32a6c1	0.17446424
137	0x3e151fe8	0.14562953
138	0x3e364909	0.17801298
139	0x3e51210b	0.20422761
140	0x3e4c1257	0.19928871
141	0x3dd8cad4	0.105855614
142	0x3dffb0c8	0.1248489
143	0x3e292528	0.1651808
144	0xbc670808	-0.014101036
145	0xbc6a1fb1	-0.014289782
146	0xbc247450	-0.010037497
147	0xbc7e7b9d	-0.015532401
148	0xbc88f0eb	-0.016716441
149	0xbc5957cd	-0.013265562
150	0xbc54b8fb	-0.012983556
151	0xbc6ff8d0	-0.014646724
152	0xbc47c8cb	-0.012193869
153	0x3cc9fd25	0.024656842
154	0x3cd5c7ff	0.026096342
155	0x3cd29d64	0.025709815
156	0x3cd0544e	0.025430825
157	0x3cdced15	0.026968518
158	0x3ce75327	0.028237892
159	0x3c8bc426	0.017061304
160	0x3c929afb	0.017896166
161	0x3c9bdcf4	0.019026257
162	0x394d2a8f	0.00019566178
163	0xb7dbbaff	-2.6193911e-05
164	0xb8c1c313	-9.2392926e-05
165	0x398d034a	0.00026896066
166	0x38bddb8a	9.0531146e-05
167	0x363964f9	2.7625922e-06
168	0x38db7aeb	0.00010465629
169	0x38f5a041	0.0001171236
170	0x38756cae	5.8513768e-05
171	0xbbe929a2	-0.0071155587
172	0xbba6a399	-0.0050854203
173	0xbb646668	-0.0034851078
174	0xbaa52560	-0.001259964
175	0x3a929472	0.0011183156
176	0x3aeef1b7	0.0018229996
177	0x3c0eceaf	0.008716269
178	0x3c658173	0.014007914
179	0x3c5b13dd	0.013371435
180	0x3bcb0f8b	0.006196921
181	0x3bda9712	0.006670841
182	0x39fd4cbd	0.00048313095
183	0x3c81de0c	0.01585295
184	0x3c88311c	0.01662498
185	0x3c1e5037	0.009662679
186	0x3cbffd41	0.02343619
187	0x3cc6f2ae	0.02428564
188	0x3c88b0d2	0.016685877
189	0xb9a6c193	-0.0003180621
190	0xb9fe4aca	-0.00048502377
191	0xb98fa9bb	-0.00027401545
192	0xb8ec18e7	-0.00011257995
193	0xb9d85692	-0.0004126323
194	0xb9073dda	-0.00012897645
195	0x380f180c	3.4116252e-05
196	0xb78006c4	-1.526194e-05
197	0xb9a72a27	-0.00031884128
198	0x37bfb1f8	2.2851847e-05
199	0x39aaddd3	0.000325902
200	0xb94a99b7	-0.00019321484
201	0x39eff742	0.00045769854
202	0x3a772c28	0.0009428882
203	0x39ff69d9	0.00048716253
204	0x3aa946a1	0.0012914726
205	0x3ad2e29c	0.0016089263
206	0x3a866ca1	0.0010255763
207	0xbaf6972d	-0.0018813364
208	0xbafb2fbf	-0.001916401
209	0xbb8f4efc	-0.0043734293
210	0x3a0c7c40	0.0005359091
211	0x3aaacc11	0.0013030787
212	0xba058808	-0.00050938176
213	0x3bc01b21	0.005862609
214	0x3baa2ca6	0.005193311
215	0x3b798703	0.0038074858
216	0x3da355ff	0.07975387
217	0x3d73a105	0.059479732
218	0x3d257e62	0.04040373
219	0xbb066e3d	-0.0020512484
220	0xbd85f57d	-0.06540964
221	0xbd7d2eaa	-0.06181208
222	0xbd00c613	-0.0314389
223	0xbd84d5f8	-0.06486124
224	0xbdae56e4	-0.08512667
225	0x3e3856cf	0.18001865
226	0x3e52b83c	0.20578092
227	0x3e4dbe2d	0.20092078
228	0xbd37c455	-0.04486497
229	0xbdcafbee	-0.09911333
230	0xb9ec13f2	-0.00045028288
231	0xbddc476d	-0.10755811
232	0xbe3b11d6	-0.18268523
233	0xbe17b7e5	-0.14816244
234	0x3a25bc33	0.00063222944
235	0x3a908103	0.0011024777
236	0x38a6da15	7.956118e-05
237	0x3a064a7b	0.0005122793
238	0xb974f5c2	-0.00023361205
239	0x3a10ac87	0.00055188726
240	0xbaa0c6ed	-0.0012266316
241	0xbaab31aa	-0.0013061066
242	0xba820446	-0.0009919486
243	0xbe24ebb8	-0.16105545
244	0xbe34f559	-0.17671718
245	0xbd953ab6	-0.07286589
246	0xbdaa9866	-0.08329849
247	0xbdb953c4	-0.0904918
248	0xbd6b8d13	-0.057507586
249	0x3cb897ee	0.022533383
250	0x3dfd2816	0.123611614
251	0x3dcb492a	0.09926064
252	0xbdba914e	-0.09109746
253	0xbd88ff24	-0.06689289
254	0xbd23ae6d	-0.039961267
255	0x3d784dbe	0.060621016

Scale1_bias_17 f4 [8]
0	0xbfa99172	-1.3247511
1	0x3eead04e	0.4586205
2	0xbaa1b321	-0.001233671
3	0x3fbbe978	1.4680624
4	0x3fc18b65	1.5120665
5	0xbb8ab37e	-0.004232823
6	0xbc407300	-0.011746168
7	0x3f4e0d5a	0.8048912

_const__ip_ip2_hide_3_rhs_23 f4 [128, 128]
0	0x3b5fe10a	0.0034161233
1	0x363d27d2	2.8186373e-06
2	0x3ab3c1ea	0.0013714407
3	0x3b15d087	0.0022859888
4	0x356d83a7	8.848096e-07
5	0xb206d289	-7.847697e-09
6	0x378364b0	1.5663303e-05
7	0x33d8537d	1.007347e-07
8	0x3b5c9aef	0.0033661684
9	0x3b5b6bab	0.0033480923
10	0x33b6784a	8.496916e-08
11	0x3af13535	0.0018402698
12	0x35e3ac47	1.6962957e-06
13	0x388519f5	6.346769e-05
14	0x3889b291	6.56593e-05
15	0x3b2ab258	0.0026046243
16	0x38bd680e	9.031604e-05
17	0x387f7b35	6.0911483e-05
18	0x31394555	2.6960454e-09
19	0x3b39ce87	0.002835186
20	0x30ffa2a0	1.8599913e-09
21	0x3a91a21b	0.0011110933
22	0x2fc0a306	3.5040432e-10
23	0x3a172756	0.00057660544
24	0xb7d9b3a5	-2.595207e-05
25	0x399c635b	0.00029828664
26	0x3744c84f	1.1729148e-05
27	0xb45959f5	-2.0242426e-07
28	0x3b7adac5	0.003827737
29	0x3bd04ee2	0.00635706
30	0x3b16c7dc	0.002300731
31	0x348e0227	2.6451127e-07
32	0x38e80ac6	0.00011064629
33	0x34437bfd	1.8205897e-07
34	0x3940b3b6	0.00018377494
35	0x2d1d7cf3	8.952161e-12
36	0x3b0a7fee	0.002113338
37	0x348ab419	2.583554e-07
38	0x2a1e7ebe	1.4077192e-13
39	0x3b90b2c0	0.00441584
40	0x3b10c87f	0.0022092161
41	0x34f172e0	4.497333e-07
42	0x39cf6d13	0.00039563383
43	0x38debc8f	0.00010620907
44	0xadf0432a	-2.7314668e-11
45	0x38990ad4	7.2976254e-05
46	0x3b0b51c7	0.002125846
47	0xbac78d40	-0.0015224591
48	0xb393f1cc	-6.8892035e-08
49	0xa482436d	-5.6492737e-17
50	0x3571d9e2	9.009656e-07
51	0xb46b0e19	-2.1891209e-07
52	0x3a4b132d	0.0007746693
53	0x3b9f9039	0.0048694876
54	0xb25918c3	-1.2636693e-08
55	0x3b18b1c8	0.0023299325
56	0x31111843	2.1114068e-09
57	0x3c1f48fa	0.009721989
58	0x3252df45	1.2274374e-08
59	0x3b269120	0.002541609
60	0x369ff9b7	4.76764e-06
61	0xb35f1d5d	-5.194794e-08
62	0x36657127	3.4189522e-06
63	0x36606f48	3.3443375e-06
64	0x33c3aa3f	9.111363e-08
65	0x3a52d368	0.0008042366
66	0x2fa211b8	2.9480218e-10
67	0xb591b160	-1.0854965e-06
68	0xb7c6844c	-2.3665045e-05
69	0x36480fc4	2.98115e-06
70	0x3480b2ea	2.3972035e-07
71	0x3ae20cbf	0.001724623
72	0xb7ef688e	-2.8539707e-05
73	0x368718b3	4.026189e-06
74	0x253193e7	1.5402414e-16
75	0x3712df93	8.754333e-06
76	0x2fc70786	3.6203235e-10
77	0x3ba38ce5	0.004991161
78	0x3a2dc497	0.00066287204
79	0xb850d036	-4.9784976e-05
80	0xb3e028ae	-1.04382124e-07
81	0x3b22c1ce	0.0024834755
82	0x378653ba	1.6013033e-05
83	0x35977361	1.1283956e-06
84	0x35abd537	1.2802547e-06
85	0xba65000b	-0.0008735663
86	0xa31bd437	-8.447505e-18
87	0xb98dc3cd	-0.000270395
88	0x3b5be762	0.0033554663
89	0x36c2a9b6	5.8014075e-06
90	0x354cbec5	7.627353e-07
91	0xb2308826	-1.0275505e-08
92	0x3a3367ec	0.00068437937
93	0x3a43a013	0.00074625126
94	0x35826d6d	9.717602e-07
95	0x270a8572	1.9223688e-15
96	0xb64156a7	-2.880968e-06
97	0x3b9c3761	0.004767344
98	0x351372e0	5.492893e-07
99	0xb57309b6	-9.0538686e-07
100	0xb4cd7341	-3.8268084e-07
101	0x3b2afa48	0.002608912
102	0x3b3dae3b	0.002894296
103	0xbaaab2d6	-0.0013023268
104	0x3a67b3cc	0.00088387425
105	0x36544c21	3.1634775e-06
106	0x3613b68f	2.201097e-06
107	0x3b0a06a6	0.0021061092
108	0x3a4f2df5	0.00079032715
109	0xba547539	-0.0008104626
110	0xb99ee178	-0.00030304096
111	0x34018025	1.206068e-07
112	0xb4e20f94	-4.2107115e-07
113	0xb624efad	-2.4577414e-06
114	0xbb2912f4	-0.002579865
115	0x3695aa2b	4.460356e-06
116	0xb865cde9	-5.4789623e-05
117	0xb36bf62b	-5.493909e-08
118	0x3ae5d498	0.0017534671
119	0x3b8cd63c	0.0042979997
120	0xbaa50e59	-0.0012592777
121	0x2fd1d28d	3.8166484e-10
122	0x365d90b6	3.30158e-06
123	0x3b1430a6	0.0022612005
124	0x3a23c369	0.0006247075
125	0x3a0e7967	0.00054349605
126	0x32af4c09	2.0407258e-08
127	0x3b0ae2f6	0.0021192408
128	0x3b66e735	0.0035233025
129	0x369fcb47	4.762234e-06
130	0x3aba83b5	0.0014229926
131	0x3b12af21	0.0022382217
132	0x35cd8ece	1.5315252e-06
133	0xb237752f	-1.0678646e-08
134	0x37bb8663	2.2354716e-05
135	0x34518399	1.9512517e-07
136	0x3b5fb3db	0.0034134302
137	0x3b64cf8a	0.0034913742
138	0x3453c48e	1.9722413e-07
139	0x3af5435d	0.0018712092
140	0x36599769	3.2423652e-06
141	0xb7d7f351	-2.57433e-05
142	0x37c5e3d3	2.3590319e-05
143	0x3b30380b	0.0026888873
144	0x3a34e184	0.00069000595
145	0x38abccae	8.19204e-05
146	0xb3249fd8	-3.8329603e-08
147	0x3b41119d	0.0029459961
148	0x30e5bbc6	1.6715311e-09
149	0x3a9a23c9	0.0011759932
150	0x2d9e7a7f	1.801692e-11
151	0x3a9fac8f	0.0012182164
152	0xba18c1aa	-0.0005827198
153	0x3a1a7f6c	0.0005893621
154	0xb74e38ff	-1.2291827e-05
155	0x3423eed3	1.5267442e-07
156	0x3b834e3c	0.004007129
157	0x3bd52057	0.0065040994
158	0x3b19241d	0.0023367472
159	0x34d99b48	4.0532382e-07
160	0x394bbaed	0.00019429224
161	0x349a0e12	2.8694973e-07
162	0x39de350e	0.00042382668
163	0x2cffd3f8	7.271069e-12
164	0x3b0f3f77	0.0021857896
165	0x34ed4b44	4.4199453e-07
166	0x2b8dba4c	1.007036e-12
167	0x3b943090	0.0045223907
168	0x3b14063f	0.002258673
169	0x35119645	5.423538e-07
170	0x3a04ccda	0.00050659257
171	0x38dd8294	0.00010562423
172	0x2f64595c	2.0768226e-10
173	0x397136db	0.00023003986
174	0x3b93565a	0.004496378
175	0xbaae3c5e	-0.0013293137
176	0xb4da3b1b	-4.064867e-07
177	0xa4b2a609	-7.747647e-17
178	0x35c92fc9	1.4989574e-06
179	0xb6118271	-2.168261e-06
180	0xb9d76948	-0.00041086436
181	0x3ba35cee	0.0049854433
182	0xb1a51d90	-4.805493e-09
183	0x3a800ea8	0.0009769993
184	0x30ba5fad	1.3560474e-09
185	0x3ca55226	0.020180773
186	0x331a1ba2	3.588105e-08
187	0x3b2a29bb	0.0025964815
188	0x364c4f93	3.0444687e-06
189	0x350fe3fb	5.3603407e-07
190	0x3631ef18	2.6514226e-06
191	0x36a6caa5	4.9707764e-06
192	0x34ec856c	4.4055503e-07
193	0x3a788f83	0.0009481834
194	0x2f048687	1.2053124e-10
195	0xb7098f31	-8.199176e-06
196	0xb8bf602b	-9.1255024e-05
197	0x36c2d425	5.8063474e-06
198	0x356127ce	8.3876955e-07
199	0x3aceec25	0.0015786929
200	0xb89d3839	-7.496816e-05
201	0x36847810	3.9478837e-06
202	0x269b7991	1.0788236e-15
203	0x37295ace	1.0094327e-05
204	0x2f096f34	1.2499585e-10
205	0x3ba780d6	0.005111794
206	0x3a4493ba	0.00074988196
207	0xb903051a	-0.00012495034
208	0xb48b12e8	-2.5904524e-07
209	0x3b28e053	0.0025768473
210	0x3807f80d	3.2417523e-05
211	0x35266bb6	6.199656e-07
212	0x36127a44	2.1826863e-06
213	0xba606c16	-0.0008561028
214	0x25a2387f	2.8140804e-16
215	0xb9e3ceee	-0.0004345099
216	0x3b653415	0.003497367
217	0x36d5614a	6.3592206e-06
218	0x35b1ac15	1.323761e-06
219	0x327f9396	1.4876511e-08
220	0x3a4a4a3f	0.0007716752
221	0xbab59fd1	-0.0013856833
222	0x3663412c	3.386357e-06
223	0x27473214	2.7643945e-15
224	0xb725f110	-9.890893e-06
225	0x3ba178a4	0.0049277116
226	0x34a34202	3.0409143e-07
227	0xb706e153	-8.039485e-06
228	0xb60590e4	-1.9902882e-06
229	0x3b327db3	0.0027235567
230	0x3b44b51d	0.0030015178
231	0xba9f4ccf	-0.0012153628
232	0x3ac1e691	0.0014793446
233	0x36c82f28	5.965954e-06
234	0x3681bf2d	3.8667554e-06
235	0x3b058af3	0.002037701
236	0x3a739cb7	0.00092930667
237	0xba3a0129	-0.000709551
238	0xba445568	-0.0007489533
239	0x34146f41	1.3824048e-07
240	0xb43fb28b	-1.7853215e-07
241	0x35cbc9bc	1.5183391e-06
242	0xbbbf8dcf	-0.0058457623
243	0x37115765	8.663022e-06
244	0xb92f15f1	-0.00016697474
245	0xb44eb0f6	-1.9249623e-07
246	0x3b0135e3	0.0019715957
247	0x3b91c264	0.004448222
248	0xba93efb2	-0.0011286645
249	0x2f76bcb7	2.2440615e-10
250	0x36d42712	6.3226407e-06
251	0x3b177183	0.002310843
252	0xb990eb6c	-0.00027641223
253	0xb9945f54	-0.00028299785
254	0xb5622f5f	-8.4260495e-07
255	0x3b10d615	0.002210026

Scale4_bias_30 f4 [24]
0	0x3e92e247	0.2868826
1	0x3e8ac9af	0.27106997
2	0x3eb4cf9a	0.35314637
3	0xbf08c17b	-0.5342023
4	0x3ed1a2a5	0.409444
5	0x3dce230e	0.1006528
6	0x3f182bf8	0.5944209
7	0x3d1d1d68	0.038358122
8	0x3ea7ad28	0.32749295
9	0x3e858c5c	0.26083648
10	0xbec50107	-0.38477346
11	0x3e70d494	0.23518592
12	0x3ea7761b	0.32707295
13	0x3d99a50f	0.075021856
14	0x3eb98f0e	0.36241955
15	0x3ea474b6	0.32120293
16	0x3ee04ba4	0.4380771
17	0xbf029fca	-0.5102507
18	0x3f174866	0.59094846
19	0x3eca71d8	0.3953998
20	0x3df64307	0.12024503
21	0xbea272e2	-0.31728274
22	0xbe5b1485	-0.21394546
23	0x3e8a53aa	0.27016956

_const__add_bias_ip2_hide_3_bias_31 f4 [128]
0	0x30be0b80	1.3827588e-09
1	0xb2cc6a2d	-2.3797009e-08
2	0x337b89f2	5.8565952e-08
3	0x3279c8a8	1.45393315e-08
4	0x8a3b0089	-9.003823e-33
5	0x32532fb4	1.2292663e-08
6	0xb2197d96	-8.934327e-09
7	0xa767b37d	-3.215499e-15
8	0x334e7156	4.806619e-08
9	0x331fadbb	3.717808e-08
10	0x32ec4764	2.750648e-08
11	0x8b31d1f8	-3.4246923e-32
12	0x33383456	4.2888438e-08
13	0xb34f54e1	-4.827314e-08
14	0x332dfab0	4.05077e-08
15	0xb283e02b	-1.5352347e-08
16	0x30db5e1e	1.5961097e-09
17	0x3384477b	6.159731e-08
18	0x080d5c5b	4.2539207e-34
19	0x332da226	4.0427174e-08
20	0xb3739cd4	-5.672048e-08
21	0x332b8536	3.9935195e-08
22	0x0a951bff	1.4358709e-32
23	0xb2015e1a	-7.5301845e-09
24	0x3127d63b	2.4423474e-09
25	0x3285e1cf	1.5585924e-08
26	0x3380fcb3	6.00643e-08
27	0xb22ceb9e	-1.0065291e-08
28	0x32117944	8.467683e-09
29	0x07a323f0	2.4546636e-34
30	0x30821a77	9.466267e-10
31	0x1276188d	7.7654174e-28
32	0x32a88c8b	1.9621686e-08
33	0xb32298b7	-3.7857458e-08
34	0xb251498a	-1.2182122e-08
35	0xb23f0334	-1.11183915e-08
36	0xb1fe83d1	-7.4073587e-09
37	0x331f59f2	3.7101877e-08
38	0x32f8bd8c	2.8957196e-08
39	0xb28d5b71	-1.6456143e-08
40	0xb3828bf0	-6.079051e-08
41	0xb268b326	-1.3544911e-08
42	0x3431661a	1.6521554e-07
43	0x8a8e8fa8	-1.372814e-32
44	0x08912f7c	8.738034e-34
45	0xb2c3e6eb	-2.2805997e-08
46	0x33449745	4.5772385e-08
47	0x31f83e26	7.2248154e-09
48	0x32b6d9e1	2.1286668e-08
49	0xb302819b	-3.038586e-08
50	0xb301ba6f	-3.0204713e-08
51	0xb2c99f4d	-2.3471921e-08
52	0x3377aa1b	5.766388e-08
53	0x32fa24c4	2.912055e-08
54	0xb31df906	-3.6780897e-08
55	0x0b3b3f82	3.6062668e-32
56	0xb27caffd	-1.4708346e-08
57	0xb28905ef	-1.5951597e-08
58	0xb2924733	-1.7029015e-08
59	0x3281d192	1.5112878e-08
60	0xb374ab64	-5.6966556e-08
61	0x328c8979	1.636066e-08
62	0xb40f0714	-1.3320488e-07
63	0x30d8cc7d	1.5774188e-09
64	0x31b465c1	5.2502576e-09
65	0xb24623d5	-1.1533264e-08
66	0x334040ed	4.4762533e-08
67	0xb170fc57	-3.5068035e-09
68	0x08642177	6.865059e-34
69	0xb293f20d	-1.7223124e-08
70	0x07ec7ac4	3.5581488e-34
71	0xb36a844f	-5.4602705e-08
72	0x13021542	1.6418788e-27
73	0x33ad0461	8.056737e-08
74	0x31ab09ad	4.977855e-09
75	0x325980ac	1.2660319e-08
76	0x8a4bcb34	-9.812313e-33
77	0xb3998963	-7.149608e-08
78	0xb21ae13e	-9.015194e-09
79	0xb1f33d79	-7.0792194e-09
80	0xb319da25	-3.582149e-08
81	0x31855f18	3.8816204e-09
82	0xb2a0536c	-1.8664387e-08
83	0x07a26ad0	2.443783e-34
84	0x3279b9af	1.4535927e-08
85	0x32a30007	1.897571e-08
86	0xb2c85db5	-2.3325677e-08
87	0x31991b8f	4.456019e-09
88	0x3333e145	4.1881567e-08
89	0xb22730a9	-9.731743e-09
90	0x3287dadb	1.5815592e-08
91	0xb25f493c	-1.299696e-08
92	0xb2c529c8	-2.2952818e-08
93	0x0adb8193	2.1137673e-32
94	0x32834d7f	1.5285648e-08
95	0x3189b585	4.007861e-09
96	0xb02cf1e3	-6.2916977e-10
97	0xb33da9da	-4.415947e-08
98	0x32b24898	2.0754939e-08
99	0xb12660c9	-2.4211195e-09
100	0xb30bd66a	-3.2558468e-08
101	0xb2a98009	-1.9732413e-08
102	0x0896a700	9.067058e-34
103	0xb08d34ac	-1.027407e-09
104	0x3304993c	3.087301e-08
105	0xb33c358e	-4.382087e-08
106	0x320e6917	8.2893825e-09
107	0x32ea5e74	2.7284138e-08
108	0xb1bf6c4d	-5.571144e-09
109	0x8006e24a	-6.3219e-40
110	0xb3545d75	-4.9445095e-08
111	0x800763f4	-6.78705e-40
112	0xb241bffc	-1.1277731e-08
113	0xb2036ea4	-7.65036e-09
114	0x33049d08	3.0876464e-08
115	0x32c40b1a	2.2822451e-08
116	0x9409f39e	-6.9647774e-27
117	0x3266d1c1	1.34354545e-08
118	0x97102a12	-4.658201e-25
119	0xb1143188	-2.156499e-09
120	0x3302b02b	3.0428208e-08
121	0xb2d730a6	-2.5051417e-08
122	0x070862e8	1.0260569e-34
123	0xb2848aa8	-1.5429876e-08
124	0xb348f2ef	-4.6787076e-08
125	0xb32596ed	-3.8554322e-08
126	0xa61c3251	-5.4191564e-16
127	0x07a2eafd	2.4513165e-34

Scale6_bias_35 f4 [40]
0	0xbdf9efee	-0.12203966
1	0xbd917a24	-0.071033746
2	0xbd31fcd3	-0.043454003
3	0xbe216014	-0.15759307
4	0x3e7af1d7	0.24506317
5	0x3d546fd0	0.051864445
6	0x3ea0a563	0.3137618
7	0x3dba2f72	0.09091081
8	0x3e997d52	0.29978424
9	0xbce12cd8	-0.027487203
10	0x3eb0444a	0.344271
11	0x3e0b7f1e	0.1362271
12	0x3e048c40	0.12944126
13	0xbc620408	-0.013794906
14	0xbd9745d8	-0.073863685
15	0x3e90ba5d	0.28267184
16	0xbe29874e	-0.16555521
17	0xbdaf96c3	-0.085736774
18	0x3e821ec0	0.25414085
19	0x3e1e54f6	0.15462098
20	0x3e86068e	0.26176876
21	0x3ecde324	0.40212357
22	0xbe0c109a	-0.13678208
23	0x3dfb22b9	0.12262482
24	0xbc582232	-0.013191747
25	0xbd9c9882	-0.07646276
26	0xbbc2c3ac	-0.005943736
27	0x3dd34834	0.10316506
28	0x3e132786	0.14370546
29	0x3c8dc829	0.017307358
30	0x3e122b70	0.14274383
31	0x3dd0984b	0.101852976
32	0x3ec59ed1	0.3859773
33	0xbda016da	-0.078168586
34	0xbd3b28d8	-0.04569325
35	0xbeadda0a	-0.33955413
36	0x3ea46c54	0.32113898
37	0x3e4e5cc3	0.20152573
38	0x3aa4e390	0.0012580026
39	0xbeb39626	-0.35075492

Scale6_weights_36 f4 [40, 24, 3, 3]
0	0x3cf40e60	0.02979201
1	0x3b29b9b7	0.0025898048
2	0x3d164bb7	0.0366933
3	0x3d7d7acc	0.061884686
4	0x3c6014c9	0.013676831
5	0x3dc8d616	0.09806459
6	0xbc8adcb2	-0.016950939
7	0xbc0b14dc	-0.00848886
8	0xbd384b31	-0.044993583
9	0xbd463e84	-0.048399463
10	0xbda3553c	-0.079752415
11	0xbe0cda78	-0.13755214
12	0xbcdd618b	-0.027024051
13	0xbd429c5a	-0.04751239
14	0xbdbad66f	-0.09122931
15	0xbe0e248c	-0.13881129
16	0xbdbc9d20	-0.09209657
17	0xbd1c42a5	-0.038149495
18	0x3db78277	0.08960431
19	0x3c091c85	0.008368616
20	0xbda1cdd3	-0.07900586
21	0x3d6d0664	0.057867423
22	0xbcd8e05f	-0.026474176
23	0xbd9b40eb	-0.075807415
24	0xbe228cee	-0.15874073
25	0x3d292c4c	0.04130201
26	0x3e251df8	0.16124713
27	0x3b7e4f4f	0.0038804596
28	0x3dfabc64	0.12242964
29	0x3cf7291f	0.030170975
30	0x3dc36377	0.09540456
31	0x3e0322a7	0.12806188
32	0x3d65df5d	0.05612122
33	0x3d7362fd	0.059420574
34	0x3d18b887	0.037285354
35	0xbd5951d5	-0.053056557
36	0xbd19edb2	-0.0375802
37	0xbcdd1238	-0.026986226
38	0x3c7146d8	0.014726363
39	0x3d5a4ba5	0.053294796
40	0xbc590905	-0.013246779
41	0xbd10b85c	-0.03533207
42	0xbd0045d4	-0.031316593
43	0xbcf8940d	-0.030344034
44	0x3c8d9f2b	0.017287811
45	0xbd369dd0	-0.044584095
46	0x3dab23bd	0.08356426
47	0x3db9862d	0.09058795
48	0x3d706159	0.058686588
49	0xbce2c3c5	-0.02768124
50	0xbd3a35b9	-0.04546139
51	0x3df3ffca	0.11914022
52	0xbd949032	-0.072540656
53	0xbe32aed1	-0.174495
54	0xbce3cb49	-0.027806895
55	0x3c7e14d2	0.015507894
56	0x3d18e45a	0.037327148
57	0x3c348f78	0.011020534
58	0x3a7aebed	0.0009571899
59	0x3cf2872a	0.029605467
60	0xbb5a72e0	-0.003333263
61	0x3d757255	0.05992349
62	0x3c0a261d	0.0084319385
63	0xbd1f6ee2	-0.038924105
64	0x3bee22d7	0.007267337
65	0xbce8d6e4	-0.02842278
66	0xbc256f5a	-0.010097349
67	0xbc65f345	-0.014035051
68	0x3d0b91f3	0.034074735
69	0x3c29ac21	0.01035598
70	0xbc81c5aa	-0.015841324
71	0xbd63dbd2	-0.05562956
72	0xbd7e04d2	-0.062016316
73	0xbd9c084e	-0.076187715
74	0xbe07fa63	-0.13279109
75	0xb90b47a5	-0.00013282763
76	0xbd186a2a	-0.03721062
77	0xbdd9d4b4	-0.10636273
78	0xbd0d4ab1	-0.03449506
79	0x3d598816	0.053108297
80	0xbd9eb075	-0.077485
81	0xbca873ad	-0.020562971
82	0xbc691f63	-0.014228675
83	0x3de4b97b	0.1116819
84	0xbd115a4e	-0.035486512
85	0x3bc56bfe	0.0060248366
86	0x3e07f6df	0.13277768
87	0x3e13cb59	0.1443304
88	0xbcacb9cf	-0.021084694
89	0xbdd92194	-0.10602108
90	0x3d443250	0.047899544
91	0x3d725416	0.05916222
92	0xbdfa85e2	-0.12232567
93	0x3e3e1017	0.18560825
94	0x3d9395b7	0.0720629
95	0xbdc170e7	-0.094453625
96	0xbd03bdc3	-0.032163393
97	0xbdcddd01	-0.10051919
98	0xbda88461	-0.08228374
99	0x3af8f33a	0.0018993386
100	0xbd045212	-0.03230483
101	0xbdb77a98	-0.0895893
102	0x3d8df460	0.069313765
103	0x3cab5864	0.020916171
104	0xbd6975ca	-0.056997098
105	0x3d0f5650	0.034994423
106	0x3d078a95	0.033091146
107	0xbca644a2	-0.020296399
108	0xbd3e0506	-0.04639151
109	0x3b9bed91	0.0047585447
110	0xbc988bcb	-0.018621346
111	0xbd9f6ec1	-0.077847965
112	0xbccafe72	-0.024779532
113	0x3e1e8a41	0.15482427
114	0x3d2dddc0	0.042447805
115	0xbcbab4f4	-0.022791363
116	0xbd1a9041	-0.037735227
117	0xb9d46be7	-0.00040516185
118	0xba17b0d2	-0.0005786541
119	0x3b8f7af7	0.004378672
120	0xba174d91	-0.0005771751
121	0xbace19af	-0.0015724207
122	0xbb7b0125	-0.0038300243
123	0x3a3b5dd9	0.0007147468
124	0xbb84c3e4	-0.0040516723
125	0xbba51413	-0.0050377934
126	0x3d0ad2d6	0.033892475
127	0x3d5bf069	0.05369607
128	0x3aa9665b	0.0012924181
129	0xbc44a48a	-0.01200212
130	0x3a3d12cc	0.0007212579
131	0x3d1af346	0.03782966
132	0xbdbfa81f	-0.093582384
133	0xbda50b58	-0.08058804
134	0xbd59e32f	-0.053195175
135	0xbd8a7406	-0.06760411
136	0xbd45704c	-0.048202798
137	0xbd73f83c	-0.059562907
138	0xbd40e776	-0.04709574
139	0xbc740c9d	-0.014895585
140	0xbd627b74	-0.055293515
141	0x3cba3e4b	0.022734782
142	0xbd0f614c	-0.0350049
143	0xbd69c14f	-0.05706912
144	0x393bf0eb	0.00017923459
145	0x3a9b6904	0.0011856859
146	0xbd3f91a6	-0.04676976
147	0xbda764c1	-0.08173514
148	0xbd2cd09e	-0.04219114
149	0xbcfdb269	-0.030968862
150	0xbdb34e98	-0.08755225
151	0xbce9be2b	-0.028533062
152	0x3d8f8265	0.07007293
153	0x3e2b4beb	0.16728179
154	0xbd8e6f93	-0.06954875
155	0x3e063a6e	0.13108227
156	0x3e4afdd2	0.19823387
157	0xbd307cff	-0.043087956
158	0x3df8db45	0.12151197
159	0xbd45ffe6	-0.048339747
160	0x3c8f889a	0.017521191
161	0x3da2c044	0.07946828
162	0x3dd9d4ec	0.10636315
163	0xbd315dc2	-0.043302305
164	0x3a5bfa92	0.0008391525
165	0x3dc79c37	0.097465925
166	0x3cd86ffa	0.026420582
167	0x3ce008b0	0.027347893
168	0xbe2e1bbd	-0.17002769
169	0xbc030b7b	-0.007998343
170	0x3dcb6c08	0.09932715
171	0xbd8c9edf	-0.0686624
172	0x3c1c1ad8	0.009527884
173	0xbdb4aa9c	-0.08821604
174	0xbdb697ba	-0.08915658
175	0xbcd86ea3	-0.026419943
176	0xbdaa017c	-0.08301064
177	0xbbafce75	-0.005365188
178	0x3ca9b84d	0.020717764
179	0xbcfcd4fc	-0.030863278
180	0xbe05d546	-0.13069639
181	0xbdae65ad	-0.08515487
182	0xbd7312f4	-0.059344247
183	0xbe0d31cf	-0.13788532
184	0xbe0b6afd	-0.13615032
185	0xbdb41d76	-0.08794682
186	0xbd0e751c	-0.034779653
187	0x3bd7fe25	0.0065915757
188	0xbd1d2b74	-0.03837152
189	0x3cd270d0	0.025688559
190	0x3d37c214	0.04486282
191	0xbc5fb5c9	-0.013654181
192	0x3cc70af7	0.02429722
193	0xbc4aa9f2	-0.01236962
194	0x3db5c152	0.088747635
195	0xbc567a4a	-0.013090679
196	0xbd17aab1	-0.03702802
197	0x3dc3ae22	0.095546976
198	0x3d11b98e	0.03557735
199	0x3d3774e3	0.044789206
200	0xbbca7084	-0.0061779637
201	0xbdc78eaa	-0.09744008
202	0xbd6bbfa0	-0.057555795
203	0x3cfd382d	0.030910576
204	0xbd7eb58d	-0.06218486
205	0xbdc9fa5c	-0.098622054
206	0x3d8a73a5	0.06760339
207	0xbd51406e	-0.051086836
208	0xbcf7dcde	-0.030256685
209	0xbdc34ec3	-0.09536507
210	0xbd080991	-0.03321225
211	0xbd865fd0	-0.065612435
212	0xbdd2c788	-0.10291964
213	0xbd667db7	-0.056272235
214	0xbd1a4728	-0.037665516
215	0xbd123b14	-0.035700873
216	0x3d2c4a9e	0.042063348
217	0x39dbc05c	0.00041914254
218	0xbce68acf	-0.028142361
219	0xbc76fe97	-0.015075347
220	0x3ba77f3f	0.0051116045
221	0xbc7aec5c	-0.0153151415
222	0xbd8124f8	-0.06305879
223	0xbd1e5273	-0.03865285
224	0xbc114b66	-0.008868074
225	0xbcc4f312	-0.024041686
226	0xbaf83a5f	-0.0018938294
227	0x3c5babd0	0.0134076625
228	0xbd0ca595	-0.0343376
229	0xbcef3818	-0.029201552
230	0xbc07c51f	-0.008286743
231	0x3d03ff18	0.0322257
232	0x3d1448ab	0.036202114
233	0x3c113d10	0.008864656
234	0x3c96dc47	0.018415583
235	0x3de679f9	0.11253733
236	0x3d203e31	0.03912181
237	0x3b0a66db	0.0021118436
238	0x3bb19071	0.00541883
239	0xbca2fe60	-0.019896686
240	0x3b49332d	0.003070067
241	0xbc636bce	-0.013880683
242	0xbc5451e4	-0.012958977
243	0xbc40c606	-0.0117659625
244	0xbd4047b2	-0.046943374
245	0xbd25d21f	-0.04048359
246	0x3d16f75d	0.036856998
247	0x3d88adfe	0.066738114
248	0x3c961ace	0.018323328
249	0xbaf6b4ac	-0.0018822155
250	0x3c005351	0.007832364
251	0x3c352225	0.011055504
252	0x3dcd2028	0.10015899
253	0x3e4b9129	0.19879593
254	0x3d56587f	0.05233049
255	0x3c10e6d1	0.008844093

Scale1_weights_38 f4 [8, 3, 5, 5]
0	0xbb8db84b	-0.004324948
1	0x3a9e1bb8	0.0012062704
2	0x3c392843	0.011301103
3	0x3c28777f	0.010282396
4	0x3a2ceda0	0.0006596688
5	0x3ca38398	0.01996021
6	0x3cb78b44	0.022405274
7	0x3cc1d0bc	0.023659103
8	0x3cec1992	0.028820787
9	0x3d040f21	0.03224099
10	0x3ca6b160	0.02034825
11	0x3cc139d7	0.02358715
12	0x3cc20d08	0.023687854
13	0x3cf9c383	0.030488735
14	0x3d0e5f1f	0.034758683
15	0x3d250182	0.04028464
16	0x3d0203c0	0.031741858
17	0x3ceb2fac	0.028709255
18	0x3d1fe785	0.039039154
19	0x3d24ca9c	0.040232286
20	0x3cf43a79	0.029813038
21	0x3c88037c	0.016603224
22	0x3c32206a	0.010871986
23	0x3c66074f	0.014039828
24	0x3c52e81a	0.01287272
25	0xbd9043aa	-0.07044156
26	0xbd91a7f8	-0.071121156
27	0xbd845ad5	-0.06462637
28	0xbd885246	-0.066563174
29	0xbd9465af	-0.07245957
30	0xbd44b04f	-0.048019703
31	0xbd4f9a9c	-0.050684556
32	0xbd4fa6e2	-0.05069626
33	0xbd43ab76	-0.04777094
34	0xbd2dbebc	-0.042418227
35	0xbd4ba898	-0.04972133
36	0xbd56cb09	-0.052439723
37	0xbd5e7e34	-0.054319575
38	0xbd446120	-0.047944188
39	0xbd2d9a90	-0.04238373
40	0xbd039f8b	-0.032134574
41	0xbd3a2ecb	-0.04545478
42	0xbd4be09a	-0.049774744
43	0xbd2843d4	-0.04108031
44	0xbd1d95bc	-0.038472876
45	0xbd172a71	-0.03690571
46	0xbd585771	-0.052817766
47	0xbd85abd9	-0.06526918
48	0xbd77c840	-0.060493708
49	0xbd73de45	-0.059538145
50	0x3d8b8bab	0.06813749
51	0x3d863294	0.06552616
52	0x3d93fe6c	0.072262615
53	0x3d8d88b1	0.069108374
54	0x3d6d282b	0.057899635
55	0x3de25839	0.110519834
56	0x3dd579e0	0.104236364
57	0x3dd4e739	0.10395665
58	0x3ddeaaee	0.10872446
59	0x3ddf5786	0.10905366
60	0x3dff45b5	0.124644674
61	0x3df649b6	0.12025778
62	0x3df0a1fd	0.11749647
63	0x3dfdac13	0.12386336
64	0x3e026de8	0.12737238
65	0x3e1fb6bb	0.1559705
66	0x3e1114b0	0.14168048
67	0x3e0af65f	0.13570546
68	0x3e153b0a	0.14573303
69	0x3e19523f	0.1497278
70	0x3e22eceb	0.1591069
71	0x3e11b078	0.14227474
72	0x3e06d195	0.13165887
73	0x3e0e7ac2	0.13914016
74	0x3e0f4c88	0.13994038
75	0xbc4e2444	-0.012581889
76	0xbc2deb8d	-0.010615242
77	0xbc465f90	-0.012107745
78	0xbbe5a83b	-0.00700858
79	0x3a611a05	0.0008586946
80	0x3d1aecd7	0.037823524
81	0x3d1aa5b3	0.03775568
82	0x3cf49b7e	0.0298593
83	0x3d1862da	0.037203647
84	0x3d47a2cb	0.048739236
85	0x3d81550f	0.06315052
86	0x3d6d3e21	0.05792058
87	0x3d55697f	0.052102562
88	0x3d80c030	0.06286657
89	0x3d9207c2	0.07130386
90	0x3d5d9d0f	0.05410486
91	0x3d5ee272	0.054415174
92	0x3d5c1fe3	0.053741347
93	0x3d818bcb	0.063254915
94	0x3da0b9e4	0.07847956
95	0x3a85b86f	0.001020206
96	0x3c1d9495	0.009617944
97	0x3ca7d06b	0.020485124
98	0x3d0e2a56	0.034708343
99	0x3d3392c9	0.043841157
100	0x3db687d3	0.08912625
101	0x3dbd066b	0.0922974
102	0x3dbd169e	0.092328295
103	0x3dd21e1b	0.102596484
104	0x3de59e17	0.11211794
105	0x3e032c84	0.1280995
106	0x3e03dd2f	0.12877344
107	0x3dff13dc	0.1245496
108	0x3e0c7233	0.13715439
109	0x3e1949b8	0.14969528
110	0x3e08e9d8	0.13370454
111	0x3e04e0ea	0.12976423
112	0x3e03dd55	0.128774
113	0x3e11d5f3	0.14241771
114	0x3e1adb27	0.15122662
115	0x3dc13b4e	0.094351396
116	0x3dc73e57	0.09728687
117	0x3dd0f2b2	0.102025405
118	0x3de9773f	0.113996975
119	0x3e04b41a	0.12959328
120	0x3bebe260	0.007198617
121	0x3c896a3a	0.016774286
122	0x3cf8a184	0.030350454
123	0x3d3bf356	0.04588636
124	0x3d6d5494	0.057941988
125	0xbdfc2fd7	-0.12313812
126	0xbdfc02e2	-0.12305237
127	0xbdf3a913	-0.11897483
128	0xbdd39cbb	-0.10332628
129	0xbdb135ad	-0.08652816
130	0xbdb916cd	-0.09037552
131	0xbdbd2a9f	-0.09236645
132	0xbdbe77bb	-0.093001805
133	0xbd980970	-0.07423675
134	0xbd5926d9	-0.053015564
135	0xbda34180	-0.079714775
136	0xbdb3a4bf	-0.08771657
137	0xbdb05953	-0.08610787
138	0xbd83e468	-0.064400494
139	0xbd33c221	-0.043886308
140	0xbdc83e5a	-0.097775176
141	0xbdd23855	-0.10264651
142	0xbdc4509b	-0.09585687
143	0xbd9c7ef3	-0.07641401
144	0xbd47150f	-0.048604067
145	0xbe18720f	-0.1488726
146	0xbe1a6b5f	-0.15080021
147	0xbe0cc2a7	-0.13746129
148	0xbdea5394	-0.114417225
149	0xbdba73b9	-0.091041036
150	0x3492a468	2.731424e-07
151	0x367abbdb	3.736225e-06
152	0xb6f50ad6	-7.3028305e-06
153	0xb7a390cd	-1.9498542e-05
154	0x375df1e5	1.3228947e-05
155	0x378eff5e	1.7046634e-05
156	0x379b924d	1.8545566e-05
157	0x37f5dcfd	2.9309182e-05
158	0xb68ca0e5	-4.1910557e-06
159	0xb701ded0	-7.740877e-06
160	0x37bbd378	2.239061e-05
161	0x3770187a	1.4310814e-05
162	0x37fb0bc1	2.9927005e-05
163	0x3796250c	1.7898645e-05
164	0x3796d688	1.7981292e-05
165	0x3822546e	3.870244e-05
166	0x386ddcd4	5.6710865e-05
167	0x37b2faaa	2.1335978e-05
168	0x37fe5692	3.0319472e-05
169	0x37bccf9f	2.2508028e-05
170	0x3851cf23	5.0022394e-05
171	0x380485cc	3.159586e-05
172	0x3863555e	5.4200522e-05
173	0x37d7d1a9	2.5727628e-05
174	0x3814d84b	3.548739e-05
175	0x371ee65d	9.4711695e-06
176	0x36f430ef	7.2774633e-06
177	0x36187709	2.2719053e-06
178	0xb7cb5650	-2.4239678e-05
179	0xb7b3620f	-2.1384125e-05
180	0x37d2283e	2.505269e-05
181	0x37869c1c	1.6046739e-05
182	0xb64c50fa	-3.0445503e-06
183	0x36b55880	5.404523e-06
184	0xb64b7457	-3.0317076e-06
185	0x3747a593	1.1899875e-05
186	0x37d49209	2.5340372e-05
187	0x37bb5485	2.2331495e-05
188	0x374f60e8	1.2360724e-05
189	0xb55ca35c	-8.2194106e-07
190	0x3860f225	5.3631276e-05
191	0x37b74256	2.184619e-05
192	0x378a290b	1.6469994e-05
193	0xb6aefa21	-5.214723e-06
194	0x325ea684	1.2959962e-08
195	0x385f3842	5.3219737e-05
196	0x37d95d04	2.591173e-05
197	0x37b324ed	2.1355658e-05
198	0x368657a4	4.003714e-06
199	0x381081e5	3.445325e-05
200	0xb73b6b42	-1.11710415e-05
201	0xb7de8b5c	-2.6529357e-05
202	0xb76e8bf1	-1.4218488e-05
203	0xb81d7b21	-3.754639e-05
204	0xb77a2d4a	-1.4911706e-05
205	0x36a8e943	5.0339454e-06
206	0xb666ab5c	-3.4372415e-06
207	0x3577af52	9.2269795e-07
208	0xb7e9342e	-2.7800063e-05
209	0xb5640648	-8.494576e-07
210	0x38126207	3.4900408e-05
211	0xb7074306	-8.062232e-06
212	0x37a5f1bc	1.97821e-05
213	0xb6acb8fb	-5.147534e-06
214	0xb73f51a6	-1.1403497e-05
215	0x37931ad4	1.7536258e-05
216	0x37a982c5	2.0207264e-05
217	0x37232ee8	9.726478e-06
218	0x369556c9	4.450649e-06
219	0xb77da0a2	-1.5117375e-05
220	0x38652c94	5.463937e-05
221	0x384cda42	4.884066e-05
222	0x37865184	1.6012003e-05
223	0xb7585431	-1.2894206e-05
224	0x37dbc3a5	2.6197938e-05
225	0xbd315e7a	-0.04330299
226	0xbd858127	-0.065187745
227	0xbd5770ce	-0.052597813
228	0xbd16314a	-0.0366681
229	0x3b7f8670	0.0038990043
230	0xbd3c8e3b	-0.04603408
231	0xbd60d99a	-0.05489502
232	0xbd8361aa	-0.06415112
233	0xbd3d4ad5	-0.046213944
234	0xbca250cc	-0.019813918
235	0x3cc22ff9	0.023704516
236	0x3d1575ab	0.03648917
237	0x3d042bef	0.03226846
238	0x3d39314b	0.045213025
239	0x3d87d844	0.06633046
240	0x3d978553	0.073984765
241	0x3ddb3022	0.1070254
242	0x3e03da26	0.12876186
243	0x3e1198ec	0.14218491
244	0x3e0676bc	0.13131231
245	0x3de4d257	0.11172932
246	0x3e064cae	0.13115188
247	0x3e20423a	0.15650263
248	0x3e304a18	0.17215765
249	0x3e23a006	0.15979013
250	0xbe763f6c	-0.24047631
251	0xbe87d6cd	-0.26531067
252	0xbe7aef7e	-0.24505422
253	0xbe6ab068	-0.22918856
254	0xbe3dd5f9	-0.18538655
255	0xbe51ad2c	-0.20476216
