models/quality_lbn.onnx (onnx, 966292 bytes, 56 tensors)

_const__bias_fire3/expand1x1_hide_1_bias_1 f4 [32]
-0.0014940838 0.00083964 -0.004471482 0.0013418741 -0.002654409 0.0010023545 -0.00010028732 0.0036213042
-0.00056802976 0.00061042537 -0.0018826899 -2.9448094e-05 -0.0021109276 -0.0023963712 -0.0026075116 0.00032373238
-0.00402271 -0.000113484166 0.00027633153 -0.004784417 -0.0025974128 0.00038143925 0.0020158975 0.0015115266
0.0012697901 -0.0011661157 -0.004784349 0.0012271471 -0.00038301715 -0.0008226417 -0.0009824892 -0.0003597525
00000000: 22d5 c3ba 491b 5c3a 8285 92bb d3e1 af3a
00000010: 98f5 2dbb 7061 833a 5851 d2b8 6753 6d3b
00000020: d5e7 14ba f404 203a 97c4 f6ba 4d07 f7b7
00000030: 7d57 0abb 700c 1dbb c9e2 2abb a0ba a939
00000040: f0d0 83bb 59fe edb8 97e0 9039 99c6 9cbb
00000050: 5b39 2abb e9fb c739 261d 043b 6b1e c63a
00000060: 166f a63a 5ad8 98ba 07c6 9cbb 39d8 a03a
00000070: b1cf c8b9 8da6 57ba dec6 80ba 2a9d bcb9

_const__conv2d_fire9/squeeze1x1_hide_1_weights_5 f4 [32, 256, 1, 1]
-0.00030896376 0.00038085898 -0.00022570789 5.5374327e-05 2.4195448e-05 0.000349927 -9.574246e-05 0.00014981082
-0.000111297355 -0.00038369742 0.0002008518 0.00031021357 0.00020908024 0.00023443023 -0.00014738562 4.169293e-05
6.846266e-05 2.9363486e-05 0.00024301338 -2.4673914e-06 -0.00021248826 -2.4292547e-05 -4.0372477e-05 0.00037495163
-0.00039186166 -7.4195865e-05 -0.00017042315 -0.00016968994 -0.00017340746 1.4110413e-05 0.00013337392 -0.0002859365
6.195792e-05 -0.0003626379 -2.0773417e-05 -0.0003906742 0.00027073617 0.00033810837 0.00038884292 -0.00025398808
0.00038133585 0.0001477867 -1.8961238e-05 9.522058e-05 0.00022023066 -0.00015631129 7.741488e-06 0.00016026318
0.00036126803 0.00039141878 -0.00013051805 -0.00035064493 0.00024391795 -2.5475958e-05 0.00013246782 0.00016840026
1.278095e-05 6.534553e-05 -3.7316283e-06 0.00035794344 0.00021398977 -2.7129001e-05 -0.00029771 -0.00039077774
-0.00028114225 -0.0002517394 -0.00023073603 -4.9933125e-05 -0.00038228542 0.00035614672 0.00031157862 0.00016355437
-0.00028011392 -0.00020497615 0.00029728675 -1.10535275e-05 0.0003096337 0.0002508111 -6.126899e-05 -0.0003268882
0.00010774726 1.6092043e-05 -0.00013156269 0.00026236376 -0.00016255106 -4.7356552e-06 -4.7564634e-05 0.00033793238
-0.00020002185 -0.00037119136 -0.00025123038 -0.000104683786 -0.00016907528 7.255617e-05 -0.00028319075 0.00016744604
-0.0001266331 -0.00029378853 0.00013522807 -0.00031848846 -7.174115e-05 -6.147203e-05 0.00026818545 0.00015681796
0.00024423024 0.00014131288 -0.00025453544 -0.00015769851 0.00011492833 0.00030023785 2.8755332e-05 0.00020305696
4.3615368e-05 0.00014131174 0.00020977357 -0.0002060372 0.00020330343 0.00031701854 6.656871e-05 3.881345e-05
0.0003783061 -3.1844763e-06 1.2692252e-06 -0.00018174756 -0.00031737963 0.0001736361 -0.00014872075 0.00012916412
-0.0002500219 -0.00021929092 -0.00011553747 0.00011649457 0.00010274517 0.00021610846 -4.0172108e-05 -0.0003096516
-1.0911086e-05 -0.0003023811 -0.00023314646 -0.00018286804 -0.00018077368 0.0001890221 -5.621221e-05 -0.0001924485
0.00012620586 0.00018894534 -0.00037459002 -0.00015054688 0.000148503 -1.0386643e-05 0.00032545908 -0.00011670151
-0.00025730202 0.00024972524 -6.8917216e-05 -0.00032205883 -0.00015012347 -8.254003e-06 0.00033968835 -0.00014149491
0.0002886998 0.00013414028 0.00027623205 -0.00042138246 0.00018469786 -0.00022557605 0.0001223608 -0.00019900619
0.00035766064 -0.00027445078 -3.699605e-05 -0.00020524864 -5.7835085e-05 0.00030660565 0.00022343236 -0.00022322376
-0.00014933133 -0.00015716226 -0.00010273988 0.000359199 0.00010745052 0.0003512297 -0.00038694253 -0.00012417072
7.065255e-05 6.863582e-05 -0.00026476386 0.00033662014 -0.00031870726 1.210207e-05 -0.00034926517 -0.00029200185
5.9924983e-05 -0.00032488524 -0.00021308137 -6.1902276e-05 2.3079338e-05 0.000110374756 -6.400386e-05 -0.00038310926
-4.252346e-05 -0.00042112026 0.00028425772 -0.00029129683 -0.0001881575 0.00014949251 2.5518568e-05 2.4003008e-05
0.00038342577 5.8828657e-05 -7.8900404e-05 6.8434165e-05 -0.00023593026 0.00023507043 0.00018212333 -4.804325e-05
-0.000286377 -0.0003410377 2.7106473e-05 -0.00037215353 0.00017079196 -5.1657884e-05 -0.0002168012 7.01875e-05
0.00033160477 0.00011586932 -5.2822994e-05 -6.305465e-05 0.00023361413 -0.00018523891 -8.788529e-05 0.00016141795
7.336229e-05 0.00027580874 -8.362034e-05 0.00024742712 -0.0003351683 0.00042477562 0.00017954648 0.00031670814
-0.00038490092 -0.0003596765 -0.00029758096 0.00037077794 -0.00036660937 0.00031229947 -0.0002454313 0.0002468588
0.00014018275 -0.00022335023 -0.00031180293 5.8773658e-05 5.107957e-05 -0.00020893998 4.8088983e-05 0.00026976972
00000000: 6afc a1b9 07ae c739 00ac 6cb9 bb41 6838
00000010: 54f7 ca37 6876 b739 58c9 c8b8 8916 1d39
00000020: 5068 e9b8 ff2a c9b9 bf9b 5239 29a4 a239
00000030: 8d3c 5b39 63d1 7539 878b 1ab9 71df 2e38
00000040: 9c93 8f38 9b51 f637 68d1 7e39 7695 25b6
00000050: 62cf 5eb9 d9c7 cbb7 9e55 29b8 2895 c439
00000060: c872 cdb9 9a99 9bb8 9eb3 32b9 ccee 31b9
00000070: b6d4 35b9 c3bb 6c37 4ada 0b39 bfe9 95b9
00000080: 68ef 8138 6f20 beb9 9342 aeb7 67d3 ccb9
00000090: 98f1 8d39 2344 b139 9ddd cb39 b429 85b9
000000a0: 08ee c739 31f7 1a39 f30e 9fb7 29b1 c738
000000b0: b8ed 6639 7ee7 23b9 70e1 0137 520c 2839
000000c0: 9368 bd39 5737 cd39 acdb 08b9 c4d6 b7b9
000000d0: 3ac4 7f39 34b5 d5b7 0fe7 0a39 9a94 3039
000000e0: c36d 5637 1d0a 8938 e36c 7ab6 5baa bb39
000000f0: 7162 6039 1693 e3b7 f615 9cb9 4de1 ccb9
00000100: 4666 93b9 e4fb 83b9 bbf1 71b9 496f 51b8
00000110: 7b6d c8b9 34b9 ba39 605b a339 cb7f 2b39
00000120: 41dc 92b9 deee 56b9 27dd 9b39 8a72 39b7
00000130: 5556 a239 4c7f 8339 8a7d 80b8 3162 abb9
00000140: 5ff6 e138 66fd 8637 17f4 09b9 de8d 8939
00000150: 7872 2ab9 f8e6 9eb6 2380 47b8 842c b139
00000160: f5bc 51b9 769c c2b9 92b7 83b9 ae89 dbb8
00000170: cd49 31b9 4c29 9838 3879 94b9 7494 2f39
00000180: d0c8 04b9 a107 9ab9 02cc 0d39 ccfa a6b9
00000190: bd73 96b8 8bea 80b8 3e9b 8c39 806f 2439
000001a0: 070c 8039 632d 1439 2b73 85b9 df5b 25b9
000001b0: ad05 f138 3e69 9d39 9b37 f137 b0eb 5439
000001c0: a5ef 3638 152d 1439 aaf6 5b39 b10b 58b9
000001d0: d92d 5539 8235 a639 ce9a 8b38 a0cb 2238
000001e0: 6357 c639 e3b4 55b6 3f5a aa35 7d93 3eb9
000001f0: f965 a6b9 1612 3639 ecf1 1bb9 3b70 0739
00000200: 5f15 83b9 75f1 65b9 b54c f2b8 8c4e f438
00000210: e578 d738 2c9b 6239 797e 28b8 bc58 a2b9
00000220: c20e 37b7 e788 9eb9 c778 74b9 44c0 3fb9
00000230: 118e 3db9 3c34 4639 67c5 6bb8 00cc 49b9
00000240: 2156 0439 a11f 4639 9f64 c4b9 1fdc 1db9
00000250: 78b7 1b39 4b42 2eb7 61a2 aa39 a5bd f4b8
00000260: 7ee6 86b9 8eed 8239 a687 90b8 01da a8b9
00000270: 766a 1db9 ac7a 0ab7 3318 b239 405e 14b9
00000280: a25c 9739 02a8 0c39 3dd3 9039 ffec dcb9
00000290: 74ab 4139 9c88 6cb9 fa4d 0039 51ac 50b9
000002a0: 6684 bb39 29e4 8fb9 352c 1bb8 0338 57b9
000002b0: f393 72b8 eabf a039 2b49 6a39 2c11 6ab9
000002c0: d395 1cb9 eccb 24b9 0e76 d7b8 e052 bc39
000002d0: 0f57 e138 4125 b839 8cde cab9 d333 02b9
000002e0: 4d2b 9438 93f0 8f38 01d0 8ab9 647c b039
000002f0: 2a18 a7b9 ff09 4b37 941d b7b9 d317 99b9
00000300: f657 7b38 5c55 aab9 986e 5fb9 88d1 81b8
00000310: 809a c137 ff78 e738 d039 86b8 0edc c8b9
00000320: 385b 32b8 cec9 dcb9 6d08 9539 33b9 98b9
00000330: 254c 45b9 17c1 1c39 b510 d637 115a c937
00000340: 8906 c939 cabe 7638 5577 a5b8 5084 8f38
00000350: 0c64 77b9 3d7d 7639 5cf8 3e39 0c82 49b8
00000360: df24 96b9 4ecd b2b9 b562 e337 9a1d c3b9
00000370: 9e16 3339 3bab 58b8 2155 63b9 a131 9338
00000380: 3ddb ad39 defe f238 428e 5db8 353c 84b8
00000390: 51f6 7439 b13c 42b9 0e4f b8b8 4d42 2939
000003a0: 14da 9938 6c9a 9039 545d afb8 1bb9 8139
000003b0: 87b9 afb9 6bb4 de39 a444 3c39 d90b a639
000003c0: 87cc c9b9 f692 bcb9 a404 9cb9 f964 c239
000003d0: 7a35 c0b9 20bc a339 3bad 80b9 d46c 8139
000003e0: 05fe 1239 1f33 6ab9 7b79 a3b9 bc83 7638
000003f0: 453e 5638 e616 5bb9 27b3 4938 e16f 8d39

_const__bias_fire9/squeeze1x1_hide_1_bias_10 f4 [32]
0.0007896751 -0.0006588149 -0.0030167801 1.3804615e-06 -0.0016239294 -0.00012553496 -0.009259399 -0.00011599558
-1.0358556e-07 0.0047948323 -0.004604537 -0.003598315 -7.5216754e-05 0.015770053 0.0019929688 0.0009792022
0.0045858356 -0.004349242 -0.008831656 -8.147198e-05 0.004055931 -0.008597402 -0.004543771 2.689231e-07
-0.0013997039 -0.004817003 -0.0016099941 0.0021321722 -0.008943907 -0.0066476907 1.3253413e-08 0.008142625
00000000: 3302 4f3a 52b4 2cba 2cb5 45bb 4c48 b935
00000010: 07da d4ba 09a2 03b9 bcb4 17bc a742 f3b8
00000020: c472 deb3 f81d 9d3b a8e1 96bb b5d1 6bbb
00000030: b0bd 9db8 3330 813c 789c 023b 9358 803a
00000040: c744 963b 1684 8ebb a6b2 10bc f0db aab8
00000050: 9de7 843b 1edc 0cbc eae3 94bb 8260 9034
00000060: 4576 b7ba f3d7 9dbb 7006 d3ba eabb 0b3b
00000070: 7789 12bc dfd4 d9bb 20b1 6332 a568 053c

_const__bias_fire4/squeeze1x1_hide_1_bias_13 f4 [16]
0.028319215 0.04523423 -0.04839721 0.00949376 1.5561449e-05 -0.0023984401 -0.0010831599 -0.030135922
0.033473663 -9.530182e-05 0.0072950195 0.091404036 0.025783509 -0.01301497 0.07922115 0.033077035
00000000: b3fd e73c 8747 393d 273c 46bd b78b 1b3c
00000010: f589 8237 262f 1dbb d1f8 8dba 9cdf f6bc
00000020: ae1b 093d c6dc c7b8 0f0b ef3b 0a32 bb3d
00000030: f037 d33c be3c 55bc b33e a23d c97b 073d

_const__conv2d_fire9/expand1x1_hide_1_weights_15 f4 [128, 32, 1, 1]
-0.0006836621 0.00017480987 -0.00036009235 -0.001046065 0.0003240517 -0.0004298424 0.0012922671 -0.00032238642
-0.0010996466 0.00037130466 0.0005399572 -0.00023516845 0.0006315691 0.00029470774 0.000954705 -0.000302926
0.001004101 -1.5513635e-05 0.0022915138 -0.0007257274 0.0010843961 0.0016084661 -7.089426e-05 0.00078032794
0.0006271419 0.0010592487 0.001049783 0.00010615374 0.0017967058 -1.0168083e-05 0.00064335176 -0.000951891
-3.9518076e-05 0.00067412027 0.0036837354 -0.0009399045 0.0021400764 -0.000110290486 0.013046078 -0.00032203938
0.0009049854 0.00079018314 0.005694105 0.0054420633 -0.00065809814 -0.0004617164 0.0002111244 -0.0006354702
-0.00037795695 0.0055383914 0.012524123 0.00035986837 -0.000867514 0.011800919 0.0055732555 0.0004367779
0.0030085302 0.0059920056 0.002074459 0.00072989776 0.012690292 0.009484902 0.00047580453 -0.0004623555
-0.00020208769 -0.0003516769 -0.0006731854 -0.00041528742 -0.0009586176 -0.00018831213 -0.0004561643 -0.0002695292
-0.0006948642 -0.00010325836 -0.0008677468 -0.000104240826 0.00052179827 -0.00054112216 0.000982883 -0.0010166933
0.0004596736 -0.00077318406 0.0007987422 0.00031835694 0.00018972672 0.0005736441 0.0004537427 -0.0001926916
-0.00042039933 -0.00038436154 -0.00042583607 -0.0010619505 -0.0003444726 -0.001069089 -0.00018020971 -0.0005250338
-0.00013543577 -0.00075063936 -0.0010734671 -0.0002649176 -0.00047927757 -0.00099947 -0.00040994343 -9.892009e-05
-6.924863e-05 -0.00063140603 -0.00021767238 0.00062275643 -0.0011036677 -0.0009862438 0.00086746045 5.1298616e-06
-0.00026389456 -0.00034147498 -0.0008224075 0.0004869514 -0.0010166237 -0.0010073733 -0.00015717013 -0.0002700054
0.0007510406 -4.3660755e-05 0.0003319815 0.0003008368 0.0008442373 -0.00042373218 0.00035394623 0.00014250804
-0.0008308667 0.003270706 0.010507053 -0.0010718651 0.0050111655 2.7524732e-06 0.031398658 -0.0009755371
0.00016295403 -0.0007333876 0.016476668 0.012895617 0.0002554243 -0.0011049418 -0.00035780345 -0.0007476238
-0.0003640918 0.014252694 0.029806646 6.0898383e-05 -2.1021906e-05 0.028774329 0.014763156 -0.0005899174
0.0040973336 0.016065324 0.0047304146 -0.0005547888 0.030440846 0.022245407 0.00022478812 -0.0005410709
0.00047061068 0.0007933709 -0.0006207408 -0.0009117428 0.0007892715 -5.244105e-05 -0.00028080365 -0.00019550008
-0.0009153858 -0.000386142 -0.00018940175 0.0002561805 0.0007459588 -0.0002630907 0.0003798954 -0.0010622266
0.0006861096 0.00022551898 -3.20536e-05 -0.00014231027 -0.00044305166 -0.00039406103 -0.00022456102 -0.0008565574
0.00077906164 0.0007485252 -0.0004345449 -0.0010742065 -0.00014744366 0.0004660647 -0.00011043515 -0.0004509294
0.00017007648 0.0029073015 0.010537833 0.0005336282 0.0062413174 0.0013602014 0.03475808 -0.000847119
0.00059272465 -0.0008227175 0.017264778 0.013685394 0.00044127041 -0.002726222 -0.00096998794 -0.0010380078
0.00015326265 0.016466092 0.032753717 -0.00016621653 -0.001059135 0.03228559 0.017808292 -0.0007176061
0.0057497313 0.018354477 0.005308976 -0.0011128822 0.03247097 0.024488604 -0.0010028733 -0.0015018054
-0.0010910738 0.00065388763 0.005113017 8.338382e-05 0.0042120563 0.0007451854 0.018232305 -0.0006317986
0.0005040495 -0.00036147694 0.009952591 0.0065251314 0.00057776127 -0.0016148775 0.0009996331 0.0005710898
-0.0009689629 0.009434196 0.018049864 -8.097407e-05 -0.0012306868 0.016947165 0.008599033 -0.00060368615
0.0018586774 0.0108239325 0.0040507843 -0.0010830759 0.01917224 0.013917289 -0.0005997614 6.590336e-05
00000000: c937 33ba 2b4d 3739 c7ca bcb9 1e1c 89ba
00000010: 7ce5 a939 785c e1b9 4a61 a93a f905 a9b9
00000020: 0422 90ba abab c239 ea8b 0d3a 8d97 76b9
00000030: e38f 253a 0183 9a39 2b45 7a3a 0ad2 9eb9
00000040: 0a9c 833a 4723 82b7 392d 163b be3e 3eba
00000050: 4c22 8e3a 2bd3 d23a 11ad 94b8 ec8e 4c3a
00000060: c866 243a 7dd6 8a3a df98 893a db9e de38
00000070: 717f eb3a 9597 2ab7 9ba6 283a 5388 79ba
00000080: 36c0 25b8 72b7 303a d36a 713b ec63 76ba
00000090: 8640 0c3b c14b e7b8 38bf 553c 65d7 a8b9
000000a0: 8b3c 6d3a 4b24 4f3a 9d95 ba3b 5653 b23b
000000b0: 3884 2cba 8712 f2b9 4661 5d39 af95 26ba
000000c0: 8628 c6b9 657b b53b fb31 4d3c b7ac bc39
000000d0: e169 63ba a458 413c db9f b63b 56ff e439
000000e0: c32a 453b 9658 c43b a6f3 073b 9c56 3f3a
000000f0: f1ea 4f3c 9066 1b3c 6775 f939 4e68 f2b9
00000100: 80e7 53b9 4661 b8b9 b578 30ba efba d9b9
00000110: bd4b 7bba a775 45b9 5629 efb9 994f 8db9
00000120: 8c27 36ba 698c d8b8 8179 63ba de9b dab8
00000130: 4ac9 083a 18da 0dba 15d4 803a 9142 85ba
00000140: 5900 f139 81af 4aba af62 513a 25e9 a639
00000150: 61f1 4639 9b60 163a 50e4 ed39 420d 4ab9
00000160: 0b69 dcb9 2284 c9b9 c042 dfb9 2531 8bba
00000170: 549a b4b9 ad20 8cba adf6 3cb9 6ca2 09ba
00000180: c303 0eb9 8ec6 44ba 94b3 8cba a3e4 8ab9
00000190: 8c47 fbb9 a600 83ba aded d6b9 5273 cfb8
000001a0: 9339 91b8 f184 25ba fc3e 64b9 7a40 233a
000001b0: f1a8 90ba da44 81ba 4966 633a 2d21 ac36
000001c0: 545b 8ab9 ff07 b3b9 d596 57ba 834d ff39
000001d0: 3b40 85ba d709 84ba 09ce 24b9 838f 8db9
000001e0: 7be1 443a 6120 37b8 cd0d ae39 a2b9 9d39
000001f0: ce4f 5d3a 5f28 deb9 dc91 b939 366e 1539
00000200: 85ce 59ba 5759 563b c625 2c3c d37d 8cba
00000210: b434 a43b 21b7 3836 e19b 003d 30bb 7fba
00000220: a4de 2a39 cf40 40ba 14fa 863c 2348 533c
00000230: 78ea 8539 b2d3 90ba 9197 bbb9 2ffc 43ba
00000240: 93e3 beb9 2284 693c 112d f43c 246d 7f38
00000250: 3358 b0b7 24b8 eb3c 2ae1 713c b0a4 1aba
00000260: ed42 863b 6d9b 833c 9801 9b3b 3f6f 11ba
00000270: 155f f93c 003c b63c 1ab5 6b39 a7d6 0dba
00000280: 4cbc f639 38fa 4f3a 36b9 22ba 0602 6fba
00000290: 1de7 4e3a 26f4 5bb8 d438 93b9 27ff 4cb9
000002a0: 80f6 6fba 1a73 cab9 259a 46b9 f74f 8639
000002b0: 738c 433a 70ef 89b9 b32c c739 693a 8bba
000002c0: 09dc 333a 4a79 6c39 4a71 06b8 1f39 15b9
000002d0: 6349 e8b9 fa99 ceb9 2478 6bb9 988a 60ba
000002e0: f139 4c3a ad38 443a a1d3 e3b9 64cc 8cba
000002f0: 1b9b 1ab9 255a f439 6b99 e7b8 b86a ecb9
00000300: 8f56 3239 6d88 3e3b e0a6 2c3c 2fe3 0b3a
00000310: f783 cc3b c948 b23a 7d5e 0e3d 3211 5eba
00000320: 1461 1b3a a3ab 57ba dd6e 8d3c b438 603c
00000330: 505a e739 6aaa 32bb ca46 7eba c30d 88ba
00000340: 21b5 2039 e6e3 863c c328 063d 694a 2eb9
00000350: acd2 8aba e53d 043d b2e2 913c bb1d 3cba
00000360: 3e68 bc3b 215c 963c ebf6 ad3b 21de 91ba
00000370: 4800 053d 539c c83c d872 83ba 3ad8 c4ba
00000380: 5d02 8fba a869 2b3a 188b a73b 59de ae38
00000390: 4a05 8a3b 8c58 433a ea5b 953c 499f 25ba
000003a0: 3022 043a 9d84 bdb9 3110 233c c5d0 d53b
000003b0: e774 173a 4caa d3ba 1f06 833a 30b5 153a
000003c0: 0002 7eba e391 1a3c 4fdd 933c 9fd0 a9b8
000003d0: ff4e a1ba c8d4 8a3c f5e2 0c3c b140 1eba
000003e0: dd9e f33a dd56 313c 71bc 843b fff5 8dba
000003f0: 1a0f 9d3c 5705 643c 4e39 1dba 9935 8a38

_const__bias_fire5/squeeze1x1_hide_1_bias_17 f4 [16]
0.19452365 0.01155354 0.018389283 -0.022547096 -0.04771595 0.009239314 0.010540063 0.00018752896
0.06185353 0.17565206 0.01684777 -0.0020760186 0.004226489 -0.0069385497 0.11872713 0.16809076
00000000: 3531 473e 0f4b 3d3c 1fa5 963c b0b4 b8bc
00000010: cd71 43bd 7e60 173c 3ab0 2c3c 6ca3 4439
00000020: 215a 7d3d 22de 333e 5604 8a3c d00d 08bb
00000030: 5c7e 8a3b c65c e3bb 3627 f33d fc1f 2c3e

_const__bias_fire9/expand1x1_hide_1_bias_20 f4 [128]
5.313062e-05 7.902378e-05 -3.698083e-07 -5.0992993e-10 -0.0006565007 -3.6003737e-06 -0.00030724358 0.00060967763
0.0014882537 -0.0001333358 -9.307036e-05 -0.00022935262 0.0028288898 1.8922348e-07 2.6960965e-08 0.00014142602
0.0029257836 2.9469925e-06 8.117845e-05 -8.114893e-05 -0.0001778796 -5.2066254e-05 5.4612663e-08 -6.72311e-06
-5.163151e-07 0.00014744118 0.00020890169 0.00051308837 -0.000247435 -0.00016488484 0.0010128864 -1.9837967e-06
9.3372876e-07 0.0016134826 -0.0001207483 0.00049528625 0.00039581335 -2.1242113e-05 3.9219587e-05 5.8129976e-05
8.659773e-05 0.000262577 -2.4058686e-08 -0.00084263895 6.560945e-05 0.0018000024 7.913235e-06 -9.687556e-05
8.7482906e-05 -1.437078e-06 -0.00034409977 5.7568283e-05 0.0034502316 -0.00032525675 0.0002108428 0.0003217286
2.9309601e-09 -3.999968e-05 -2.2423171e-06 -4.807712e-05 3.1049116e-05 7.1899706e-08 0.00041469888 -2.2591892e-06
0.00046739398 0.0014929136 0.00036000006 -3.0040479e-05 0.00035073786 -1.7003205e-05 5.9397776e-06 -3.4847463e-09
0.0016386667 -0.00014604378 -0.00017597353 0.0010901166 0.0019350732 -6.5475084e-05 0.0010817698 -5.939644e-07
-3.65442e-07 -2.373974e-05 0.00030287448 -0.00059869926 -1.7799972e-05 1.3115569e-08 -0.0004184703 -1.1426307e-05
7.000449e-06 2.6338797e-05 -3.1768027e-06 -6.803844e-05 0.0010746376 0.0003099219 -9.4254864e-07 0.0020998106
2.1279822e-05 0.0016491064 -0.00050146616 1.1340736e-05 0.0015734632 -0.0002144453 -1.0361923e-08 -0.00032427002
-2.620468e-06 0.0016167159 6.989761e-05 4.5110104e-07 -0.0005561493 0.00019341886 -8.479481e-08 -7.88779e-05
0.00057735475 0.00037208197 0.00032833422 -0.00054166047 0.0022084445 -7.2030306e-09 0.00048229538 -3.4639516e-08
6.4776546e-06 1.0298469e-06 -0.0003771381 4.5164335e-05 -2.1334708e-05 0.00035487692 0.002601983 2.1282345e-09
00000000: 92d8 5e38 92b9 a538 118a c6b4 212b 0cb0
00000010: 0419 2cba f39d 71b6 8915 a1b9 c6d2 1f3a
00000020: 8211 c33a 0ed0 0bb9 c52e c3b8 607e 70b9
00000030: e564 393b 5b2d 4b34 ca97 e732 c24b 1439
00000040: 81be 3f3b f2c4 4536 593e aa38 802e aab8
00000050: 3185 3ab9 b761 5ab8 428f 6a33 1397 e1b6
00000060: e798 0ab5 719a 1a39 9f0c 5b39 c780 063a
00000070: 2aba 81b9 f0e4 2cb9 d4c2 843a 5e21 05b6
00000080: 5aa5 7a35 7e7b d33a 403a fdb8 19d6 013a
00000090: 2b85 cf39 1731 b2b7 b67f 2438 96d0 7338
000000a0: cd9b b538 7daa 8939 9ca9 ceb2 8be4 5cba
000000b0: ce97 8938 0fee eb3a 16c3 0437 ac29 cbb8
000000c0: 0777 b738 a0e1 c0b5 4a68 b4b9 7975 7138
000000d0: 481d 623b 3987 aab9 af15 5d39 afad a839
000000e0: ff69 4931 54c5 27b8 b77a 16b6 6aa6 49b8
000000f0: bc3a 0238 4867 9a33 f16b d939 939c 17b6
00000100: 8f0c f539 dead c33a 64be bc39 70ff fbb7
00000110: 3de3 b739 1ba2 8eb7 4d4e c736 4e78 6fb1
00000120: 88c8 d63a 5423 19b9 8985 38b9 3ee2 8e3a
00000130: 48a2 fd3a ab4f 89b8 2cca 8d3a ec70 1fb5
00000140: f731 c4b4 b424 c7b7 20cb 9e39 07f2 1cba
00000150: 2651 95b7 e252 6132 2266 dbb9 9db3 3fb7
00000160: 66e5 ea36 23f2 dc37 0e31 55b6 dcaf 8eb8
00000170: dbda 8c3a 037d a239 7303 7db5 fa9c 093b
00000180: 1282 b237 d426 d83a d374 03ba 1744 3e37
00000190: aa3c ce3a b9dc 60b9 3804 32b2 c902 aab9
000001a0: 4cdb 2fb6 fce7 d33a fe95 9238 db2e f234
000001b0: 8cca 11ba 7bd0 4a39 7118 b6b3 406b a5b8
000001c0: 9f59 173a ff13 c339 4624 ac39 38fe 0dba
000001d0: 8dbb 103b 877e f7b1 97dc fc39 8dc6 14b3
000001e0: a15a d936 4539 8a35 9eba c5b9 d66e 3d38
000001f0: f0f7 b2b7 c60e ba39 0886 2a3b 4c40 1231

_const__conv2d_fire9/expand3x3_hide_1_weights_24 f4 [128, 32, 3, 3]
0.00013487702 -0.00033162732 -0.00019536982 -7.469782e-05 -0.00017020023 0.00033908724 0.00024380689 -0.00019375281
9.22869e-05 0.00033845182 -9.386834e-05 0.00032201555 -0.0003944005 0.00027407004 0.0002888919 0.00019593956
0.000109139415 -3.2520475e-05 -8.122037e-05 -0.00033122025 -0.00025614552 -0.00044990148 0.00020768447 -0.00010611243
-1.6883016e-06 0.00019597803 -0.00017375861 -0.00028153523 -0.00023264144 -0.00028485636 0.00035129683 -0.00031987356
0.00029463318 0.00021744189 -2.6031941e-05 0.00029391216 0.00030801928 -1.2769864e-05 -2.3656666e-07 -0.0004153336
0.0001870662 7.069471e-05 0.00038792484 0.0003360059 6.891796e-05 -2.548477e-06 0.00034702558 0.00031850542
-1.1376324e-05 -3.092124e-05 -3.837389e-05 0.00025462592 0.00032238074 0.00024421004 -0.0002824263 -0.0003080226
3.1883952e-05 -0.00013331287 -0.0005913554 -0.00058231433 0.0006811572 0.0006195163 0.00064285187 -0.000347176
0.0003526225 2.1175145e-05 0.0001237903 0.0003300559 -0.00030972937 -1.1181663e-05 -5.2198146e-05 -0.00029013437
0.00021017772 -0.00024205311 0.00016055272 -0.00026724322 0.00021481293 0.00021958 -0.0002745928 0.0003345604
-0.00019008017 0.00029163048 -0.0002056133 0.00017506255 -0.00016487365 0.00033834975 -0.00027509133 -8.8586756e-05
-7.545249e-05 -0.00018962 -0.00025207544 -8.651672e-05 0.00013688221 -7.7657336e-05 -0.00038395156 -0.00038017318
-8.0494036e-05 6.0117884e-05 0.0005103937 0.00012454682 0.00015394077 0.00022784274 -0.0004966983 -0.00030757466
-4.273713e-05 2.5113139e-05 9.891088e-05 0.00020111311 -9.5562566e-05 0.0002259165 -0.00026638727 0.00017855503
-0.00022835555 -8.391244e-05 0.00032616398 -0.00012273659 -0.00022127126 -0.00017757199 0.00039942085 -0.00018310643
0.00029050396 0.0003209463 0.00038223117 -0.00014680723 0.00014025337 -0.0001724499 0.00012016139 -0.00034638413
0.00031288972 -0.00027995292 0.00027011166 9.520074e-05 0.00036487062 0.00017345502 -6.1030314e-05 0.00028009198
8.3162486e-05 0.00029783288 -1.8943421e-05 4.805466e-05 -0.00013735583 -0.00016986238 -4.5991976e-05 7.793525e-06
-0.00025325452 -0.00029176872 -0.00029537873 -4.391469e-05 0.00034875935 -0.00010045856 -3.2678086e-05 -8.705443e-05
7.490887e-05 4.1965224e-05 -0.0001819158 -0.00037335826 -0.00022233682 3.0843043e-05 -0.0004054359 0.00030034746
0.00014369158 3.3590095e-05 -0.00035283447 -0.00021122654 0.00021858866 -0.000565717 -0.00019705367 -0.0003131479
0.0004738711 0.000116846786 0.000573598 0.00034456208 0.00018439887 -0.00030404597 -0.00033393895 0.00016188686
0.00035071137 -2.5563597e-05 -4.7362468e-05 -0.00020378435 5.4634154e-05 0.00029326728 0.00017114813 -0.00017852795
0.00036678195 2.407745e-05 -0.00016460338 6.38655e-05 -3.2977372e-05 -2.8511311e-05 -0.0003563767 0.0001247598
-0.00022694217 -0.00067920535 -0.00042690863 5.867009e-05 0.00035255819 0.0005265872 -0.000100095815 0.00010609154
0.00025903978 -0.0004964663 -0.0005196315 -0.00033776878 0.00033355836 -9.944325e-05 0.00015025154 -0.00015225713
1.2183145e-05 -0.00014186968 0.000362812 -5.7796146e-06 -0.00022550176 -0.00024153091 -0.00030334742 -0.00017590215
0.00028629522 -1.5376228e-05 0.00033211932 -0.0001234376 -8.228255e-05 0.00014009984 0.00010633153 0.0003785336
0.0002199121 -0.0003527584 -0.00019973922 -0.00024370226 -0.000100203 -0.00046757434 4.063733e-06 0.00048980187
0.00013105555 -4.1520656e-05 0.00022744456 0.00013757094 6.7096307e-06 9.315083e-05 2.4403518e-05 -1.1380462e-05
0.00012846438 -2.8111292e-05 -3.2275828e-05 6.955294e-05 8.1874106e-07 -0.0001923694 -0.00012176306 -0.000277745
-5.977081e-05 0.00016703921 0.00015074908 -0.00017312753 9.776109e-07 -0.000412233 -0.0003596137 -0.0005678451
00000000: c66d 0d39 44de adb9 30dc 4cb9 16a7 9cb8
00000010: c777 32b9 85c7 b139 6aa6 7f39 202a 4bb9
00000020: 278a c138 3c72 b139 2edb c4b8 32d4 a839
00000030: 8ac7 ceb9 0fb1 8f39 6a76 9739 2075 4d39
00000040: c7e1 e438 9866 08b8 db54 aab8 a1a7 adb9
00000050: 454b 86b9 c1e0 ebb9 e0c5 5939 ad88 deb8
00000060: 9a99 e2b5 747f 4d39 f932 36b9 059b 93b9
00000070: 36f1 73b9 c658 95b9 432e b839 b4b4 a7b9
00000080: ff78 9a39 1d01 6439 2b5f dab7 3918 9a39
00000090: a67d a139 263e 56b7 f302 7eb4 22c1 d9b9
000000a0: 3327 4439 ef41 9438 6462 cb39 f329 b039
000000b0: 0c88 9038 8006 2bb6 fcf0 b539 13fd a639
000000c0: f1dc 3eb7 6eb1 01b8 a7f3 20b8 507f 8539
000000d0: 3605 a939 5109 8039 9e12 94b9 187e a1b9
000000e0: 22bb 0538 e7c9 0bb9 3005 1bba 74a6 18ba
000000f0: b08f 323a 0967 223a 0f85 283a 2d05 b6b9
00000100: 31e0 b839 47a1 b137 b5cd 0139 5a0b ad39
00000110: 2c63 a2b9 e098 3bb7 55ef 5ab8 2d1d 98b9
00000120: 2763 5c39 a3cf 7db9 0b5a 2839 c71c 8cb9
00000130: 683f 6139 0f3f 6639 39f7 8fb9 f067 af39
00000140: 4250 47b9 fbe5 9839 e699 57b9 ff90 3739
00000150: efe1 2cb9 8964 b139 223a 90b9 a7c7 b9b8
00000160: 3f3c 9eb8 bbd4 46b9 fe28 84b9 4f70 b5b8
00000170: 0a88 0f39 f7db a2b8 1b4d c9b9 fb51 c7b9
00000180: e8ce a8b8 1627 7c38 f1cb 053a c898 0239
00000190: 296b 2139 12e9 6e39 dc34 02ba f941 a1b9
000001a0: a540 33b8 0eaa d237 606e cf38 e4e1 5239
000001b0: c368 c8b8 00e4 6c39 e5a9 8bb9 803a 3b39
000001c0: ba72 6fb9 26fa afb8 fd00 ab39 dab2 00b9
000001d0: 0d05 68b9 9e32 3ab9 5c69 d139 4200 40b9
000001e0: c84e 9839 af44 a839 3366 c839 44f0 19b9
000001f0: fa10 1339 abd3 34b9 28ff fb38 e49a b5b9
00000200: 590b a439 a5c6 92b9 c69d 8d39 82a6 c738
00000210: 1b4c bf39 7ae1 3539 cdfa 7fb8 4fd9 9239
00000220: 8567 ae38 7426 9c39 b0e8 9eb7 4c8e 4938
00000230: 2d07 10b9 161d 32b9 82e7 40b8 efc0 0237
00000240: 3fc7 84b9 89f8 98b9 10dd 9ab9 0a31 38b8
00000250: b0d9 b639 47ad d2b8 d40f 09b8 fe90 b6b8
00000260: 6518 9d38 d103 3038 a7c0 3eb9 4cbf c3b9
00000270: 1623 69b9 775d 0138 af90 d4b9 f477 9d39
00000280: eaab 1639 17e3 0c38 a4fc b8b9 b17c 5db9
00000290: f234 6539 a04c 14ba 31a0 4eb9 002e a4b9
000002a0: e771 f839 a40b f538 835d 163a 57a6 b439
000002b0: 325b 4139 5c68 9fb9 8714 afb9 2cc0 2939
000002c0: afdf b739 6871 d6b7 10a7 46b8 f2ae 55b9
000002d0: fa26 6538 abc1 9939 3a76 3339 3b33 3bb9
000002e0: a44c c039 eef9 c937 6299 2cb9 87ef 8538
000002f0: 2f51 0ab8 932b efb7 12d8 bab9 f4d1 0239
00000300: 53f7 6db9 b30c 32ba b5d2 dfb9 8814 7638
00000310: 8fd7 b839 ab0a 0a3a 88ea d1b8 767d de38
00000320: bbcf 8739 4a25 02ba e137 08ba 8f16 b1b9
00000330: 72e1 ae39 308c d0b8 d78c 1d39 36a7 1fb9
00000340: 3666 4c37 dac2 14b9 cd37 be39 83ee c1b6
00000350: ab74 6cb9 7643 7db9 9a0a 9fb9 6072 38b9
00000360: e519 9639 33fc 80b7 4d20 ae39 076f 01b9
00000370: 1c8f acb8 c4e7 1239 4efe de38 eb75 c639
00000380: 3498 6639 6ef2 b8b9 1771 51b9 548a 7fb9
00000390: 1324 d2b8 c424 f5b9 335b 8836 0c66 003a
000003a0: f56b 0939 7726 2eb8 2f7e 6e39 eb40 1039
000003b0: 4a23 e136 f959 c338 28b6 cc37 b6ee 3eb7
000003c0: 65b4 0639 8ad0 ebb7 e85f 07b8 f3dc 9138
000003d0: 75c7 5b35 c5b6 49b9 0c5b ffb8 4e9e 91b9
000003e0: 6bb2 7ab8 3f27 2f39 6612 1e39 9189 35b9
000003f0: 7436 8335 fa20 d8b9 898a bcb9 71db 14ba

_const__conv2d_fire4/squeeze1x1_hide_1_weights_26 f4 [16, 64, 1, 1]
0.014944304 -0.0029127917 0.025959065 -0.0032964998 0.021691985 -0.0019038351 0.006523092 0.00324696
-0.0063892333 -0.005416346 0.014840054 -0.00087418227 0.015830763 -0.0039151325 0.011020961 -0.0018364355
0.013554472 -0.0016608237 -0.0007273629 0.014548215 0.005433996 -0.0011532888 0.0010735331 -0.0035149627
-0.0025847896 0.006155073 0.027571727 0.0016730103 0.009757338 -0.0004058029 0.014071795 -0.0023493709
0.017690454 0.097712845 -0.00047527548 0.09957276 0.010967943 0.08595886 -0.0077139605 0.1274692
-0.09447062 0.018974973 0.04137864 0.07721722 0.049305312 -0.082224354 0.004916757 0.047049817
0.099616036 -0.013856962 0.058304485 0.0022917422 -0.001786553 -0.04043764 0.0035425322 0.00019165402
0.12330098 -0.003180903 0.13654758 0.06072656 0.14331688 0.120857485 -0.08293782 -0.0051670787
0.009914006 0.0014113046 0.04119775 -0.0034217963 0.02386545 -0.0002612432 0.004411641 0.003568161
-0.009822034 -0.004875613 0.017723117 0.00034729342 0.016287379 -0.01255473 0.025913581 -0.00029221707
0.036352877 -0.0013491362 -9.164555e-06 0.038747896 0.012944445 -0.0013508176 0.0019628142 0.003553781
0.0042542885 0.0124824885 0.035991047 -0.0030869287 -0.0014234738 -0.0014784388 0.015688706 -0.0012002027
0.065460704 0.08745661 0.04793582 0.06551535 0.018282263 -0.03234772 -0.1533231 0.03367053
0.008491896 0.011706465 -0.030265093 -0.06989814 0.052287232 0.058706347 0.05472577 -0.09543329
-0.015969917 0.027233094 -0.0017384846 -0.03300177 0.0005965953 0.10451552 0.009910531 0.1041684
-0.059191972 0.012772781 -0.022468105 0.015066478 0.013608685 0.022175236 -0.07524321 0.08579916
0.02715448 -0.0053375987 0.08494602 -0.00111497 0.052775264 -0.0048199417 0.009772931 0.004742353
-0.00058040395 -0.002012223 0.03849956 -0.0002869482 0.03749308 0.0033016165 0.04894219 0.00019604615
0.06851703 -0.004241782 -0.00016891344 0.07477824 0.031705115 -0.0022551762 0.001614197 -0.0015683372
-0.002248243 0.023022246 0.076801814 -0.0005756444 0.008265015 0.019045034 0.034138948 -0.0050194515
0.1267034 0.09704843 0.03911514 0.16952534 -0.042214714 0.10488919 0.0066738515 0.098458014
-0.084687844 0.05664638 0.19032688 -0.051119223 0.030827777 -0.013852497 0.2081219 0.0012901268
-0.043088935 -0.106360175 -0.014586827 0.063514054 0.0005623566 -0.097189866 -0.016320819 0.063538246
0.039585844 -0.009857914 0.05271953 0.1494269 0.22901781 0.17471741 0.05019537 0.022753699
0.0011086188 -0.00097338244 0.004170649 -0.0006321726 0.0025348708 -0.0002022074 0.00024884974 -0.0003698817
-0.0011220175 -0.0011949969 0.0013933522 -0.00043385546 0.0017937352 -0.0016557602 0.0018579412 -0.0005291533
0.0018449842 -0.00079655135 0.00041242418 0.0020721015 8.167663e-05 -0.0012723382 0.0001475304 -0.00020570755
0.0006656068 0.00011439774 0.0031880455 -0.0006176402 0.00097011967 0.0004490314 0.0018652915 -0.0011094321
0.0062446073 0.012510245 0.0046725883 0.005782074 -0.0050809383 -0.0015370263 -0.009567227 0.010107149
0.0020045333 0.002804146 0.0002415653 -0.0024705948 0.009140324 -0.004980652 0.0054068556 -0.006404853
0.009959845 -0.020704553 0.002629691 -0.005216427 -0.0005327891 0.011702533 -0.0012880373 0.008255881
0.0016178524 -0.002256351 0.00393835 0.0028448529 0.007045458 -3.8145874e-05 -0.0074344133 0.0062939227
00000000: f4d8 743c 89e4 3ebb 1ba8 d43c 170a 58bb
00000010: 64b3 b13c 1b8a f9ba a9bf d53b f3ca 543b
00000020: c65c d1bb 9a7b b1bb b323 733c 6129 65ba
00000030: 84af 813c 834a 80bb 4391 343c 8db4 f0ba
00000040: 9313 5e3c ffaf d9ba 7fac 3eba a35b 6e3c
00000050: aa0f b23b f329 97ba cbb5 8c3a 4a5b 66bb
00000060: 9365 29bb 7fb0 c93b 1ade e13c e948 db3a
00000070: 3edd 1f3c f1c1 d4b9 638d 663c e7f7 19bb
00000080: 92eb 903c ac1d c83d 652e f9b9 ceec cb3d
00000090: e3b2 333c 330b b03d 64c5 fcbb 4987 023e
000000a0: d079 c1bd 6771 9b3c a67c 293d 1024 9e3d
000000b0: 5ef4 493d 3e65 a8bd bf1c a13b 4fb7 403d
000000c0: 7e03 cc3d 5008 63bc afd0 6e3d 0e31 163b
000000d0: c52a eaba f0a1 25bd d429 683b bcf6 4839
000000e0: 3985 fc3d b276 50bb 21d3 0b3e 6abc 783d
000000f0: a9c1 123e 2184 f73d 4edb a9bd 9950 a9bb
00000100: 5b6e 223c 86fb b83a f9be 283d 3740 60bb
00000110: 7a81 c33c 78f7 88b9 878f 903b cfd7 693b
00000120: 99ec 20bc 9bc3 9fbb 1230 913c ef14 b639
00000130: 1c6d 853c 5bb2 4dbc b848 d43c b634 99b9
00000140: c1e6 143d 80d5 b0ba 77c1 19b7 1db6 1e3d
00000150: f014 543c eb0d b1ba 8fa2 003b 8de6 683b
00000160: 8f67 8b3b 5a83 4c3c 596b 133d 124e 4abb
00000170: db93 baba 2dc8 c1ba 9a85 803c 1f50 9dba
00000180: 4310 863d 731c b33d 5a58 443d e92c 863d
00000190: afc4 953c 0b7f 04bd bb00 1dbe 1cea 093d
000001a0: 9821 0b3c 79cc 3f3c 80ee f7bc c226 8fbd
000001b0: 232b 563d 1176 703d 2128 603d 8772 c3bd
000001c0: 58d3 82bc f017 df3c dddd e3ba dd2c 07bd
000001d0: d564 1c3a 3c0c d63d c85f 223c 3e56 d53d
000001e0: 4873 72bd ed44 513c 080f b8bc 64d9 763c
000001f0: f6f6 5e3c d7a8 b53c 1d19 9abd 78b7 af3d
00000200: 1273 de3c 06e7 aebb 2ef8 ad3d 2f24 92ba
00000210: e02a 583d 9af0 9dbb a51e 203c be65 9b3b
00000220: 4026 18ba 80df 03bb b7b1 1d3d 8971 96b9
00000230: 5892 193d ef5f 583b 9b77 483d bd91 4d39
00000240: a852 8c3d a5fe 8abb 5b1e 31b9 5525 993d
00000250: 39dd 013d 94cb 13bb 7793 d33a aa90 cdba
00000260: 4257 13bb 2699 bc3c 454a 9d3d d7e6 16ba
00000270: fc69 073c 5504 9c3c 48d5 0b3d 367a a4bb
00000280: 89be 013e 54c1 c63d 3237 203d 0d98 2d3e
00000290: 56e9 2cbd 25d0 d63d 53b0 da3b 5ba4 c93d
000002a0: d270 adbd 0906 683d 0de5 423e 6462 51bd
000002b0: 898a fc3c 95f5 62bc e81d 553e 7919 a93a
000002c0: 067e 30bd 5dd3 d9bd 96fd 6ebc a813 823d
000002d0: 1d6b 133a 7b0b c7bd 3db3 85bc 5720 823d
000002e0: c424 223d 1783 21bc 6ff0 573d 5e03 193e
000002f0: a583 6a3e 1fe9 323e a999 4d3d f765 ba3c
00000300: 134f 913a 972a 7fba f1a9 883b 63b8 25ba
00000310: 1320 263b a307 54b9 0c78 8239 aeec c1b9
00000320: a910 93ba 71a1 9cba 24a1 b63a 1877 e3b9
00000330: c41b eb3a 1806 d9ba 2986 f33a e0b6 0aba
00000340: 66d3 f13a a8cf 50ba a33a d839 18cc 073b
00000350: cf49 ab38 96c4 a6ba 64b2 1a39 33b3 57b9
00000360: 1e7c 2e3a d2e8 ef38 87ee 503b 22e9 21ba
00000370: a14f 7e3a f96b eb39 cc7c f43a 5d6a 91ba
00000380: 909f cc3b c5f7 4c3c 831c 993b 8d77 bd3b
00000390: 007e a6bb 0b76 c9ba dcbf 1cbc 7598 253c
000003a0: 7d5e 033b c3c5 373b b14c 7d39 b4e9 21bb
000003b0: 4cc1 153c bd34 a3bb fe2b b13b cddf d1bb
000003c0: 9e2e 233c 989c a9bc e556 2c3b 90ee aabb
000003d0: dfaa 0bba fbbb 3f3c 5cd3 a8ba ad43 073c
000003e0: 1e0e d43a 4adf 13bb 460d 813b b670 3a3b
000003f0: 96dd e63b d2fe 1fb8 619c f3bb 403d ce3b

_const__conv2d_fire2/expand3x3_hide_1_weights_29 f4 [32, 8, 3, 3]
0.007298568 0.0056055365 0.0035447783 0.0012709928 -0.00014269675 5.0992076e-06 -0.0069461786 -0.0072510513
-0.005577395 0.0006053838 0.00047706513 -0.00049634767 2.801063e-06 -5.435893e-05 0.0006307814 -0.00054283644
0.00031679941 -0.000505088 -0.005571888 -0.006018506 -0.006659215 -0.004475624 -0.005794202 -0.004679993
-0.0045083417 -0.0051632966 -0.0041963295 0.004142601 0.0044942703 0.0037456343 0.0018310766 0.00060476974
0.00020855859 -0.0017269335 -0.0019250425 -0.0022514586 -0.009219601 -0.011220349 -0.01017702 -0.006077062
-0.0073930873 -0.005130552 -0.007953587 -0.0073484546 -0.0036488932 -0.008971441 -0.0118149705 -0.010967387
0.007474793 0.011063328 0.011853839 0.013869756 0.019817533 0.022822639 -0.00096927333 -0.00023931627
-0.0006420256 -0.0029065448 -0.0040802415 -0.0043396982 -0.0014708833 -0.0022273976 -0.005820571 -0.017393334
-0.015647624 -0.013689385 -0.0029677008 0.0012985439 0.0034706118 0.0061914083 0.01196049 0.011461475
-0.0125189135 -0.0015329403 0.018887274 -0.0059915357 0.0446276 0.04583006 -0.03063999 -0.011496708
-0.008009326 0.0005217856 -0.0002481439 -0.00032979267 -0.00045773576 0.00061007583 -0.00066358136 0.000501432
-8.924869e-05 -0.0006713169 0.00060289644 -0.0021215556 -0.0031176163 -0.023257894 -0.02704948 -0.024769671
-0.017721834 -0.02388351 -0.0263108 0.0077164723 0.008755994 0.014147561 -0.00994594 -0.024885291
-0.004070048 -0.019625034 -0.016336918 -0.0057844813 -0.009706175 0.018168038 0.034195747 -0.028955834
0.032082375 0.036804505 -0.06099662 -0.030332169 -0.024850998 -0.04437228 -0.044265628 -0.05258578
0.048568625 0.13495465 0.041305166 0.058398645 0.064446025 0.0031945992 0.0029155107 0.0017319153
0.0009434316 0.008974884 0.0018623443 -0.00517743 0.0054353457 0.003951504 -0.008233374 -0.029192755
-0.019077824 -0.039067265 -0.021633783 -0.0035772757 -0.039333403 -0.013519233 0.00638923 -0.03376098
0.02023446 0.018429844 0.0035057617 0.054944582 0.013336027 0.008735369 0.015486786 -0.015802057
-0.025828637 7.150218e-05 0.0007626773 -0.0001255864 0.0005537904 0.00088901614 0.00020629853 -0.00035551816
-0.00048074656 0.00017079855 -0.018782672 -0.011130211 -0.0064050346 -0.017521482 -0.009259502 -0.009627266
-0.016646296 -0.009138839 -0.009029731 -0.014064989 -0.011982842 -0.018189667 0.0058044805 0.021014465
0.0028143353 0.024569655 0.024892224 0.012493526 0.016097568 -0.0040255636 -0.022907708 0.041116327
-0.0033986198 -0.014244322 0.004986729 -0.02558793 -0.0405932 0.073009014 0.043450814 0.06247901
0.037150066 -0.06782074 0.008708708 -0.004965943 -0.060727607 -0.0067447857 -0.047229335 -0.041961584
-0.029964449 -0.013409267 -0.0060286704 0.0053574606 0.018311907 0.024903795 0.04161914 0.017529778
0.0026081 0.031642266 0.010830759 -0.0072303894 0.028125789 0.031914428 0.013333403 0.05207603
-0.033267543 0.007772842 0.050450064 -0.038381163 -0.009620382 0.041811306 -0.021400418 -0.0013331594
0.02323184 0.0007627845 0.00039209434 7.792055e-05 0.00036982328 0.00072868756 0.0008939767 0.00021949376
0.00097424065 0.00014429151 0.016992303 0.014059772 0.017887546 0.01217702 0.013770801 0.01872701
0.0007262527 0.00016556433 0.0042350367 -0.00491871 0.0037874638 0.003672251 0.007333139 0.025456978
0.018301593 -0.011000896 -0.007526429 -0.009467988 -0.011649241 0.019384297 0.026406035 -0.022931535
00000000: d328 ef3b a6ae b73b 834f 683b 7197 a63a
00000010: dea0 15b9 dc19 ab36 c59c e3bb 3a9a edbb
00000020: 95c2 b6bb 9eb2 1e3a 991e fa39 541d 02ba
00000030: e5f9 3b36 75ff 63b8 065b 253a 234d 0eba
00000040: 1918 a639 e267 04ba 6294 b6bb e336 c5bb
00000050: 8b35 dabb 41a8 92bb 4add bdbb a05a 99bb
00000060: b6ba 93bb df30 a9bb 5d81 89bb a8be 873b
00000070: ac44 933b 5179 753b bc00 f03a 6989 1e3a
00000080: 85b0 5a39 465a e2ba b551 fcba 358d 13bb
00000090: cf0d 17bc 8ed5 37bc 84bd 26bc 1722 c7bb
000000a0: b641 f2bb 311e a8bb c34f 02bc 4ecb f0bb
000000b0: 4522 6fbb f3fc 12bc 9493 41bc 8eb0 33bc
000000c0: 1cef f43b f642 353c 9b36 423c f93d 633c
000000d0: 6158 a23c 8bf6 ba3c d516 7eba f9f0 7ab9
000000e0: 9c4d 28ba bb7b 3ebb 8cb3 85bb 0734 8ebb
000000f0: a7ca c0ba 88f9 11bb 7dba bebb 777c 8ebc
00000100: 722f 80bc 7149 60bc c27d 42bb e733 aa3a
00000110: 3473 633b 4ce1 ca3b eef5 433c e9c8 3b3c
00000120: 211c 4dbc f1ec c8ba 7cb9 9a3c a554 c4bb
00000130: 6ecb 363d 4db8 3b3d b700 fbbc b05c 3cbc
00000140: 8c39 03bc 70c8 083a 4f19 82b9 06e8 acb9
00000150: 41fc efb9 7fed 1f3a 31f4 2dba 8872 033a
00000160: 072b bbb8 51fb 2fba b20b 1e3a cc09 0bbb
00000170: ec50 4cbb 5787 bebc df96 ddbc c4e9 cabc
00000180: 612d 91bc 5aa7 c3bc bf89 d7bc 76da fc3b
00000190: 4d75 0f3c 2ccb 673c 4cf4 22bc 3ddc cbbc
000001a0: 0a5e 85bb aec4 a0bc 00d5 85bc bf8b bdbb
000001b0: a606 1fbc 23d5 943c d710 0c3d c934 edbc
000001c0: cf68 033d 52c0 163d 98d7 79bd 2b7b f8bc
000001d0: 5294 cbbc b5bf 35bd e04f 35bd 3064 57bd
000001e0: e5ef 463d 8d31 0a3e 9b2f 293d 6b33 6f3d
000001f0: 47fc 833d 7b5c 513b 2712 3f3b 6f01 e33a
00000200: 9f50 773a 640b 133c e819 f43a 6ea7 a9bb
00000210: fc1a b23b 9e7b 813b 46e5 06bc a525 efbc
00000220: 1949 9cbc ff04 20bd 5539 b1bc ba70 6abb
00000230: 101c 21bd c67f 5dbc bf5c d13b f448 0abd
00000240: bdc2 a53c 2ffa 963c ecc0 653b 920d 613d
00000250: 5a7f 5a3c cb1e 0f3c 4abc 7d3c 5173 81bc
00000260: 9496 d3bc 71f3 9538 68ee 473a d8af 03b9
00000270: 3f2c 113a dd0c 693a d751 5839 d764 bab9
00000280: b60c fcb9 6318 3339 1ede 99bc 7d5b 36bc
00000290: 53e1 d1bb 3689 8fbc 2bb5 17bc aebb 1dbc
000002a0: d05d 88bc 12bb 15bc 70f1 13bc d770 66bc
000002b0: af53 44bc 7f02 95bc 8333 be3b 8726 ac3c
000002c0: b670 383b 4d46 c93c c7ea cb3c a5b1 4c3c
000002d0: 0cdf 833c e0e8 83bb f2a8 bbbc 9869 283d
000002e0: 61bb 5ebb 0461 69bc b767 a33b c79d d1bc
000002f0: 0e45 26bd c085 953d 7bf9 313d fee9 7f3d
00000300: ab2a 183d 9ae5 8abd f8ae 0e3c 59b9 a2bb
00000310: 83bd 78bd 5d03 ddbb 8c73 41bd e9df 2bbd
00000320: 0178 f5bc 8bb2 5bbc 278c c5bb a38d af3b
00000330: da02 963c 0b03 cc3c d578 2a3d 9c9a 8f3c
00000340: a8ec 2a3b 529b 013d 7f73 313c e7ec ecbb
00000350: 0e68 e63c b4b8 023d 5874 5a3c ad4d 553d
00000360: 8c43 08bd 53b3 fe3b baa4 4e3d 9135 1dbd
00000370: cf9e 1dbc 5542 2b3d ee4f afbc 68bd aeba
00000380: b350 be3c 9af5 473a 0392 cd39 4769 a338
00000390: d7e4 c139 6505 3f3a c359 6a3a e827 6639
000003a0: 2f64 7f3a f54c 1739 7133 8b3c f55a 663c
000003b0: e788 923c 2082 473c ed9e 613c 6369 993c
000003c0: fe61 3e3a 569b 2d39 10c6 8a3b 212d a1bb
000003d0: 1937 783b 26aa 703b d44a f03b 278b d03c
000003e0: 39ed 953c 1a3d 34bc 43a0 f6bb 9f1f 1bbc
000003f0: 75dc 3ebc d1cb 9e3c 7851 d83c eada bbbc

_const__bias_fire9/expand3x3_hide_1_bias_30 f4 [128]
0.002072373 -7.8481235e-06 0.00040982408 0.006980991 0.0018768897 0.0025458033 0.00097530824 0.0015495413
-0.008303866 -1.4192164e-05 -0.006427566 0.00084655784 0.0033172623 0.001097014 0.0019377267 -0.005033356
-1.49190855e-05 0.0015808428 -0.0077425754 0.002141605 0.0011672227 -0.0075789317 0.0004379754 -0.00879851
0.00027514706 -0.008208381 -0.006615066 0.0013347708 0.00031053394 0.0065463786 0.0018577666 0.0014163954
0.0078039253 -0.007681667 5.954263e-07 -1.9499817e-05 0.009741971 -0.007282158 2.3339922e-05 -0.0069659427
-4.26552e-05 -0.004286601 2.3368626e-05 1.1981201e-05 -3.4868162e-07 0.00085913227 7.9147474e-05 0.006443325
-0.00010016622 -0.007769747 -0.005497186 -9.868184e-06 -7.6147453e-06 7.873484e-06 0.0076934546 3.3981594e-06
0.0019764414 2.917057e-06 0.00017633502 -5.4932592e-05 2.873088e-06 1.09399e-05 1.5056006e-06 -3.2565513e-05
-7.40491e-07 -0.0068232724 -0.0048226696 -0.007997128 0.0007737301 0.00045335758 -0.0074205 -0.007513552
-0.004794752 0.004567914 9.45274e-05 -0.0056842444 1.594811e-07 9.940832e-05 0.002136062 -0.0042856354
5.716479e-06 0.0011857749 6.647668e-05 0.0005837311 -3.0281783e-06 -0.0067088907 0.004885844 -0.0057840236
-0.007294923 0.00012778192 -0.0064733536 0.0017866619 0.0021348777 0.011777795 -0.008747195 -0.0068187728
0.0073520807 0.0012159091 -0.0068244077 0.00036903305 -0.0069753253 -0.0050271344 1.4154988e-05 -0.007914817
-0.007883665 -0.005402964 0.000698892 -0.008526049 0.0052883173 1.9505749e-06 -0.009181233 0.0035970758
0.002559341 0.0007381306 3.2757936e-05 0.00035342615 0.00070062495 0.0086412355 0.005689823 -0.00655644
-0.006551202 0.0045109983 0.00014285419 -0.009055632 6.197091e-05 0.00032828163 -0.00869195 2.7307187e-05
00000000: a6d0 073b 6fab 03b7 a8dd d639 ccc0 e43b
00000010: f801 f63a 7ed7 263b d4ab 7f3a fa19 cb3a
00000020: f00c 08bc e11a 6eb7 559e d2bb 89eb 5d3a
00000030: 6d66 593b afc9 8f3a 52fb fd3a daee a4bb
00000040: fc4c 7ab7 4834 cf3a 6eb5 fdbb 2b5a 0c3b
00000050: 7ffd 983a b058 f8bb 10a0 e539 a027 10bc
00000060: 9d41 9039 727c 06bc 32c3 d8bb 7af3 ae3a
00000070: 29cf a239 0183 d63b 4e80 f33a 58a6 b93a
00000080: 12b8 ff3b 7eb6 fbbb 62d5 1f35 8a93 a3b7
00000090: ca9c 1f3c 2b9f eebb 1aca c337 9042 e4bb
000000a0: ace8 32b8 9e76 8cbb be07 c437 de02 4937
000000b0: 7032 bbb4 6437 613a fafb a538 8722 d33b
000000c0: 5410 d2b8 5d99 febb bd21 b4bb 878f 25b7
000000d0: 2a82 ffb6 5b18 0437 6019 fc3b ef0b 6436
000000e0: 2f87 013b a8c2 4336 92e6 3839 6c67 66b8
000000f0: 47cf 4036 838a 3737 0b14 ca35 f496 08b8
00000100: 27c6 46b5 c295 dfbb 7c07 9ebb 6306 03bc
00000110: 26d4 4a3a a0b0 ed39 aa27 f3bb 3e34 f6bb
00000120: 4c1d 9dbb 71ae 953b 033d c638 e642 babb
00000130: d53d 2b34 6f79 d038 2cfd 0b3b 846e 8cbb
00000140: 2ed0 bf36 016c 9b3a 6569 8b38 8805 193a
00000150: b537 4bb6 41d6 dbbb 6e19 a03b e887 bdbb
00000160: 400a efbb 33fd 0539 6d1e d4bb 6d2e ea3a
00000170: 4ee9 0b3b a7f7 403c 6550 0fbc 0370 dfbb
00000180: b9e9 f03b 245f 9f3a 489f dfbb c77a c139
00000190: 4591 e4bb a9ba a4bb 367b 6d37 26ad 01bc
000001a0: 7d2a 01bc 590b b1bb d935 373a d7b0 0bbc
000001b0: 9f49 ad3b 9fe6 0236 e26c 16bc ebbc 6b3b
000001c0: 9eba 273b 1b7f 413a 9165 0938 0e4c b939
000001d0: 25aa 373a f893 0d3c b271 ba3b 68d7 d6bb
000001e0: 77ab d6bb ffd0 933b 21cb 1539 135e 14bc
000001f0: 61f6 8138 371d ac39 ae68 0ebc bd11 e537

_const__sub_mean_data_rhs_33 f4 [1, 3, 1, 1]
104.0 117.0 123.0
00000000: 0000 d042 0000 ea42 0000 f642

_const__conv2d_fire4/expand1x1_hide_1_weights_38 f4 [64, 16, 1, 1]
0.009952952 0.007352052 0.019974424 0.0027801876 0.0014135741 -0.0051558916 -0.0009874486 -0.004886617
0.0058220928 -0.00045865503 0.0009573584 -0.0006606488 0.0040596738 0.0017039733 0.008012623 0.006799118
0.009075549 0.0012642732 0.012593764 0.0011066861 -0.00015449064 0.0032572513 0.0005814534 -0.0018099311
0.0034958825 -0.0011333755 0.0011883352 -0.0010752715 0.0010653331 -0.00041560165 0.0054220865 0.0024428144
-0.0020681263 -0.001161813 0.0002487685 -0.00020919736 -0.0011820957 0.0008175238 -1.371369e-05 0.0049900557
-0.0024506028 -0.00047189044 0.0013504938 0.0012004487 0.0015244309 0.0023519448 -0.0030676234 0.00076564203
0.015617331 0.009596552 0.024070388 0.0001934566 -0.0014738796 0.0043540825 -0.000896163 -0.0040826006
0.0041287704 0.0006605539 0.0013925656 0.001599581 0.004210357 0.0036964032 0.0070427456 0.0055444217
0.024810018 0.014639666 0.03907414 0.0032134114 0.00061015453 0.005034507 3.2460808e-05 -0.006938801
0.009391431 -0.0006762292 -0.00024807037 -0.0014119435 0.0053312047 0.0041510365 0.0143143 0.008620341
-0.0041755335 -0.00052312226 -0.0041998224 -0.0016746668 0.0012464552 0.0050216164 0.0017393681 0.007521292
-0.0022535543 -0.00082731585 -0.0007513421 0.0065402505 -0.000101092366 0.0022555494 -0.0019371735 0.0018048289
0.00014285804 0.00013990559 0.00049382914 -0.0005154651 -0.00019289822 -0.0009536308 -0.0012208136 -0.0006779299
0.0010377921 -0.00027810296 -0.0010095316 -0.0015352193 -0.00072776724 -0.00075948023 -0.0011893471 -0.0012565462
0.006911109 0.00804125 0.013947746 -7.993385e-06 0.00094516296 -0.0040073595 -0.0016831609 -0.0034318648
0.0046228077 0.0006828257 0.0017118166 -0.0013679902 0.0024830576 -0.0007287259 0.0056951405 0.005962831
0.015163759 0.011736683 0.024042517 0.002388287 -0.00084973406 0.0025546753 0.00068888615 -0.0051316116
0.0067897476 0.0008652202 0.00014110554 0.002219324 0.003604894 0.0027804803 0.010006287 0.008825118
0.013587928 0.009667369 0.02418842 0.0012530161 -0.0012137004 -0.0030764865 -0.0017330851 -0.008943215
0.0073853615 0.0014569348 0.0009828631 -0.002709144 0.0039435183 -0.000447191 0.011106892 0.0053803725
0.0009339697 0.00044116515 -0.0016835602 0.00034011772 0.0010777941 1.9970357e-06 0.0016106566 0.0019246108
-0.00162831 -0.0011965422 -0.0010112782 0.0018782156 -0.0012396433 -0.00018821364 0.0005527668 0.00053708954
-0.0009591757 0.0013324842 -0.0013683601 -0.0013675329 -0.001178497 0.0004299892 -0.0005100537 0.001935691
-0.0007537073 0.00026064558 0.00078291993 0.00021882547 -0.00131163 0.00027651267 0.0007447979 -0.00042973083
0.0004374835 -0.0007570843 -0.0015868011 -0.0003847633 -0.0012996828 0.0016421136 0.0015706392 -0.00012515348
-0.00093276566 0.0008224143 -9.91473e-05 0.00081127667 -0.0012426991 -0.0005175621 3.333011e-05 -0.0010664926
0.0105764605 0.0024778163 0.014538756 0.0018028191 0.0010423546 -7.970664e-06 -0.0018364111 -0.004630036
0.005171814 0.001451627 0.0016769434 -0.002252535 -0.00038912636 0.00069535524 0.0060766893 0.004010229
0.0020203562 0.0011619233 0.0029421216 0.0012700984 -0.00063349697 0.003664766 -0.0009940472 0.002504553
3.817349e-06 -0.00044377282 -0.0009031171 0.0022410403 -0.0008271578 0.0011236876 0.0015309384 -0.0001473799
0.009092954 0.0018980121 0.014550495 0.00018799143 0.0014335585 0.0038278108 -0.0014871188 -0.0013736326
0.0035256834 -0.0015594951 0.000605202 -0.0029063467 0.00031897385 0.00011047251 0.0055717197 0.0017311268
00000000: b511 233c 7be9 f03b 67a1 a33c cf33 363b
00000010: ad47 b93a c1f2 a8bb 476d 81ba ea1f a0bb
00000020: 41c7 be3b a377 f0b9 3cf7 7a3a 642f 2dba
00000030: 0307 853b db57 df3a 6047 033c 23cb de3b
00000040: 9db1 143c f8b5 a53a 1356 4e3c 390e 913a
00000050: c4fe 21b9 9c77 553b ad6c 183a 363b edba
00000060: 2d1b 653b c58d 94ba eac1 9b3a 20f0 8cba
00000070: a6a2 8b3a 1ce5 d9b9 c2ab b13b a017 203b
00000080: 6789 07bb fa47 98ba 256d 8239 fd5b 5bb9
00000090: 8df0 9aba 184f 563a da13 66b7 9f83 a33b
000000a0: 4b9a 20bb 1068 f7b9 0d03 b13a 6058 9d3a
000000b0: 6acf c73a 1623 1a3b 2e0a 49bb 5eb5 483a
000000c0: d5df 7f3c db3a 1d3c 432f c53c 9cda 4a39
000000d0: 312f c1ba b1ac 8e3b 7bec 6aba 56c7 85bb
000000e0: a34a 873b 0629 2d3a bf86 b63a 08a9 d13a
000000f0: 09f7 893b 5b3f 723b d5c6 e63b fbad b53b
00000100: 613e cb3c 36db 6f3c 350c 203d 1998 523b
00000110: c7f2 1f3a 81f8 a43b 8726 0838 e25e e3bb
00000120: 84de 193c f944 31ba 710f 82b9 f610 b9ba
00000130: 63b1 ae3b 6b05 883b 8786 6a3c 553c 0d3c
00000140: ead2 88bb 2422 09ba aa9e 89bb 7e80 dbba
00000150: 1960 a33a 5f8c a43b 82fb e33a 2c75 f63b
00000160: 5eb0 13bb 3ae0 58ba b7f5 44ba 994f d63b
00000170: 8d01 d4b8 d7d1 133b c2e8 fdba 0290 ec3a
00000180: 2acc 1539 9fb3 1239 5074 013a 4720 07ba
00000190: b944 4ab9 14fd 79ba b503 a0ba 1bb7 31ba
000001a0: 8606 883a 59ce 91b9 4252 84ba 6939 c9ba
000001b0: a2c7 3eba db17 47ba dee3 9bba b2b2 a4ba
000001c0: 9676 e23b 72bf 033c 1685 643c 541b 06b7
000001d0: d0c4 773a 2b50 83bb 829d dcba 23e9 60bb
000001e0: ec7a 973b a8ff 323a 095f e03a 224e b3ba
000001f0: cbba 223b f807 3fba 4d9e ba3b da63 c33b
00000200: 6a71 783c 374b 403c d0f4 c43c cf84 1c3b
00000210: b0c0 5eba 576c 273b 5e96 343a 1427 a8bb
00000220: 887c de3b f2cf 623a bbf5 1339 1472 113b
00000230: 1640 6c3b b838 363b 69f1 233c 3a97 103c
00000240: e79f 5e3c e263 1e3c cb26 c63c 3e3c a43a
00000250: 0715 9fba e19e 49bb b028 e3ba 9086 12bc
00000260: e700 f23b 9ff6 be3a 6ad3 803a e58b 31bb
00000270: a138 813b f674 eab9 aef9 353c d64d b03b
00000280: a5d5 743a 2f4c e739 e8aa dcba d451 b239
00000290: c544 8d3a d004 0636 ab1c d33a 3943 fc3a
000002a0: 046d d5ba 4bd5 9cba de8c 84ba 752e f63a
000002b0: 877b a2ba 375b 45b9 8de7 103a 78cb 0c3a
000002c0: 3171 7bba c0a6 ae3a 8c5a b3ba ca3e b3ba
000002d0: cc77 9aba 2c70 e139 20b5 05ba 03b7 fd3a
000002e0: 7194 45ba 42a7 8839 de3c 4d3a 8474 6539
000002f0: 00eb abba e7f8 9039 8a3e 433a 7f4d e1b9
00000300: 0b5e e539 1177 46ba 36fc cfba 0eba c9b9
00000310: 1e5a aaba 303c d73a e8dd cd3a a23b 03b9
00000320: d884 74ba 4a97 573a 4ded cfb8 dbab 543a
00000330: 10e2 a2ba 01ad 07ba efcb 0b38 8ec9 8bba
00000340: e448 2d3c dc62 223b f633 6e3c 924c ec3a
00000350: 9e9f 883a beb9 05b7 bbb3 f0ba 8fb7 97bb
00000360: 5278 a93b 8544 be3a e2cc db3a 449f 13bb
00000370: a803 ccb9 8048 363a f71e c73b 3d68 833b
00000380: f467 043b ad4b 983a 9cd0 403b 6e79 a63a
00000390: 4311 26ba 922c 703b b04a 82ba 6d23 243b
000003a0: c716 8036 2eaa e8b9 2abf 6cba 6bde 123b
000003b0: 9fd5 58ba b348 933a c5a9 c83a fe89 1ab9
000003c0: 9dfa 143c b8c6 f83a 3365 6e3c 911f 4539
000003d0: 3ee6 bb3a 02dc 7a3b 6deb c2ba 760b b4ba
000003e0: 270f 673b f967 ccba 6ba6 1e3a 6878 3ebb
000003f0: f23b a739 7aad e738 f992 b63b fae6 e23a
